parameters/MNIST/enc-trained-model.pth (torch, 22124 bytes, 5 tensors)

conv1.weight f4 [1, 1, 7, 7]
-0.08826691 -0.19885607 0.02802803 -0.03716031 -0.19535252 -0.09170415 -0.13772412 -0.020070264
-0.18872382 -0.16345716 0.075449325 0.098956354 -0.076680176 -0.017152203 -0.105168514 -0.10791525
0.051333603 -0.08681326 -0.014279601 -0.20899735 -0.120431095 -0.22238812 0.04100386 0.09309494
0.118602 0.11012999 0.032284416 -0.1635699 0.015232911 0.13809282 0.08408602 -0.10243374
-0.16716644 -0.05041735 -0.18862507 -0.09576299 -0.08470694 0.11035883 0.08567745 -0.054105744
-0.15107496 -0.222026 -0.20983687 -0.14809094 -0.014626323 -0.0034936839 -0.15798117 -0.22550358
-0.2898002
00000000: 48c5 b4bd eda0 4bbe 0a9b e53c 6935 18bd
00000010: 7e0a 48be 63cf bbbd 8d07 0dbe 656a a4bc
00000020: d140 41be 5061 27be 2d85 9a3d a1a9 ca3d
00000030: 7f0a 9dbd c782 8cbc 9762 d7bd ac02 ddbd
00000040: 2f43 523d 27cb b1bd fdf4 69bc 6703 56be
00000050: 94a4 f6bd b6b9 63be aaf3 273d 8fa8 be3d
00000060: 9be5 f23d d58b e13d aa3c 043d de7e 27be
00000070: 7693 793c 3468 0d3e 4b35 ac3d c8c8 d1bd
00000080: ae2d 2bbe 6c82 4ebd ee26 41be 631f c4bd
00000090: d57a adbd cf03 e23d a977 af3d fc9d 5dbd
000000a0: 65b3 1abe c95a 63be 7adf 56be 27a5 17be
000000b0: 3fa3 6fbc 4af6 64bb d1c5 21be 69ea 66be
000000c0: b160 94be

fc1.weight f4 [64, 64]
0.02438006 -0.05854993 0.043489303 0.03974141 0.10505746 0.005594025 -0.066903554 0.060491458
0.034543455 -0.019778062 0.12337439 0.11685 0.15100022 0.022826267 -0.054212935 -0.002198949
0.028480291 -0.040524174 -0.09577627 0.055122107 -0.034799866 0.070477664 -0.0734151 0.16014525
0.0003588577 -0.084856436 0.098300636 0.088911384 -0.11903128 4.071102e-05 0.088457115 -0.061378073
-0.002662691 -0.13220876 0.0908104 -0.05150406 -0.09229201 0.050932627 -0.11483276 -0.04045013
0.034694783 0.12432991 0.06290148 0.09473913 0.069522366 0.15099563 -0.02036342 -0.06941139
0.037579626 0.024276676 -0.07946952 0.0057103774 -0.09407454 0.13981208 -0.02889012 -0.027508896
0.020656426 0.14370419 -0.07687225 0.12523241 0.18467619 0.055731244 0.07918066 0.03479386
0.022105172 0.14808843 -0.03327941 0.013722582 0.14603448 0.106917314 -0.100096114 -0.02479502
-0.049513366 -0.023762807 -0.08045812 0.11992217 -0.015084645 0.057638932 -0.090279326 -0.01564921
-0.033799764 -0.036082804 0.035679873 -0.025318807 0.050802823 -0.048951577 -0.13048165 0.081875116
0.035311036 -0.06652061 -0.03038921 0.071013026 -0.0782496 0.16433528 -0.054034755 -0.07626464
-0.01233963 0.0245383 -0.020558566 -0.124443896 0.18426725 0.00089916046 0.046394818 0.07101287
-0.033216335 -0.067686975 -0.03780876 0.07279402 -0.06404982 0.023267105 0.14230993 -0.029865347
0.08955442 0.05555843 0.07370244 -0.119323924 0.1161773 0.07554778 -0.028837686 0.05206364
0.06533701 -0.0837699 0.1633279 0.1121965 0.13331996 0.028634574 0.1470724 -0.07923434
0.13521951 0.10195675 0.085293554 -0.047369387 -0.060768317 0.047315672 0.06134726 -0.02931251
-0.0898231 0.003703096 0.05156626 0.14832613 0.05607546 -0.038825992 0.09831084 -0.09004951
0.13627727 -0.040053777 0.12296565 0.08248535 -0.061690353 -0.02492543 0.091528594 0.12463162
-0.076107726 0.013167587 0.10539058 -0.093708634 -0.044186853 -0.022881266 -0.037083652 0.039625708
-0.060990103 0.073239945 -0.017539684 0.1287366 -0.082129106 0.13050158 -0.10043091 -0.064035214
-0.094459966 0.07954954 0.044277493 -0.09567207 -0.05286896 0.099335484 -0.05494367 0.09215912
-0.14715165 -0.06697188 0.1533808 0.11175651 0.0097481245 0.1184405 -0.044681996 -0.0152341295
-0.08286944 0.0428534 -0.06455185 -0.04938896 0.038018912 -0.0005338713 -0.08894687 -0.0456182
0.0013495354 -0.067380145 -0.11386665 -0.06937632 -0.0062943976 -0.1656054 0.024814375 -0.06946005
-0.06027974 -0.13481787 -0.09663461 0.07386157 0.070806086 -0.060335778 -0.17799956 -0.16193627
-0.07822604 0.16352145 0.08671614 0.0013502995 -0.01976303 0.124021456 0.07566238 0.039578397
-0.06351786 -0.08181824 -0.16367222 0.027191414 -0.06563191 -0.085479856 -0.14177293 0.091771856
-0.17183463 -0.07218825 0.04674594 -0.115931615 -0.12734072 -0.06512852 -0.046161264 -0.047683638
0.011462384 0.027796078 -0.05485246 -0.009283839 0.036538567 0.056400098 -0.10568537 0.05092867
0.0043947822 0.09900281 -0.10334856 -0.08649607 -0.13043237 -0.041468374 -0.06581379 0.026410514
-0.05533019 0.14480215 0.09061731 0.055566106 -0.11109983 -0.1284177 0.054312725 -0.012594093
00000000: b1b8 c73c 0dd2 6fbd d721 323d e4c7 223d
00000010: 5e28 d73d 154e b73b bb04 89bd e4c5 773d
00000020: 707d 0d3d 9a05 a2bc b6ab fc3d 0e4f ef3d
00000030: cd9f 1a3e 27fe ba3c 620e 5ebd 3e1c 10bb
00000040: 804f e93c adfc 25bd 5926 c4bd b8c7 613d
00000050: 4e8a 0ebd 9856 903d a85a 96bd 1efd 233e
00000060: 1125 bc39 36c9 adbd d851 c93d 2c17 b63d
00000070: acc6 f3bd 20c1 2a38 0129 b53d 9367 7bbd
00000080: 8b80 2ebb bc61 07be cefa b93d ecf5 52bd
00000090: 9803 bdbd bb9e 503d 702d ebbd 09af 25bd
000000a0: 1e1c 0e3d aea0 fe3d 7ed2 803d 9706 c23d
000000b0: be61 8e3d 999e 1a3e 30d1 a6bc 8f27 8ebd
000000c0: 18ed 193d e1df c63c eac0 a2bd 1e1e bb3b
000000d0: 27aa c0bd e62a 0f3e f9aa ecbc 565a e1bc
000000e0: aa37 a93c 3127 133e 336f 9dbd ed3c 003e
000000f0: c11b 3d3e 7246 643d 7829 a23d 0284 0e3d
00000100: e815 b53c 7ea4 173e fe4f 08bd aed4 603c
00000110: 108a 153e 77f7 da3d 31ff ccbd ed1e cbbc
00000120: 87ce 4abd 38aa c2bc 3ac7 a4bd c199 f53d
00000130: 9625 77bc cd16 6c3d 5ee4 b8bd c632 80bc
00000140: 9f71 0abd 90cb 13bd 0f25 123d 6369 cfbc
00000150: 9f16 503d 7381 48bd fb9c 05be 24ae a73d
00000160: 4ea2 103d f53b 88bd cbf2 f8bc 476f 913d
00000170: 5441 a0bd 8247 283e 8c53 5dbd a330 9cbd
00000180: 292c 4abc 8b04 c93c 706a a8bc 71dc febd
00000190: 8eb0 3c3e a3b5 6b3a 7e08 3e3d 326f 913d
000001a0: da0d 08bd 789f 8abd 5cdd 1abd 0815 953d
000001b0: 8d2c 83bd a89a be3c b2b9 113e 2ca8 f4bc
000001c0: 4f68 b73d 3c91 633d 4ef1 963d 1a60 f4bd
000001d0: 5dee ed3d cbb8 9a3d 033d ecbc af40 553d
000001e0: 69cf 853d 8e8f abbd 6e3f 273e 47c7 e53d
000001f0: 0785 083e 0e93 ea3c 269a 163e 9d45 a2bd
00000200: fc76 0a3e b3ce d03d 63ae ae3d 6706 42bd
00000210: 33e8 78bd 14ce 413d 4447 7b3d ca20 f0bc
00000220: 2cf5 b7bd a4af 723b 2537 533d cee2 173e
00000230: 62af 653d 0108 1fbd 3257 c93d e16b b8bd
00000240: 458c 0b3e 6e0f 24bd 6ad5 fb3d 14ee a83d
00000250: 06af 7cbd 6a30 ccbc 5873 bb3d dd3e ff3d
00000260: 5ede 9bbd ddbc 573c 04d7 d73d 50ea bfbd
00000270: 46fd 34bd 7e71 bbbc 07e5 17bd 914e 223d
00000280: c2d0 79bd d3fe 953d 62af 8fbc 87d3 033e
00000290: 4e33 a8bd 35a2 053e b9ae cdbd e524 83bd
000002a0: 3a74 c1bd dfea a23d 515c 353d b8ef c3bd
000002b0: 1f8d 58bd 6770 cb3d 9d0c 61bd ecbd bc3d
000002c0: ecae 16be 8e28 89bd db0f 1d3e 99e0 e43d
000002d0: 99b6 1f3c ef90 f23d 7804 37bd 9298 79bc
000002e0: 74b7 a9bd 0c87 2f3d c333 84bd 144c 4abd
000002f0: b8b9 1b3d 7ff3 0bba c729 b6bd 26da 3abd
00000300: e5e2 b03a 9afe 89bd eb32 e9bd 2c15 8ebd
00000310: 3c41 cebb 7694 29be 8447 cb3c 1241 8ebd
00000320: e3e7 76bd b20d 0abe 5ee8 c5bd bc44 973d
00000330: c802 913d a622 77bd 8445 36be 9fd2 25be
00000340: f934 a0bd 2b72 273e 3b98 b13d 88fc b03a
00000350: 14e6 a1bc f6fe fd3d e1f4 9a3d f51c 223d
00000360: a715 82bd 5290 a7bd b199 27be 87c0 de3c
00000370: 066a 86bd 1010 afbd ec2c 11be e2f2 bb3d
00000380: 6bf5 2fbe 6fd7 93bd ac78 3f3d 8e6d edbd
00000390: 9b65 02be 1a62 85bd 9813 3dbd eb4f 43bd
000003a0: b9cc 3b3c 9ab4 e33c f9ac 60bd 3e1b 18bc
000003b0: 77a9 153d ca03 673d 9271 d8bd 959a 503d
000003c0: 1b02 903b fcc1 ca3d 69a8 d3bd da24 b1bd
000003d0: 1090 05be beda 29bd 61c9 86bd dd5a d83c
000003e0: e9a1 62bd 0447 143e 9195 b93d 4999 633d
000003f0: 4f88 e3bd ee7f 03be 0577 5e3d 7457 4ebc

fc1.bias f4 [64]
0.15832317 0.096793294 -0.08431399 -0.17415358 0.049557194 0.09099883 0.08959889 -0.030266084
-0.015830394 -0.16603011 -0.045434803 0.044068024 -0.03404292 0.022109231 0.07193152 0.11149102
-0.14151372 -0.10347306 0.10745408 -0.09149058 0.0840525 0.07639305 0.045437884 0.013156747
0.059857618 -0.1427986 0.09183606 0.055062145 -0.059367128 -0.13400999 0.16333099 0.06834523
-0.12855425 0.16556099 0.18088436 -0.021567319 -0.13909714 -0.04903564 0.097705334 -0.097097896
0.1071551 -0.09410304 -0.13413624 -0.11015016 0.02118232 0.058282826 -0.027821817 0.11632584
-0.08716545 -0.17766732 -0.089884676 0.11442346 0.053945072 -0.115564816 0.05065755 0.14676888
0.15668942 0.0695683 0.11209135 -0.0053716935 -0.18095475 0.0038137517 0.09794512 -0.11126555
00000000: 781f 223e 903b c63d d0ac acbd 5155 32be
00000010: 7cfc 4a3d 985d ba3d 9f7f b73d 94f0 f7bc
00000020: beae 81bc cc03 2abe d819 3abd ac80 343d
00000030: 9770 0bbd 6b1e b53c d550 933d 6755 e43d
00000040: f9e8 10be afe9 d3bd e210 dc3d 6a5f bbbd
00000050: b823 ac3d f673 9c3d 131d 3a3d 668f 573c
00000060: 432d 753d cc39 12be 8b14 bc3d d888 613d
00000070: f22a 73bd ea39 09be 3d40 273e 95f8 8b3d
00000080: baa3 03be d288 293e c039 393e f2ad b0bc
00000090: 7b6f 0ebe 98d9 48bd bc19 c83d 43db c6bd
000000a0: 2274 db3d 18b9 c0bd 035b 09be 6896 e1bd
000000b0: 8b86 ad3c f9b9 6e3d 94ea e3bc 3e3c ee3d
000000c0: cd83 b2bd 6cee 35be 7515 b8bd d956 ea3d
000000d0: 82f5 5c3d 3fad ecbd 4b7e 4f3d 954a 163e
000000e0: 3173 203e d379 8e3d 2690 e53d 0805 b0bb
000000f0: 344c 39be 23f0 793b 7397 c83d 31df e3bd

fc2.weight f4 [10, 64]
0.098360755 0.13077223 -0.11796625 -0.19091941 0.064751826 0.006896371 -0.018070906 0.053824846
0.042051334 -0.15308559 -0.15630998 0.058880996 0.03435531 -0.03061738 0.011199609 -0.119887255
-0.106229626 0.12603703 0.028414622 -0.12815605 -0.12794791 -0.20233351 -0.096248195 0.102873005
0.042731382 0.086219154 0.124102056 -0.1281439 -0.1715272 -0.050638266 0.10840425 0.0746634
-0.10740696 -0.009741547 -0.033904843 -0.0012517845 0.0239974 -0.17187473 -0.06154304 0.018069936
-0.18691494 0.09512042 -0.11216365 0.022746809 0.05081988 -0.040065873 -0.11815512 0.0157926
-0.044270232 -0.071192674 -0.16510144 0.09524069 -0.13173918 -0.20710573 -0.09546573 0.013115412
-0.2068798 0.031409778 -0.10989387 -0.009753158 -0.13257219 -0.057948492 -0.12704909 -0.124550834
0.1676818 0.019264938 -0.10783401 0.09400042 -0.08151532 -0.17140955 0.089029364 0.03050434
0.011292519 0.0007888526 -0.024380054 -0.11344986 -0.15815154 -0.09098057 -0.119075 -0.14442709
-0.07243019 -0.005260826 0.08718409 0.17098448 -0.0019842838 0.1272945 0.085921235 -0.09741003
-0.13170908 0.14671034 0.16290163 0.09961092 -0.10865432 -0.20187493 -0.11761986 -0.009494578
-0.038130186 -0.09018524 0.11639932 0.06124773 0.14351179 -0.08043681 -0.007843577 0.18364221
0.14387502 -0.046041988 0.08324789 -0.07941018 0.11116779 -0.0149974255 0.019265456 -0.12866074
-0.19556613 0.011226325 -0.0577796 0.01652135 -0.039912645 -0.12610772 -0.009510657 0.02672367
-0.061562132 -0.14306094 0.076303154 -0.16199966 0.064922936 0.082725905 -0.07648931 0.03371534
-0.09066861 -0.100772254 0.006831648 0.041238993 0.042024758 -0.049791694 -0.10300984 -0.111763455
-0.06182755 -0.062117968 0.106398106 0.01887711 0.037923735 0.1244505 -0.14429317 0.124344304
-0.076790996 -0.057124123 0.08093191 -0.00830717 -0.1393346 -0.060068056 0.09785593 -0.09909444
0.03256569 -0.1752019 -0.048415676 0.068188414 -0.00016511307 -0.040496893 0.07693341 0.050592877
0.09670097 -0.1866274 -0.034166574 -0.06023522 -0.024683885 0.09491797 -0.055615265 -0.20026226
-0.031776153 -0.051490497 0.06937957 -0.032514025 0.025178354 0.051806506 -0.15454353 -0.13447455
-0.028412726 -0.20765206 -0.07933394 0.09761174 0.10230944 -0.05464942 -0.18691203 -0.05688219
-0.06873907 -0.03766972 -0.14049879 -0.06211192 -0.041952863 -0.06861744 0.082965545 -0.105140224
0.021044765 0.0366057 0.119627506 -0.08202829 -0.14814784 -0.009355122 0.010965119 -0.1287338
-0.10214091 -0.07969791 0.06557606 -0.09021766 0.10673142 0.10098641 0.08619778 0.11524266
0.02805385 -0.11437194 0.07645552 -0.12298133 -0.12862921 -0.078451045 0.05970428 -0.099579334
-0.12954257 -0.10458339 -0.17637981 0.07974822 -0.157096 0.03871348 -0.07692134 -0.040978827
-0.1435106 -0.09368698 -0.12849616 -0.1500096 0.046965178 -0.08133912 -0.01796516 0.020287978
-0.079412065 0.03573914 -0.061244935 -0.08764506 -0.13979277 0.054624923 0.010544777 -0.05559259
0.032059923 0.0016121591 -0.077132866 0.1141567 0.023839733 -0.09929693 0.12253244 0.07982325
-0.13646607 0.14030753 -0.0654538 -0.054774597 -0.14706858 0.05044341 0.085177146 0.013481523
00000000: 5d71 c93d 28e9 053e 4a98 f1bd 6180 43be
00000010: 9b9c 843d f4fa e13b 7009 94bc 7177 5c3d
00000020: 053e 2c3d 78c2 1cbe b90f 20be 332d 713d
00000030: 27b8 0c3d 4dd1 fabc 917e 373c 7387 f5bd
00000040: eb8e d9bd da0f 013e c8c5 e83c 573b 03be
00000050: c704 03be 8430 4fbe c61d c5bd 15af d23d
00000060: 1a07 2f3d ab93 b03d 3829 fe3d 2838 03be
00000070: d4a4 2fbe 126a 4fbd 0c03 de3d 20e9 983d
00000080: 2ef8 dbbd 029b 1fbc cedf 0abd eb12 a4ba
00000090: 3296 c43c eeff 2fbe 8e14 7cbd 6707 943c
000000a0: a166 3fbe 7fce c23d 0eb6 e5bd 8457 ba3c
000000b0: 8228 503d 1d1c 24bd 50fb f1bd 7c5f 813c
000000c0: b454 35bd 77cd 91bd 5a10 29be 8d0d c33d
000000d0: a3e6 06be 8613 54be 8983 c3bd 06e2 563c
000000e0: 4cd8 53be 8aa7 003d 0a10 e1bd b6cb 1fbc
000000f0: 01c1 07be 665b 6dbd 2819 02be 8214 ffbd
00000100: c7b4 2b3e 81d1 9d3c 14d8 dcbd 4b83 c03d
00000110: 81f1 a6bd fc85 2fbe 0755 b63d 3de4 f93c
00000120: 4204 393c 00cb 4e3a aeb8 c7bc 6658 e8bd
00000130: 7af2 21be 0554 babd 98dd f3bd b2e4 13be
00000140: 4856 94bd 0263 acbb 928d b23d 8e16 2f3e
00000150: c20a 02bb 7d59 023e 79f7 af3d e97e c7bd
00000160: bfde 06be 3c3b 163e afcf 263e cf00 cc3d
00000170: 2886 debd 4db8 4ebe aee2 f0bd 258f 1bbc
00000180: 662e 1cbd 0ab3 b8bd c462 ee3d e6de 7a3d
00000190: c1f4 123e 0ebc a4bd 5982 00bc b40c 3c3e
000001a0: f953 133e 8696 3cbd df7d aa3d cea1 a2bd
000001b0: f0ab e33d c3b7 75bc 97d2 9d3c a4bf 03be
000001c0: 7d42 48be 9fee 373c 4daa 6cbd c857 873c
000001d0: 717b 23bd 6222 01be 96d2 1bbc 99eb da3c
000001e0: 9328 7cbd 917e 12be d444 9c3d 3de3 25be
000001f0: 51f6 843d 336c a93d 6da6 9cbd 1919 0a3d
00000200: 77b0 b9bd af61 cebd 04dc df3b 38ea 283d
00000210: 2722 2c3d 60f2 4bbd d3f6 d2bd 3de4 e4bd
00000220: e33e 7dbd 696f 7ebd 40e7 d93d 2ba4 9a3c
00000230: eb55 1b3d e7df fe3d 97c1 13be 3aa8 fe3d
00000240: 9944 9dbd fcfa 69bd a1bf a53d cc1a 08bc
00000250: bbad 0ebe ec09 76bd b168 c83d 07f2 cabd
00000260: 9a63 053d 2068 33be 844f 46bd 5ea6 8b3d
00000270: 3422 2db9 12e0 25bd 438f 9d3d 7a3a 4f3d
00000280: 280b c63d 411b 3fbe 40f2 0bbd 35b9 76bd
00000290: dc35 cabc 5a64 c23d d5cc 63bd 8d11 4dbe
000002a0: b627 02bd b3e7 52bd e016 8e3d 6d2d 05bd
000002b0: d642 ce3c 0f33 543d a940 1ebe b2b3 09be
000002c0: cec1 e8bc bea2 54be d579 a2bd aae8 c73d
000002d0: 9d87 d13d 12d8 5fbd de65 3fbe 4dfd 68bd
000002e0: 12c7 8cbd 904b 1abd eade 0fbe 1269 7ebd
000002f0: c4d6 2bbd 4d87 8cbd d7e9 a93d c253 d7bd
00000300: 1266 ac3c dcef 153d 44ff f43d 73fe a7bd
00000310: 11b4 17be 3a46 19bc 0ba7 333c cbd2 03be
00000320: 412f d1bd a838 a3bd be4c 863d 09c4 b8bd
00000330: 0196 da3d f7d1 ce3d 7688 b03d 5804 ec3d
00000340: 30d1 e53c d63b eabd b694 9c3d a3dd fbbd
00000350: 60b7 03be f1aa a0bd 7a8c 743d 40f0 cbbd
00000360: cfa6 04be d12f d6bd e99c 34be 0953 a33d
00000370: c6dd 20be 0792 1e3d ef88 9dbd 6ad9 27bd
00000380: 71f4 12be f6de bfbd 7f94 03be 1e9c 19be
00000390: 8f5e 403d 2095 a6bd ac2b 93bc f932 a63c
000003a0: cba2 a2bd 3463 123d f8db 7abd 417f b3bd
000003b0: d625 0fbe 62be 5f3d 00c4 2c3c 0eb5 63bd
000003c0: 4451 033d 154f d33a d6f7 9dbd fdca e93d
000003d0: 8b4b c33c 305c cbbd 4af2 fa3d 5f7a a33d
000003e0: c3bd 0bbe c7ac 0f3e a40c 86bd 545b 60bd
000003f0: 2599 16be c09d 4e3d 5b71 ae3d 9be1 5c3c

fc2.bias f4 [10]
0.097311 -0.055508945 -0.08044399 0.0014266591 -0.09039492 -0.08177069 0.0861714 0.012334518
0.058510825 -0.07546399
00000000: fd4a c73d 595d 63bd d2bf a4bd bcfe ba3a
00000010: f920 b9bd 6477 a7bd a27a b03d b816 4a3c
00000020: 0ca9 6f3d dd8c 9abd
