parameters/MNIST/enc-trained-model.pth (torch, 22124 bytes, 5 tensors)

conv1.weight f4 [1, 1, 7, 7]
0	0xbdb4527b	-0.088047944
1	0xbe4b537b	-0.19856064
2	0x3ce6f2c1	0.028191926
3	0xbd1729f2	-0.036905237
4	0xbe47df12	-0.19518688
5	0xbdbc0815	-0.09181229
6	0xbe0d2705	-0.13784416
7	0xbca1b6ff	-0.01974058
8	0xbe40cc63	-0.18827967
9	0xbe2701f5	-0.1630934
10	0x3d9b4db6	0.075831816
11	0x3dcb4e20	0.099270105
12	0xbd9d537b	-0.07681938
13	0xbc8cbe89	-0.017180698
14	0xbdd63e29	-0.10461075
15	0xbddc124c	-0.10745677
16	0x3d531bf4	0.05154033
17	0xbdb103b4	-0.086432844
18	0xbc650bc0	-0.013979852
19	0xbe55d9ff	-0.2088394
20	0xbdf6340d	-0.12021647
21	0xbe6372de	-0.22211787
22	0x3d28fe23	0.04125799
23	0x3dbf4729	0.093397446
24	0x3df36911	0.11885274
25	0x3de1e998	0.110308826
26	0x3d0494e7	0.032368567
27	0xbe27574f	-0.163419
28	0x3c7a65a8	0.015283026
29	0x3e0dbe5a	0.13842145
30	0x3dad0328	0.08447868
31	0xbdd14ca7	-0.102196984
32	0xbe2ac6c8	-0.16677392
33	0xbd4d9522	-0.050191052
34	0xbe40cc7f	-0.18828009
35	0xbdc3b4a1	-0.095559366
36	0xbdacdeb4	-0.08440915
37	0x3de29e89	0.110653944
38	0x3dafd07f	0.08584689
39	0xbd5c1813	-0.053733896
40	0xbe1a7e81	-0.1508732
41	0xbe63384a	-0.22189441
42	0xbe56b351	-0.20966841
43	0xbe176a6e	-0.14786693
44	0xbc6d1797	-0.014470956
45	0xbb5ad101	-0.0033388736
46	0xbe219203	-0.15778355
47	0xbe66e958	-0.22549951
48	0xbe946db2	-0.2898994

fc1.weight f4 [64, 64]
0	0x3cbdac19	0.023153352
1	0xbd6c5b98	-0.057704538
2	0x3d317861	0.043327693
3	0x3d22bbe7	0.03972998
4	0x3dd7f861	0.105454214
5	0x3bbae44b	0.005703484
6	0xbd88ece9	-0.06685812
7	0x3d787564	0.060658827
8	0x3d0ebddf	0.034849044
9	0xbca5efec	-0.020256005
10	0x3dfd1306	0.12357144
11	0x3def57a0	0.11686635
12	0x3e1ac7bf	0.1511526
13	0x3cbbb200	0.022912025
14	0xbd5e9053	-0.054336857
15	0xbaeb4da9	-0.0017952222
16	0x3ce946b7	0.028476102
17	0xbd259723	-0.04042734
18	0xbdc3f05c	-0.09567329
19	0x3d620d39	0.05518839
20	0xbd0d733f	-0.034533735
21	0x3d902123	0.0703757
22	0xbd965f5c	-0.07342407
23	0x3e241d1e	0.16026732
24	0x39db26f2	0.00041799952
25	0xbdadad06	-0.08480267
26	0x3dc95140	0.0982995
27	0x3db68bd5	0.089133896
28	0xbdf391c1	-0.11893035
29	0x3a95500a	0.0011391651
30	0x3db4f0f6	0.08835022
31	0xbd7ae053	-0.06124909
32	0xbb388bbe	-0.0028159465
33	0xbe07886b	-0.13235633
34	0x3dba17aa	0.09086545
35	0xbd52a35b	-0.05142532
36	0xbdbd11a7	-0.092318825
37	0x3d50d818	0.050987333
38	0xbdeb1449	-0.114784785
39	0xbd25567e	-0.04036569
40	0x3d0e2a08	0.034708053
41	0x3dfe8efa	0.12429614
42	0x3d81801f	0.06323265
43	0x3dc26916	0.094927
44	0x3d8e7413	0.06955733
45	0x3e1a9b75	0.15098365
46	0xbca88adc	-0.020574026
47	0xbd8ea5de	-0.069652304
48	0x3d1abe15	0.037778933
49	0x3cc86147	0.024460448
50	0xbd9ddad7	-0.07707756
51	0x3bbf7aa0	0.0058434755
52	0xbdc0c717	-0.094129734
53	0x3e0f1de8	0.13976252
54	0xbceb9b5c	-0.028760605
55	0xbce08c13	-0.027410543
56	0x3caab9e7	0.020840598
57	0x3e13460c	0.1438219
58	0xbd9cf61f	-0.076641314
59	0x3e005d3e	0.12535569
60	0x3e3d0cb2	0.18461874
61	0x3d63eef7	0.055647817
62	0x3da28e1b	0.07937261
63	0x3d0e00a3	0.034668576
64	0x3cc3c436	0.023897272
65	0x3e1722fb	0.14759438
66	0xbd08784b	-0.033317845
67	0x3c5eee3c	0.013606604
68	0x3e157ed5	0.14599164
69	0x3dda6008	0.10662848
70	0xbdcd75ea	-0.10032256
71	0xbccae8bf	-0.024769185
72	0xbd4a925a	-0.049455978
73	0xbcc14147	-0.023590697
74	0xbda4f8d7	-0.08055275
75	0x3df5ac64	0.119957715
76	0xbc77e8cb	-0.015131186
77	0x3d6a3cd0	0.0571869
78	0xbdbb50c9	-0.09146268
79	0xbc833b49	-0.01601948
80	0xbd0a86e3	-0.033820044
81	0xbd13a224	-0.0360433
82	0x3d124a12	0.03571517
83	0xbcd06ba0	-0.025441945
84	0x3d4ecdf9	0.0504894
85	0xbd4a79f5	-0.049432714
86	0xbe062a3a	-0.13102046
87	0x3da7051d	0.08155272
88	0x3d103bd1	0.035213295
89	0xbd888e9f	-0.06667828
90	0xbcfbc1de	-0.030732092
91	0x3d91584d	0.0709692
92	0xbda0bedd	-0.07848904
93	0x3e27c2ae	0.16382858
94	0xbd5dcb2d	-0.05414884
95	0xbd9c570a	-0.07633789
96	0xbc4e4fa7	-0.012592233
97	0x3cc7f7b0	0.024410099
98	0xbca9fedd	-0.020751411
99	0xbdfeb643	-0.124371074
100	0x3e3c6e5c	0.18401474
101	0x3a5fa6ea	0.0008531647
102	0x3d3d1fff	0.046173092
103	0x3d91152d	0.07084117
104	0xbd08e6e5	-0.033423323
105	0xbd8b18a7	-0.067918114
106	0xbd1bb5d4	-0.0380152
107	0x3d950764	0.072768
108	0xbd83944f	-0.06424772
109	0x3cbdfad7	0.023190899
110	0x3e11b172	0.14227846
111	0xbcf5604f	-0.02995315
112	0x3db6e84f	0.08931028
113	0x3d6269c1	0.055276636
114	0x3d940460	0.07227397
115	0xbdf44801	-0.11927796
116	0x3dee35c7	0.11631351
117	0x3d9a96c6	0.07548289
118	0xbcedadaf	-0.029013483
119	0x3d547af9	0.05187509
120	0x3d857c41	0.0651784
121	0xbdac264b	-0.08405741
122	0x3e26f4be	0.16304299
123	0x3de50703	0.11182978
124	0x3e085aa0	0.1331582
125	0x3ce6ed3d	0.028189296
126	0x3e168f57	0.14703117
127	0xbda25d5b	-0.079279624
128	0x3e0b41a5	0.1359926
129	0x3dd18c5f	0.10231852
130	0x3daeeb09	0.08540923
131	0xbd4232af	-0.047411617
132	0xbd794b05	-0.06086256
133	0x3d41435a	0.047183372
134	0x3d7a5bf7	0.06112286
135	0xbceef3e7	-0.029169036
136	0xbdb7c169	-0.08972437
137	0x3b74097d	0.00372371
138	0x3d524e27	0.051344063
139	0x3e17d172	0.14825991
140	0x3d65da81	0.056116585
141	0xbd20128a	-0.03908018
142	0x3dc94bdf	0.098289244
143	0xbdb81cb9	-0.089898534
144	0x3e0b9656	0.13631567
145	0xbd24a2e2	-0.0401944
146	0x3dfbfea6	0.1230443
147	0x3da92f10	0.082609296
148	0xbd7d5677	-0.061850037
149	0xbccf18d8	-0.025280401
150	0x3dbad3dc	0.0912244
151	0x3dff3f2f	0.12463223
152	0xbd9c4e5a	-0.07632132
153	0x3c5342e7	0.012894369
154	0x3dd7cae6	0.10536747
155	0xbdc07405	-0.09397129
156	0xbd3512d9	-0.044207428
157	0xbcb1b449	-0.021692412
158	0xbd176883	-0.036964905
159	0x3d22d183	0.039750587
160	0xbd79cb71	-0.060985032
161	0x3d95e0c3	0.073182605
162	0xbc8f25fe	-0.01747417
163	0x3e03c95b	0.1286978
164	0xbda87053	-0.08224549
165	0x3e05bc1e	0.13060042
166	0xbdce1781	-0.10063077
167	0xbd831186	-0.06399827
168	0xbdc20102	-0.094728485
169	0x3da2f137	0.07956164
170	0x3d3482ba	0.044069983
171	0xbdc43e8a	-0.09582241
172	0xbd594a2a	-0.053049244
173	0x3dcb7f6b	0.099364124
174	0xbd62dad1	-0.05538446
175	0x3dbcaea7	0.09213
176	0xbe16f660	-0.14742422
177	0xbd8936b7	-0.06699889
178	0x3e1ef2a6	0.1552225
179	0x3de4e76e	0.11176954
180	0x3c21ef83	0.009883764
181	0x3df23cb9	0.11827988
182	0xbd38265d	-0.04495846
183	0xbc79bed5	-0.015243252
184	0xbdaa5419	-0.083168216
185	0x3d2f24df	0.042759772
186	0xbd84ae5c	-0.06478569
187	0xbd4baff2	-0.04972834
188	0x3d1b7474	0.037952855
189	0xb9a4b773	-0.00031417198
190	0xbdb60ace	-0.088887796
191	0xbd3ac0f3	-0.045594167
192	0x3bd6f61c	0.0065601002
193	0xbd901ec0	-0.07037115
194	0xbde94fae	-0.11392151
195	0xbd8dffe8	-0.06933576
196	0xbbceff29	-0.0063170386
197	0xbe2963c4	-0.16541964
198	0x3cccd487	0.025003685
199	0xbd8dba47	-0.06920295
200	0xbd7705af	-0.060308155
201	0xbe0a0079	-0.13476743
202	0xbdc5e142	-0.09662105
203	0x3d973023	0.07382228
204	0x3d919520	0.071085215
205	0xbd783a1c	-0.060602292
206	0xbe362227	-0.17786466
207	0xbe25912c	-0.1616866
208	0xbda077cd	-0.0783535
209	0x3e27485e	0.163362
210	0x3db12360	0.08649325
211	0x3ad4f60b	0.0016247643
212	0xbca10b3e	-0.019658681
213	0x3dfd88ec	0.123796314
214	0x3d9b10c7	0.075715594
215	0x3d226dde	0.03965556
216	0xbd827db4	-0.06371632
217	0xbda7a327	-0.08185416
218	0xbe2786f3	-0.16360073
219	0x3cdf196f	0.027233807
220	0xbd8670bf	-0.06564473
221	0xbdac8068	-0.08422929
222	0xbe11186a	-0.1416947
223	0x3dbb5e4f	0.09148847
224	0xbe3046bf	-0.17214487
225	0xbd93d2a0	-0.07217908
226	0x3d3e5032	0.0464632
227	0xbdedc5d6	-0.1161
228	0xbe0260c7	-0.1273223
229	0xbd8579ba	-0.06517358
230	0xbd3d4604	-0.04620935
231	0xbd4473bc	-0.047961935
232	0x3c3fabc7	0.01169867
233	0x3ce2f764	0.027705856
234	0xbd60c7ab	-0.05487792
235	0xbc17d316	-0.009266635
236	0x3d164d8f	0.03669506
237	0x3d665c29	0.056240235
238	0xbdd84144	-0.105593234
239	0x3d4f1a0c	0.05056195
240	0x3b94f31f	0.004545584
241	0x3dcb2202	0.09918596
242	0xbdcf5bd7	-0.10124939
243	0xbdb0f87d	-0.086411454
244	0xbe05c23b	-0.13062374
245	0xbd2a2f9e	-0.041549318
246	0xbd86f4dc	-0.06589672
247	0x3cd78f1b	0.026313355
248	0xbd62eb95	-0.05540045
249	0x3e1439dd	0.14475198
250	0x3db938fc	0.09044072
251	0x3d63f57a	0.055654027
252	0xbde3890a	-0.111101225
253	0xbe0367bf	-0.12832545
254	0x3d5dba00	0.05413246
255	0xbc4e7c4d	-0.012602878

fc1.bias f4 [64]
0	0x3e223414	0.15840179
1	0x3dc60c32	0.09670295
2	0xbdac979b	-0.08427354
3	0xbe326515	-0.17421372
4	0x3d4c0a06	0.049814247
5	0x3dba25d4	0.090892464
6	0x3db74d29	0.08950264
7	0xbcf878e6	-0.030331086
8	0xbc8193a1	-0.015817465
9	0xbe29db5a	-0.16587582
10	0xbd39addb	-0.045331817
11	0x3d3403ff	0.043949123
12	0xbd0b24f6	-0.033970796
13	0x3cb66b0c	0.02226784
14	0x3d936e7d	0.07198808
15	0x3de499bb	0.11162134
16	0xbe10de31	-0.1414726
17	0xbdd3dd4e	-0.10344945
18	0x3ddc18fc	0.10746953
19	0xbdbb467e	-0.09144305
20	0x3dab23ff	0.08356475
21	0x3d9cc9c8	0.07655674
22	0x3d3b5a68	0.045740515
23	0x3c552f8f	0.013011827
24	0x3d751442	0.059833772
25	0xbe12317c	-0.1427669
26	0x3dbc0d1a	0.091821864
27	0x3d61cbbb	0.055125933
28	0xbd73d59a	-0.05952988
29	0xbe093964	-0.13400799
30	0x3e275bf4	0.16343671
31	0x3d8bfaf8	0.06834978
32	0xbe03a446	-0.12855634
33	0x3e2961ac	0.16541165
34	0x3e39320e	0.180855
35	0xbcb339bb	-0.021878114
36	0xbe0e469b	-0.13894121
37	0xbd488d77	-0.048963036
38	0x3dc8095b	0.097674094
39	0xbdc6b76b	-0.09702953
40	0x3ddb294e	0.107012376
41	0xbdc0c340	-0.09412241
42	0xbe09641c	-0.13417095
43	0xbde17006	-0.11007695
44	0x3cace8f8	0.021107182
45	0x3d6ec0cb	0.05828933
46	0xbce3cd0b	-0.027807733
47	0x3dee26e9	0.11628515
48	0xbdb2ce6d	-0.08730779
49	0xbe35ff06	-0.17773065
50	0xbdb81c01	-0.08989716
51	0x3dea79d4	0.11449018
52	0x3d5c7290	0.053820193
53	0xbdeca9a7	-0.11555796
54	0x3d4e926b	0.050432604
55	0x3e163f13	0.14672498
56	0x3e204abd	0.1565351
57	0x3d8ea402	0.06964876
58	0x3de52546	0.1118875
59	0xbbafe8bc	-0.0053683203
60	0xbe39346a	-0.180864
61	0x3b7bb2f6	0.003840623
62	0x3dc89ce2	0.09795548
63	0xbde3d22e	-0.11124073

fc2.weight f4 [10, 64]
0	0x3dca16b6	0.09867613
1	0x3e05c46f	0.13063215
2	0xbdf262b4	-0.118352324
3	0xbe43c91b	-0.19119684
4	0x3d8669cc	0.06563148
5	0x3bb8a3f9	0.0056347814
6	0xbc947ace	-0.018124964
7	0x3d5d4480	0.054020405
8	0x3d29726e	0.041368894
9	0xbe1c8c7b	-0.15287964
10	0xbe205af6	-0.15659699
11	0x3d7177e1	0.058952216
12	0x3d0d3b57	0.03448042
13	0xbcf7bb39	-0.030240642
14	0x3c83ab49	0.016072886
15	0xbdf5f932	-0.12010421
16	0xbdda62e0	-0.1066339
17	0x3e010a6d	0.12601633
18	0x3cec2faf	0.028831331
19	0xbe045328	-0.12922347
20	0xbe034318	-0.12818563
21	0xbe4fa493	-0.20277624
22	0xbdc488d9	-0.09596414
23	0x3dd203bc	0.102546185
24	0x3d2ecda4	0.042676583
25	0x3daf3793	0.08555522
26	0x3dfde2e6	0.12396793
27	0xbe033a45	-0.12815197
28	0xbe300801	-0.17190553
29	0xbd4fc39e	-0.050723664
30	0x3dddc7c2	0.108291164
31	0x3d990041	0.074707516
32	0xbddab241	-0.106785305
33	0xbc18c3a1	-0.009323985
34	0xbd0d872b	-0.034552734
35	0xbaa4cf98	-0.0012574075
36	0x3cc9b2ed	0.024621451
37	0xbe309331	-0.17243649
38	0xbd7c4649	-0.061590467
39	0x3c957b5d	0.0182473
40	0xbe3ed799	-0.18636931
41	0x3dc23166	0.09482078
42	0xbde700dc	-0.11279461
43	0x3cb65fdb	0.022262504
44	0x3d4eec6a	0.05051843
45	0xbd20cf1d	-0.03926002
46	0xbdf201eb	-0.11816772
47	0x3c82944a	0.01593985
48	0xbd3790e2	-0.044815905
49	0xbd918e15	-0.07107178
50	0xbe2925a2	-0.16518262
51	0x3dc2551b	0.09488889
52	0xbe075128	-0.13214552
53	0xbe5475a5	-0.20748003
54	0xbdc37ad0	-0.09544909
55	0x3c4e6773	0.012597906
56	0xbe53ae8d	-0.20672055
57	0x3d00e65c	0.031469688
58	0xbde06634	-0.10956994
59	0xbc23801b	-0.009979273
60	0xbe076efb	-0.1322593
61	0xbd6baf19	-0.057540033
62	0xbe023962	-0.12717202
63	0xbe0045bc	-0.12526602
64	0x3e2bc460	0.1677413
65	0x3c9f1e07	0.019423498
66	0xbddd72f9	-0.10812945
67	0x3dc00d59	0.09377546
68	0xbda5db12	-0.08098425
69	0xbe2edb3a	-0.17075816
70	0x3db6318b	0.08896168
71	0x3cfb9310	0.030709773
72	0x3c409661	0.011754603
73	0x39ff1440	0.00048652478
74	0xbcc85a71	-0.024457188
75	0xbde8f874	-0.11375514
76	0xbe22188d	-0.15829678
77	0xbdba2a2c	-0.09090075
78	0xbdf20e9c	-0.11819193
79	0xbe13fe3c	-0.14452451
80	0xbd94a0e9	-0.07257254
81	0xbbad709e	-0.005292966
82	0x3db28ebd	0.087186314
83	0x3e2f1e45	0.1710139
84	0xbb1975ce	-0.0023416164
85	0x3e026f42	0.12737754
86	0x3db13444	0.08652547
87	0xbdc846a9	-0.09779102
88	0xbe071f12	-0.13195446
89	0x3e166fe7	0.14691125
90	0x3e26e65e	0.16298816
91	0x3dccabf6	0.099937364
92	0xbdde915a	-0.10867567
93	0xbe4ed868	-0.2019974
94	0xbdf1457f	-0.117808335
95	0xbc1e808a	-0.009674201
96	0xbd1e15ad	-0.03859489
97	0xbdb878df	-0.09007429
98	0x3dee64bc	0.11640307
99	0x3d7b17a6	0.06130185
100	0x3e12b543	0.14326958
101	0xbda4a258	-0.08038777
102	0xbbfed9cb	-0.007777428
103	0x3e3c2218	0.1837238
104	0x3e134f48	0.14385712
105	0xbd3e550e	-0.046467833
106	0x3da9da4c	0.0829359
107	0xbda33c21	-0.07970453
108	0x3de4c024	0.111694604
109	0xbc762347	-0.015023059
110	0x3c984793	0.018588817
111	0xbe03c801	-0.12869264
112	0xbe489fd8	-0.19592226
113	0x3c350861	0.011049361
114	0xbd6d6dc8	-0.057966024
115	0x3c871609	0.01649
116	0xbd221ea6	-0.03958001
117	0xbe015903	-0.12631612
118	0xbc17a3a2	-0.009255322
119	0x3cda7cb4	0.026670791
120	0xbd7c73c2	-0.061633833
121	0xbe12c196	-0.1433166
122	0x3d9c47a5	0.076308526
123	0xbe2629fe	-0.16226956
124	0x3d84a85b	0.06477424
125	0x3daa0697	0.08302038
126	0xbd9caf7d	-0.07650659
127	0x3d0a72c1	0.033800844
128	0xbdba3283	-0.090916656
129	0xbdce7ac3	-0.10082009
130	0x3be2ffd1	0.0069274683
131	0x3d29c1d0	0.0414446
132	0x3d2f6919	0.04282484
133	0xbd4dd20d	-0.05024915
134	0xbdd33c9e	-0.10314296
135	0xbde4cc90	-0.1117183
136	0xbd7b1952	-0.061303444
137	0xbd7dee58	-0.06199488
138	0x3dda2cae	0.10653053
139	0x3c9c0e96	0.019049924
140	0x3d1b8534	0.03796883
141	0x3dff9dd9	0.12481279
142	0xbe141d6c	-0.14464349
143	0x3dfefb69	0.124502964
144	0xbd9c44c5	-0.07630304
145	0xbd6a076a	-0.057135977
146	0x3da6165c	0.081097335
147	0xbc027822	-0.007963212
148	0xbe0ff2e8	-0.14057505
149	0xbd746d63	-0.05967463
150	0x3dc7b70f	0.097517125
151	0xbdcb19ff	-0.09917068
152	0x3d06e2a1	0.032930974
153	0xbe33b8d0	-0.17550969
154	0xbd4845d4	-0.04889472
155	0x3d8bb547	0.06821685
156	0xba405624	-0.00073370547
157	0xbd251472	-0.0403027
158	0x3d9df2cd	0.07712326
159	0x3d4f9455	0.05067857
160	0x3dc63646	0.096783206
161	0xbe3f9284	-0.18708235
162	0xbd0cc539	-0.034367774
163	0xbd759bb9	-0.05996296
164	0xbcc936ed	-0.024562323
165	0x3dc2b371	0.09506882
166	0xbd63c59c	-0.055608377
167	0xbe4d28f5	-0.20035155
168	0xbcffd46b	-0.031229218
169	0xbd519f93	-0.051177572
170	0x3d8e45ba	0.06946893
171	0xbd04ce2b	-0.03242318
172	0x3ccab2de	0.024743494
173	0x3d54387c	0.05181168
174	0xbe1e3512	-0.15449932
175	0xbe09a9e4	-0.13443714
176	0xbce71968	-0.028210357
177	0xbe54bc35	-0.2077492
178	0xbda2bf39	-0.07946629
179	0x3dc7fcf1	0.097650416
180	0x3dd15fee	0.10223375
181	0xbd5f5424	-0.054523602
182	0xbe3e6206	-0.1859208
183	0xbd68fc7f	-0.056881424
184	0xbd8cdb15	-0.06877724
185	0xbd1a26f2	-0.037634797
186	0xbe0ff68f	-0.14058898
187	0xbd7e4265	-0.062075038
188	0xbd2bebd3	-0.041972946
189	0xbd8cdecd	-0.068784334
190	0x3daa4475	0.083138384
191	0xbdd75599	-0.10514373
192	0x3cac4881	0.021030666
193	0x3d169941	0.036767248
194	0x3df54fcf	0.11978113
195	0xbda7adad	-0.08187423
196	0xbe189743	-0.14901452
197	0xbc17f056	-0.009273609
198	0x3c367855	0.011137088
199	0xbe044720	-0.12917757
200	0xbdd1e902	-0.10249521
201	0xbda2faee	-0.07958017
202	0x3d867907	0.06566053
203	0xbdb86db0	-0.09005296
204	0x3dda9f6a	0.10674937
205	0x3dcf3218	0.101169765
206	0x3db06eaf	0.08614861
207	0x3dec4c5b	0.11538001
208	0x3ce6fc6a	0.028196532
209	0xbdea1db3	-0.11431446
210	0x3d9c9236	0.07645075
211	0xbdfb7ca2	-0.12279631
212	0xbe037ecd	-0.1284134
213	0xbda0874a	-0.07838304
214	0x3d76c562	0.060246833
215	0xbdcb7353	-0.09934106
216	0xbe04a43d	-0.12953277
217	0xbdd5de00	-0.10442734
218	0xbe34bd87	-0.17650424
219	0x3da339b3	0.0796999
220	0xbe216f65	-0.1576515
221	0x3d1eb36a	0.03874532
222	0xbd9d88f3	-0.076921366
223	0xbd289ae8	-0.041163355
224	0xbe12f17b	-0.1434993
225	0xbdc020ae	-0.09381233
226	0xbe037a4c	-0.12839621
227	0xbe19c732	-0.15017393
228	0x3d3ffa1f	0.046869393
229	0xbda5d4c3	-0.08097222
230	0xbc9205fd	-0.017825121
231	0x3ca75381	0.02042556
232	0xbda3142f	-0.07962834
233	0x3d131091	0.03590447
234	0xbd7a2010	-0.061065733
235	0xbdb34849	-0.08754022
236	0xbe0f5a63	-0.13999324
237	0x3d600dec	0.054700777
238	0x3c2f5ef9	0.010703796
239	0xbd63aa64	-0.05558242
240	0x3d03f262	0.032213576
241	0x3adc9a92	0.0016830734
242	0xbd9db543	-0.077005886
243	0x3dea0bdd	0.11428044
244	0x3cc32d1a	0.023825217
245	0xbdcabc77	-0.09899228
246	0x3dfaf087	0.12252908
247	0x3da3ab57	0.07991665
248	0xbe0ba7f5	-0.1363829
249	0x3e0fb4a8	0.14033759
250	0xbd85fdde	-0.06542562
251	0xbd5fb0f4	-0.054612115
252	0xbe16a5f9	-0.14711751
253	0x3d4eb5da	0.050466396
254	0x3dae21ff	0.08502578
255	0x3c60d489	0.013722547

fc2.bias f4 [10]
0	0x3dc739c2	0.09727813
1	0xbd63a4a5	-0.05557694
2	0xbda4a7f2	-0.080398455
3	0x3ab796fb	0.0014006788
4	0xbdb91837	-0.09037822
5	0xbda741ea	-0.08166869
6	0x3db073c8	0.086158335
7	0x3c49caae	0.012316389
8	0x3d6faf86	0.058517
9	0xbd9a91b0	-0.07547319
