parameters/MNIST/enc-trained-model.pth (torch, 4716 bytes, 5 tensors)

conv1.weight f4 [1, 1, 7, 7]
0.03945475 -0.05126149 0.18931346 0.13130394 -0.032045208 0.07397276 0.01543441 0.11696
-0.025611224 8.266984e-05 0.21586545 0.2355303 0.0762022 0.16325366 0.03335576 0.03164697
0.1771394 0.01559252 0.08259311 -0.062006414 0.064579904 -0.07701507 0.15682167 0.16707607
0.1822351 0.19856581 0.18491668 0.043119002 0.1348283 0.22721569 0.14817931 -0.010768969
-0.03190144 0.15071373 0.052195717 0.04454602 0.027155386 0.23109618 0.21336392 0.12803726
0.08981372 0.029676054 -0.037465815 0.04335096 0.15350837 0.15637451 0.040737547 0.013660201
-0.047423225
00000000: 4e9b 213d 91f7 51bd 63db 413e 8a74 063e
00000010: d641 03bd 087f 973d 9ce0 7c3c b988 ef3d
00000020: a1ce d1bc 085f ad38 d50b 5d3e db2e 713e
00000030: e60f 9c3d f82b 273e 0da0 083d 41a0 013d
00000040: 0864 353e c577 7f3c 9426 a93d 70fa 7dbd
00000050: 7842 843d 14ba 9dbd dc95 203e fd15 2b3e
00000060: d79b 3a3e d654 4b3e cc5a 3d3e 8d9d 303d
00000070: 6e10 0a3e 3bab 683e 51bc 173e 5470 30bc
00000080: 16ab 02bd b354 1a3e 2dcb 553d e375 363d
00000090: f974 de3c 7aa4 6c3e 127c 5a3e 331c 033e
000000a0: 41f0 b73d 321b f33c c175 19bd c790 313d
000000b0: 4c31 1d3e a420 203e 6adc 263d 09cf 5f3c
000000c0: db3e 42bd

fc1.weight f4 [16, 16]
-0.103948735 -0.22326156 -0.0922634 0.013905062 0.11376406 -0.10479381 -0.2845405 0.0220728
-0.03724071 -0.052271917 0.09467 0.076948844 0.108929634 -0.027508432 -0.21894674 -0.123020455
-0.09791538 -0.2561316 -0.34977484 -0.07247981 -0.10878145 0.009401654 -0.2015264 0.16449809
-0.046408158 -0.17859118 0.19363695 -0.03279841 -0.27246693 -0.16812257 0.09848891 -0.25942668
-0.06258136 -0.24051985 0.06802713 -0.22246516 -0.11351326 -0.009054625 -0.18458673 -0.19328806
0.13687997 0.22850174 0.08523347 0.07262829 0.05218688 0.16873562 0.039357197 -0.20368475
0.10859004 -0.06782678 -0.23778453 -0.12832873 -0.18812266 0.13223635 0.07172051 -0.056053117
-0.038977474 0.16919763 -0.17326222 0.09902537 0.23021126 -0.0030100541 0.0850404 -0.077918306
-0.124754086 0.15053193 -0.15270028 0.0036018728 0.10381749 0.14361109 -0.2811732 -0.1946161
-0.20699857 -0.038990717 -0.2338919 0.107373714 -0.07769127 0.047874987 -0.21188115 -0.22821906
-0.19897716 -0.19418813 -0.04441317 -0.15624173 0.15594211 -0.18887508 -0.19382483 0.11339094
-0.027758377 -0.19848946 -0.15250489 0.087718226 -0.18648173 0.22974123 -0.018903121 -0.2541356
-0.12312748 0.033516556 -0.11967913 -0.23734067 0.17407069 -0.0045812237 0.029788064 0.0050646695
-0.12430155 -0.25495803 -0.20533146 0.0565949 -0.27767363 0.10109815 0.18051942 -0.1547878
0.032223627 -0.004487237 0.0747375 -0.24959412 0.13608666 0.040701896 -0.2192675 0.07333893
0.0387448 -0.29465267 0.22408815 0.09990727 0.06237623 -0.11700849 0.17232542 -0.25794998
0.2365273 0.13470952 0.14771599 -0.12477149 -0.12973702 0.17647487 0.20447905 -0.07807049
-0.27956125 -0.03224861 0.07187136 0.16395634 0.026689067 -0.10333473 0.17792006 -0.20833804
0.24343593 -0.1829575 0.15317962 0.124019206 -0.13061324 -0.12435282 0.09314318 0.12286184
-0.22097754 -0.02635497 0.11515787 -0.15829067 -0.25987855 -0.18878005 -0.15486194 -0.0063160267
-0.27847737 -0.0018092663 -0.12591408 0.11903654 -0.17498223 0.24572559 -0.2339453 -0.17375813
-0.21026057 0.01919062 0.013093524 -0.18618241 -0.040145315 0.13053405 -0.23727958 0.04117076
-0.20648165 -0.21287973 0.227563 0.26314807 0.009167671 0.3085125 0.052150294 -0.022764083
-0.093258984 0.009611642 -0.20152003 -0.035268594 0.060896736 0.076626204 -0.15492041 -0.09778588
-0.02919621 -0.19512692 -0.17643078 -0.20232786 0.06358933 -0.21113488 0.13142815 -0.004518716
-0.034612287 -0.08328304 -0.15718704 0.14653875 0.17475855 -0.096582666 -0.20686615 -0.2353129
0.0227324 0.32346466 0.26903385 0.24848272 0.04376335 0.30046174 0.2782817 0.27570578
0.018217627 -0.09775744 -0.1195669 0.19962385 0.006270483 -0.09017696 -0.1360883 0.27651054
-0.19344603 -0.15950619 0.1702795 -0.17922951 -0.16554794 -0.14400382 -0.11946462 -0.14666441
0.20320368 0.032477498 0.010020486 0.009800172 0.11873561 0.04803343 -0.15539864 0.14463109
0.23026021 0.18295626 -0.111232206 0.010387872 -0.077500336 -0.035184998 0.04484656 0.17334335
0.054930836 0.14925806 0.24970625 0.20646653 -0.21763809 -0.20914336 0.3462255 0.18622768
00000000: 13e3 d4bd ae9e 64be 98f4 bcbd 0fd2 633c
00000010: 22fd e83d 239e d6bd 4baf 91be 04d2 b43c
00000020: b789 18bd 141b 56bd 58e2 c13d 5b97 9d3d
00000030: 8016 df3d 5d59 e1bc 9333 60be 26f2 fbbd
00000040: dc87 c8bd ae23 83be b015 b3be 4b70 94bd
00000050: cfc8 debd 6509 1a3c f05c 4ebe 3072 283e
00000060: 7b16 3ebd 9be0 36be c448 463e a057 06bd
00000070: c980 8bbe 5328 2cbe 8eb4 c93d 93d3 84be
00000080: a82a 80bd d64a 76be cf51 8b3d e8cd 63be
00000090: a479 e8bd da59 14bc 4e04 3dbe 4eed 45be
000000a0: 432a 0c3e 5cfc 693e e38e ae3d 24be 943d
000000b0: e9c1 553d 08c9 2c3e 0335 213d bc92 50be
000000c0: 7464 de3d c4e8 8abd ca7d 73be 9b68 03be
000000d0: 3aa3 40be f768 073e 34e2 923d f497 65bd
000000e0: d8a6 1fbd 2542 2d3e a76b 31be d0cd ca3d
000000f0: 80bc 6b3e 5444 45bb a929 ae3d a293 9fbd
00000100: 127f ffbd 0b25 1a3e 765d 1cbe 660d 6c3b
00000110: 449e d43d c90e 133e eff5 8fbe 7149 47be
00000120: 6ff7 53be bbb4 1fbd 5c81 6fbe c0e6 db3d
00000130: 9a1c 9fbd 9018 443d 5ff7 58be 42b2 69be
00000140: abc0 4bbe 41d9 46be 96ea 35bd d5fd 1fbe
00000150: 4aaf 1f3e 7868 41be 047a 46be 8239 e83d
00000160: 8965 e3bc d240 4bbe 3e2a 1cbe 9da5 b33d
00000170: 11f5 3ebe 4941 6b3e b8da 9abc 101e 82be
00000180: 432a fcbd a848 093d 551a f5bd 6f09 73be
00000190: 963f 323e 171e 96bb 1906 f43c 87f5 a53b
000001a0: d091 febd dc89 82be 6942 52be 0ed0 673d
000001b0: 3d2b 8ebe 8c0c cf3d 15da 383e b180 1ebe
000001c0: ecfc 033d ac09 93bb f90f 993d 9a95 7fbe
000001d0: 4d5a 0b3e 08b7 263d a987 60be b932 963d
000001e0: deb2 1e3d b7dc 96be 5d77 653e 2f9c cc3d
000001f0: 387e 7f3d 26a2 efbd 1376 303e 0512 84be
00000200: 3634 723e 4bf1 093e dc42 173e 3288 ffbd
00000210: c8d9 04be d4b5 343e f562 513e 6ce3 9fbd
00000220: a722 8fbe 1e17 04bd 4b31 933d 2ce4 273e
00000230: 08a3 da3c 29a1 d3bd ad30 363e 9156 55be
00000240: 4547 793e 3659 3bbe 1edb 1c3e c8fd fd3d
00000250: 7abf 05be b1ac febd dac1 be3d fd9e fb3d
00000260: f047 62be 61e6 d7bc e4d7 eb3d f316 22be
00000270: cd0e 85be 8f4f 41be 2194 1ebe acf6 cebb
00000280: 9694 8ebe e724 edba 9fef 00be 6ec9 f33d
00000290: 8b2e 33be 7d9f 7b3e 5b8f 6fbe a7ed 31be
000002a0: 8c4e 57be a635 9d3c 3886 563c 9aa6 3ebe
000002b0: 6a6f 24bd b8aa 053e 6bf9 72be aca2 283d
000002c0: ed6f 53be 25fd 59be 4606 693e 58bb 863e
000002d0: 0034 163c 5af5 9d3e 8c9b 553d be7b babc
000002e0: 91fe bebd 267a 1d3c 445b 4ebe cd75 10bd
000002f0: db6e 793d 33ee 9c3d 75a3 1ebe f743 c8bd
00000300: e42c efbc 5acf 47be 45aa 34be 092f 4fbe
00000310: 1f3b 823d be33 58be 1a95 063e bd11 94bb
00000320: 9dc5 0dbd 4c90 aabd a4f5 20be 410e 163e
00000330: e8f3 323e 22cd c5bd b8d4 53be ddf5 70be
00000340: 4c39 ba3c 299d a53e cebe 893e 4172 7e3e
00000350: 3341 333d 1fd6 993e f07a 8e3e 4f29 8d3e
00000360: 223d 953c 0d35 c8bd 7edf f4bd 326a 4c3e
00000370: a078 cd3b b3ae b8bd bb5a 0bbe ca92 8d3e
00000380: b716 46be 9755 23be c05d 2e3e f187 37be
00000390: 6685 29be bd75 13be dea9 f4bd 322f 16be
000003a0: a014 503e 2007 053d f72c 243c e790 203c
000003b0: a82b f33d b4be 443d d220 1fbe 2c1a 143e
000003c0: 55c9 6b3e e358 3b3e b6cd e3bd e531 2a3c
000003d0: 7fb8 9ebd 251e 10bd 07b1 373d eb80 313e
000003e0: 28ff 603d 1bd7 183e ffb2 7f3e f66b 533e
000003f0: 85dc 5ebe ad29 56be 7844 b13e 78b2 3e3e

fc1.bias f4 [16]
0.071931615 -0.0764168 0.053046525 -0.0660837 0.001786576 0.0046701254 -0.22514293 -0.08885719
0.05163627 -0.2636433 -0.21289498 0.12697834 0.14214717 -0.028534338 -0.09963774 0.108873665
00000000: e250 933d 6980 9cbd 5047 593d e456 87bd
00000010: 8b2b ea3a da07 993b de8b 66be c2fa b5bd
00000020: 8e80 533d 41fc 86be 2401 5abe 9c06 023e
00000030: 078f 113e d8c0 e9bc df0e ccbd 28f9 de3d

fc2.weight f4 [10, 16]
0.0142559 0.21356894 -0.19587418 0.038241133 -0.24929453 -0.11677563 -0.054656044 0.03435974
-0.22784534 -0.19626504 -0.18869439 0.086390935 0.2232674 0.09026871 -0.14463092 -0.3309465
-0.11264773 0.11051889 -0.23662916 0.13052768 -0.050889663 0.0055590104 0.055605907 0.007454108
-0.1028862 0.021937054 0.26193693 0.00486285 -0.16787533 -0.16028565 -0.04006295 0.23567663
-0.14322075 -0.1010234 -0.03298524 -0.2233568 0.1594493 0.1294458 0.14699668 -0.049327455
-0.091832355 -0.27543378 0.07447422 0.06176733 -0.20634489 -0.10795675 -0.22014374 0.124222
0.0009139144 0.15155578 -0.015228931 -0.20461927 0.25895295 0.04559747 -0.29527253 -0.22341554
-0.027918259 -0.22308673 0.2115608 -0.16602115 0.116477884 0.03460047 0.18101476 0.19315518
-0.07823933 -0.0927279 0.19562016 -0.07746364 0.04965929 -0.21121326 0.11427707 -0.2894296
-0.38269472 -0.03996679 0.15930118 -0.19237171 0.052070227 -0.259507 -0.054238573 0.21559697
-0.17899914 0.09687639 -0.1955954 0.154166 -0.1937737 -0.011988839 -0.00792328 -0.0034938685
-0.19198279 0.047565583 0.15192255 -0.2620473 0.042175736 0.0053129527 0.2018151 -0.26798633
-0.1260171 0.06218595 0.11341001 -0.16626407 -0.05406797 0.19775386 0.19215095 -0.22220023
-0.13175808 -0.13977282 -0.07361414 -0.23414482 -0.051512845 -0.28344375 -0.25491014 -0.114087306
0.0036416375 -0.12588407 -0.13465358 -0.20051864 -0.09833442 -0.027869858 -0.17126417 -0.1372564
0.03942475 -0.20641959 -0.18229881 0.040575843 -0.26697925 0.15593116 0.12800181 -0.13624269
0.18680936 -0.030474985 -0.05375592 0.15889233 -0.13832149 0.016313273 -0.15595558 0.2397419
-0.09729257 -0.25793356 0.11028651 0.13259493 -0.22175027 0.13921204 0.104026616 -0.31548205
0.15517691 -0.14204812 0.055522706 -0.1706531 -0.1947098 -0.14889662 -0.29200777 -0.07556852
0.23301849 -0.0840896 0.17716342 0.059308056 -0.009146706 -0.118050575 0.02301612 0.12976216
00000000: 9491 693c d1b1 5a3e 3e93 48be bca2 1c3d
00000010: 1147 7fbe 1028 efbd 04df 5fbd ccbc 0c3d
00000020: 4a50 69be b4f9 48be 1a39 41be bbed b03d
00000030: 36a0 643e cdde b83d 211a 14be d271 a9be
00000040: dab3 e6bd ba57 e23d ea4e 72be 0ca9 053e
00000050: ae71 50bd 5c28 b63b 05c3 633d 9741 f43b
00000060: 00b6 d2bd 56b5 b33c 991c 863e 8b58 9f3b
00000070: 83e7 2bbe ec21 24be 0c19 24bd 3755 713e
00000080: 76a8 12be 5be5 cebd 881b 07bd a5b7 64be
00000090: ad46 233e 718d 043e 4c86 163e 960b 4abd
000000a0: 9a12 bcbd a805 8dbe f185 983d bdff 7c3d
000000b0: 134c 53be 6e18 ddbd 5c6d 61be 1b68 fe3d
000000c0: c293 6f3a 7031 1b3e c482 79bc b787 51be
000000d0: 7b95 843e 6ac4 3a3d f62d 97be 0bc7 64be
000000e0: d5b4 e4bc d970 64be 65a3 583e 7301 2abe
000000f0: f58b ee3d 39b9 0d3d ef5b 393e 79ca 453e
00000100: f13b a0bd 20e8 bdbd a750 483e 42a5 9ebd
00000110: 8a67 4b3d 4a48 58be 190a ea3d 1e30 94be
00000120: 90f0 c3be 37b4 23bd d91f 233e 17fd 44be
00000130: 9747 553d 1ade 84be 4429 5ebd 74c5 5c3e
00000140: 8d4b 37be 2167 c63d 294a 48be b1dd 1d3e
00000150: 9d6c 46be d66c 44bc a5d0 01bc 63f9 64bb
00000160: 2397 44be 21d4 423d 9691 1b3e 102b 86be
00000170: 77c0 2c3d 4718 ae3b 9ea8 4e3e 8135 89be
00000180: a00a 01be b2b6 7e3d 8243 e83d 2141 2abe
00000190: 6076 5dbd fd7f 4a3e 38c3 443e 7588 63be
000001a0: 97eb 06be 9b20 0fbe 03c3 96bd a9c3 6fbe
000001b0: 22ff 52bd 8a1f 91be 9583 82be 9ba6 e9bd
000001c0: 8aa8 6e3b c1e7 00be a1e2 09be c254 4dbe
000001d0: 8e63 c9bd 544f e4bc e05f 2fbe f18c 0cbe
000001e0: d97b 213d a85f 53be 8aac 3abe db32 263d
000001f0: 81b1 88be 6bac 1f3e e812 033e 3483 0bbe
00000200: f44a 3f3e ada6 f9bc 2b2f 5cbd acb4 223e
00000210: 26a4 0dbe 6aa3 853c d2b2 1fbe e77e 753e
00000220: 5441 c7bd de0f 84be e5dd e13d f7c6 073e
00000230: 8112 63be 9a8d 0e3e e80b d53d dd86 a1be
00000240: b2e6 1e3e 1075 11be c76b 633d b0bf 2ebe
00000250: 0162 47be 5b78 18be 0b82 95be abc3 9abd
00000260: 669c 6e3e 2b37 acbd 546a 353e 01ed 723d
00000270: 11dc 15bc 80c4 f1bd 4d8c bc3c 5fe0 043e

fc2.bias f4 [10]
-0.25132805 0.05240056 0.22152619 0.08743199 0.023720494 0.030406415 0.19514757 -0.05484099
-0.19130893 0.1537423
00000000: 12ae 80be f8a1 563d c3d7 623e 8b0f b33d
00000010: 7b51 c23c e016 f93c c4d4 473e f2a0 60bd
00000020: 7de6 43be 9f6e 1d3e
