parameters/MNIST/enc-trained-model.pth (torch, 22124 bytes, 5 tensors)

conv1.weight f4 [1, 1, 7, 7]
00000000: b7d1 b4bd 678f 4bbe a93d e63c db66 17bd
00000010: 8cda 47be ccd7 bbbd e524 0dbe 2a95 a3bc
00000020: 8c05 41be cd1a 27be 8df5 9a3d 4ff0 ca3d
00000030: b57a 9dbd f879 8ebc 5f90 d6bd 044f dcbd
00000040: 6fb1 523d 348d b1bd 339e 68bc c72b 56be
00000050: cbf0 f6bd 3686 63be fd9b 283d 3be6 be3d
00000060: 5906 f33d eca0 e13d a7be 033d d89a 27be
00000070: d472 7a3c a27c 0d3e 0f61 ac3d e1b0 d1bd
00000080: 2205 2bbe 0fa8 4ebd 6a2d 41be ad20 c4bd
00000090: 7e66 adbd d036 e23d c993 af3d 55fb 5cbd
000000a0: 37b3 1abe 3e50 63be d0f9 56be 38a4 17be
000000b0: 8f16 6ebc b78b 5bbb 4398 21be eddf 66be
000000c0: 1e61 94be
-0.088290624 -0.19878922 0.028105574 -0.036963325 -0.19516963 -0.09172019 -0.13783605 -0.019968588
-0.18849772 -0.16318817 0.07566366 0.099091165 -0.0768942 -0.017392144 -0.10476755 -0.107572585
0.051438745 -0.086695105 -0.014197874 -0.20915137 -0.12057646 -0.22219166 0.041164387 0.09321257
0.11866445 0.110170215 0.032164242 -0.16367662 0.015286166 0.13817075 0.0841695 -0.10238815
-0.16701177 -0.050453242 -0.1886498 -0.09576545 -0.084668145 0.11045611 0.0857311 -0.053950626
-0.15107428 -0.22198579 -0.20993733 -0.14808738 -0.014531746 -0.0033500025 -0.1578074 -0.22546358
-0.28980345

fc1.weight f4 [64, 64]
00000000: 7fa4 b53c 142e 6ebd f582 323d d228 233d
00000010: d0c1 d73d e4de bc3b ba0f 89bd eed2 773d
00000020: 50fe 0d3d 9062 9fbc d5c5 fc3d 5ef4 ee3d
00000030: dbaa 1a3e 5b6c bb3c b4f8 5dbd ecff 10bb
00000040: 1183 e93c 78d1 25bd d520 c4bd 4e47 623d
00000050: 1689 0dbd 4f49 903d 3f69 96bd 881e 243e
00000060: c04e 9739 99bc adbd a167 c93d 0739 b63d
00000070: 3c9b f3bd 1c75 9f3a 453c b53d 7d58 7bbd
00000080: db87 33bb 8a59 07be 370c ba3d 88db 52bd
00000090: 4612 bdbd 7d0b 513d 4d09 ebbd 0268 25bd
000000a0: 2133 0e3d 13b1 fe3d 1217 813d 3751 c23d
000000b0: ac47 8e3d e78a 1a3e 3352 a8bc a01b 8dbd
000000c0: afaf 1a3d 9d02 c83c 7333 a2bd bef7 bb3b
000000d0: 9dc4 c0bd c01d 0f3e 31e1 e9bc d562 e1bc
000000e0: 5e53 a93c b439 133e 4d07 9dbd a461 003e
000000f0: fb21 3d3e f79f 643d 1b75 a23d 0b10 0e3d
00000100: 5f9f ce3c 9766 173e 550e 08bd af49 613c
00000110: 45a5 153e abe0 da3d 82d1 ccbd a98c cbbc
00000120: 3152 4abd f30e c3bc 89e4 a4bd 4e3c f53d
00000130: e536 76bc 66b6 6b3d 854c b9bd 59ab 80bc
00000140: 827d 09bd ea41 13bd e019 123d d651 cfbc
00000150: a328 503d 0013 49bd 8dbf 05be f288 a73d
00000160: 2c0f 103d f16e 88bd d002 f9bc c894 913d
00000170: 4e1e a0bd d8cc 273e 85fa 5cbd 3380 9cbd
00000180: e0eb 4bbc 508d c73c 6efa a8bc dfee febd
00000190: 44bb 3c3e 72b5 693a 20d5 3e3d f544 913d
000001a0: d1f3 07bd 02f8 8abd f06c 1abd 8930 953d
000001b0: c3e3 82bd a3b4 bf3c 78b0 113e 790c f2bc
000001c0: 4480 b73d 7529 633d 5518 973d e111 f4bd
000001d0: 993e ee3d d8b6 9a3d e40b ecbc c8ea 553d
000001e0: 65f4 853d e798 abbd 6041 273e ffce e53d
000001f0: 9296 083e ae03 e73c cc9a 163e 9d50 a2bd
00000200: a161 0b3e 2c1a d13d c8b5 ae3d 1082 41bd
00000210: 7842 79bd 1192 413d 250a 7b3d 8cb2 efbc
00000220: bdac b7bd 104f 7c3b c3be 523d abcd 173e
00000230: 0a07 663d 69a7 1fbd 40d9 c93d a539 b8bd
00000240: dd73 0b3e da31 24bd 5a2b fc3d e54a a93d
00000250: e7b5 7cbd 4bfa cdbc b4fc ba3d 4a37 ff3d
00000260: 37a8 9bbd d9cf 563c ff9c d73d 7531 c0bd
00000270: 41ba 34bd 14ee b0bc 6b14 17bd 0969 223d
00000280: 8d8c 79bd af0e 963d c41f 8ebc d4e8 033e
00000290: ae21 a8bd 37e0 053e 38b9 cdbd 3a0a 83bd
000002a0: ac85 c1bd 330e a33d 2c79 353d a617 c4bd
000002b0: 38d5 58bd f696 cb3d 69b2 62bd 14fc bc3d
000002c0: 0c05 17be 3d2a 89bd 0104 1d3e a00d e53d
000002d0: 7618 213c 5f5e f23d edbe 36bd 60f5 75bc
000002e0: b4df a9bd f284 2f3d b859 84bd b73c 4bbd
000002f0: 2616 1c3d 0cd6 3aba 7600 b6bd 795c 39bd
00000300: ba27 1a3c 1e8e 8cbd 3aa4 e9bd ca13 8ebd
00000310: 1a12 d3bb 1880 29be 7a2e cb3c ebbf 8dbd
00000320: b50c 77bd 4c03 0abe 44b2 c5bd 6341 973d
00000330: 7a56 913d 16da 77bd 3030 36be e7d8 25be
00000340: 99a7 a0bd 9a38 273e 5c51 b13d 75f9 b33a
00000350: 2902 a2bc a0b7 fd3d 28df 9a3d b0fd 213d
00000360: 149f 82bd 8a4f a7bd 4dc2 27be d22a df3c
00000370: ec69 86bd 44b9 acbd 4b27 11be f99f bb3d
00000380: e32b 30be 288d 93bd fff0 3e3d 7c7a edbd
00000390: 674c 02be ac97 85bd 10e9 3cbd 816a 44bd
000003a0: c7ab 3e3c fe53 e23c f2b2 60bd 4e6f 18bc
000003b0: 7887 153d a6f1 663d 9b7c d8bd f44d 4f3d
000003c0: 7cdf 913b d102 cb3d 2b96 d3bd 3618 b1bd
000003d0: 00c2 05be a86f 2abd 94ef 86bd fb59 d73c
000003e0: f016 62bd 7b22 143e 1d64 b93d 38c0 623d
000003f0: e5bf e3bd 1ea2 03be 7b32 5e3d 9438 50bc
0.022173164 -0.058149412 0.04358192 0.03983385 0.10535014 0.0057638753 -0.06692453 0.060503893
0.03466636 -0.019456178 0.12342421 0.11667703 0.15104239 0.022878816 -0.05419226 -0.0022125198
0.02850488 -0.040482968 -0.09576575 0.055243783 -0.034554563 0.070452325 -0.07344293 0.16027272
0.00028859638 -0.08483238 0.09834219 0.08897596 -0.11894843 0.0012165639 0.08849386 -0.061363686
-0.0027394209 -0.1321775 0.09084361 -0.051478893 -0.09232001 0.051036347 -0.11476383 -0.040382393
0.03471673 0.12436118 0.063032284 0.09488147 0.06947264 0.1509205 -0.020547008 -0.06890035
0.0377652 0.024415309 -0.079199694 0.0057363203 -0.09412501 0.13976192 -0.028549762 -0.027512947
0.020669635 0.14377481 -0.07667408 0.12537247 0.18469994 0.055816617 0.07932492 0.03468327
0.025222478 0.14785229 -0.033216793 0.013750478 0.14613827 0.10687383 -0.10000898 -0.024847345
-0.04939479 -0.02381084 -0.08051402 0.11974393 -0.015027736 0.057546996 -0.09047798 -0.015706705
-0.03356696 -0.035951532 0.035669208 -0.025307577 0.050820004 -0.049090385 -0.13061352 0.08180417
0.03517072 -0.066617854 -0.030396849 0.07108456 -0.0781828 0.16386735 -0.05394985 -0.076416396
-0.012446374 0.024359375 -0.020627227 -0.12447905 0.18430811 0.0008915282 0.04658997 0.07093231
-0.033191506 -0.06785585 -0.037701547 0.07284648 -0.06391098 0.023401564 0.14227474 -0.029546963
0.089600116 0.05545946 0.07377688 -0.11917473 0.11633033 0.07554406 -0.028814264 0.052225858
0.06540755 -0.08378773 0.16333532 0.11221122 0.13338688 0.028199997 0.14707488 -0.07925532
0.13611461 0.1021007 0.08530766 -0.047243178 -0.060854405 0.04725844 0.06128897 -0.029259942
-0.08968494 0.0038499273 0.051451456 0.1482455 0.056159057 -0.038978014 0.0985589 -0.0899537
0.13618417 -0.040086605 0.12312956 0.08266238 -0.061696913 -0.025143763 0.091302305 0.124617174
-0.07600444 0.013111078 0.105279915 -0.09384433 -0.044122938 -0.0215979 -0.036884706 0.03965095
-0.060925055 0.073270194 -0.017349131 0.12881786 -0.08209549 0.13073812 -0.10045093 -0.06398435
-0.09449324 0.07961693 0.04430501 -0.09574823 -0.052937716 0.09940903 -0.055345926 0.092277676
-0.14748019 -0.066975094 0.15333559 0.111842394 0.009832492 0.11834406 -0.044615675 -0.015012115
-0.08294621 0.042851396 -0.06462425 -0.04961845 0.03810706 -0.00071272324 -0.08886807 -0.045254204
0.009408886 -0.06863044 -0.11408277 -0.06937368 -0.006441367 -0.1655277 0.024802435 -0.06921371
-0.060314853 -0.1347782 -0.09653142 0.073855184 0.07096572 -0.060510717 -0.1779182 -0.16196023
-0.07844467 0.16330186 0.08658096 0.001373096 -0.01977642 0.12388539 0.07562095 0.039548576
-0.06377998 -0.08169468 -0.16382714 0.027242098 -0.06563172 -0.08433774 -0.14175145 0.09161372
-0.17204241 -0.07204658 0.04661655 -0.11595628 -0.12724458 -0.0652307 -0.046120703 -0.047953133
0.011637635 0.027627941 -0.054858156 -0.009303881 0.036506146 0.056382798 -0.105706416 0.05061145
0.0044516902 0.099126466 -0.10331377 -0.08647196 -0.13062286 -0.04161039 -0.06588665 0.026288023
-0.055197656 0.14466278 0.09052298 0.055359095 -0.11120585 -0.12854812 0.05424736 -0.012708802

fc1.bias f4 [64]
00000000: 541f 223e 4a37 c63d e885 acbd 5862 32be
00000010: d271 4b3d 1d30 ba3d b437 b73d def0 f7bc
00000020: 1366 80bc dbf8 29be 1812 3abd 0494 343d
00000030: f913 0bbd 3ca6 b53c 61a4 933d 0874 e43d
00000040: 88e6 10be cbce d3bd 5906 dc3d 0f2b bbbd
00000050: 71d5 ab3d 0e80 9c3d af20 3b3d 40bd 583c
00000060: 4c0d 753d 5a37 12be 790c bc3d 948b 613d
00000070: 4ff0 73bd d13c 09be 6640 273e faff 8b3d
00000080: a7b8 03be fc7c 293e 5b38 393e 0ac1 b0bc
00000090: d356 0ebe abf2 48bd 7018 c83d 4fbc c6bd
000000a0: ee3e db3d 72a8 c0bd 1f6f 09be d873 e1bd
000000b0: 1df3 ad3c da00 6f3d 74ad e3bc 0644 ee3d
000000c0: 7eae b2bd f4f3 35be 4723 b8bd 2c4e ea3d
000000d0: 0b83 5c3d cfc5 ecbd 0924 4e3d 0f42 163e
000000e0: d95f 203e 769b 8e3d 3b46 e53d 07ef afbb
000000f0: b246 39be 4bad 743b 299b c83d 68bf e3bd
0.15832263 0.09678514 -0.08423978 -0.17420328 0.049669094 0.09091208 0.089461714 -0.030266222
-0.015673673 -0.16598837 -0.04542741 0.04408647 -0.033954594 0.022173993 0.07209087 0.11154944
-0.1415044 -0.10342177 0.10743398 -0.09139072 0.0839032 0.07641612 0.045685466 0.0132287145
0.059827134 -0.14278927 0.091820665 0.055064753 -0.059555348 -0.13402106 0.1633316 0.06835933
-0.12863408 0.16551584 0.18087904 -0.021576423 -0.13900308 -0.04905955 0.09770286 -0.09703886
0.10705362 -0.094071284 -0.13421296 -0.110084236 0.02123409 0.05835042 -0.02779267 0.11634068
-0.08724688 -0.17768842 -0.089911036 0.11440691 0.05383591 -0.115611665 0.050327335 0.14673637
0.15661563 0.069632456 0.11195036 -0.0053690705 -0.18093374 0.0037334736 0.097952195 -0.11120492

fc2.weight f4 [10, 64]
00000000: 5705 ca3d 6ec2 053e 6b28 f2bd 41c7 43be
00000010: 8983 863d cb23 bf3b 6db9 92bc 3ec2 5a3d
00000020: 9d3c 263d 4cc8 1cbe c1fc 1fbe eaa5 713d
00000030: 8b8a 0d3d d000 f7bc b671 7b3c 80dc f5bd
00000040: b033 dabd 490f 013e 15bd eb3c a20b 04be
00000050: bef6 02be ef98 4fbe 6398 c3bd d27a d23d
00000060: 2629 2e3d 8fc0 af3d 2dc5 fd3d d408 03be
00000070: 2810 30be 24a7 4fbd f7e6 dd3d ddab 993d
00000080: c1a5 dbbd 4155 19bc c540 0dbd 8080 2cbb
00000090: 7b77 c93c e92d 30be 4203 7cbd 6b70 953c
000000a0: 8d5d 3ebe 5633 c23d 9fdd e6bd 0142 b63c
000000b0: 5289 4f3d 8cea 21bd 7d6e f2bd b283 833c
000000c0: 83af 36bd 5764 91bd 4012 29be ec5f c23d
000000d0: ca91 07be f15d 54be d479 c3bd e146 503c
000000e0: 5c88 53be d9ad 013d 482a e0bd 182d 23bc
000000f0: 3369 07be 77b6 6cbd 752b 02be fd66 ffbd
00000100: eca4 2b3e 1368 9e3c fe14 ddbd 7e28 c03d
00000110: 14de a6bd 69f9 2ebe 931d b63d 5a3f fb3c
00000120: f990 3c3c de7f 0a3a 4f2b c8bc 1ebc e8bd
00000130: fe28 22be 45fd b9bd 5183 f2bd acdd 13be
00000140: 0e31 94bd e1a3 afbb c9a3 b23d a1ff 2e3e
00000150: db6a 07bb 5371 023e 2d15 b13d 313f c8bd
00000160: d6e3 06be 1353 163e d7d3 263e f1ed cb3d
00000170: e3c6 debd 1bd4 4ebe cb26 f1bd e4cc 1ebc
00000180: 56c6 1cbd e2ab b8bd 9b58 ee3d 2dbb 7a3d
00000190: 67d2 123e 042d a5bd 2b65 00bc d819 3c3e
000001a0: 3f77 133e ca29 3dbd f821 aa3d d500 a3bd
000001b0: b945 e43d d398 75bc 37db 973c f3c5 03be
000001c0: bc7e 48be 1a20 363c a068 6dbd 3b97 863c
000001d0: 04c4 21bd 973e 01be c055 13bc 8d93 da3c
000001e0: 10fc 7bbd d3be 12be e751 9c3d 4125 26be
000001f0: 9cc5 843d c2a2 a93d 9cb4 9cbd 4515 0a3d
00000200: ee32 babd a250 cebd b5db dc3b fa02 293d
00000210: f7b7 2b3d 80ff 4dbd f33a d4bd eeb9 e5bd
00000220: a673 7bbd 391b 7ebd 644f da3d 1e90 9a3c
00000230: 7d27 1b3d 1405 ff3d 0bd7 13be c1b9 fe3d
00000240: 3b8f 9cbd d4b4 6abd 1ba2 a53d 591c 05bc
00000250: 77e2 0ebe 5caa 74bd 4e54 c83d fe46 cbbd
00000260: 0202 063d 6a84 33be bfda 47bd 470c 8c3d
00000270: 7d75 6bba 0ab1 25bd 66a9 9d3d 4ae0 4e3d
00000280: c6f9 c53d db21 3fbe 6268 0bbd 8506 78bd
00000290: 2c19 cabc 5283 c23d a4df 63bd e511 4dbe
000002a0: a40f 03bd 3039 52bd 7718 8e3d edd4 04bd
000002b0: 3acb cb3c c829 543d 4d7b 1dbe a6c6 09be
000002c0: d343 e6bc c893 54be f3db a2bd d5f5 c73d
000002d0: c349 d13d a1a8 5fbd 8e5b 3fbe faf5 68bd
000002e0: 8620 8dbd 689b 1abd 4f0c 10be 4278 7ebd
000002f0: f277 2bbd 6993 8dbd 72fd a93d d2c3 d7bd
00000300: fd09 ac3c b941 163d 7243 f53d 0f23 a8bd
00000310: ce3d 18be 9c48 1cbc 679d 333c 67f8 03be
00000320: a9b9 d1bd 8a32 a3bd 1c05 863d 0c95 b8bd
00000330: 118a da3d 5a19 cf3d 8d48 b03d 0f21 ec3d
00000340: d734 e53c 71ee e9bd 0c89 9c3d e952 fbbd
00000350: 17ad 03be a469 a0bd e34d 753d 3fc6 cbbd
00000360: bbb2 04be 0e4d d6bd 46c7 34be 8fd1 a23d
00000370: 48f2 20be d540 1e3d 662d 9dbd 0127 28bd
00000380: 4407 13be d715 c0bd 9676 03be e238 19be
00000390: 2879 3f3d 803e a6bd 7f80 92bc 7db9 a43c
000003a0: c2e1 a2bd 9973 123d 65c4 7abd b91a b3bd
000003b0: 6671 0fbe 10f7 5f3d 3cc4 2c3c e069 63bd
000003c0: e274 033d 2cb0 cf3a 9ab4 9dbd 75e4 e93d
000003d0: dc4f c03c 4829 cbbd c2e3 fa3d 0e73 a33d
000003e0: 37a4 0bbe 67b0 0f3e df1f 86bd c1ec 5fbd
000003f0: 92b8 16be 3484 4e3d 7748 ae3d b214 643c
0.098643 0.1306245 -0.11824115 -0.19118978 0.06568057 0.0058331243 -0.017910684 0.0534079
0.04058515 -0.15310782 -0.15623762 0.05899612 0.034555953 -0.030151755 0.015346935 -0.12004948
-0.1065439 0.12603487 0.028776685 -0.12895063 -0.12789437 -0.20273183 -0.0955055 0.10277332
0.04251971 0.085816495 0.12391124 -0.12796336 -0.17193663 -0.050696507 0.10835069 0.075034834
-0.107249744 -0.009358705 -0.034485597 -0.002632171 0.024593106 -0.17205013 -0.061526544 0.018242082
-0.18590374 0.09482448 -0.112727396 0.02224827 0.05066807 -0.039530322 -0.1183748 0.016054008
-0.044600975 -0.070992164 -0.16510868 0.09490952 -0.13239208 -0.20738961 -0.09544721 0.012712211
-0.20657486 0.031659935 -0.109455645 -0.009959482 -0.13223724 -0.0577912 -0.1271189 -0.12470815
0.16762131 0.019336736 -0.107950196 0.09382723 -0.08147827 -0.1708733 0.088923596 0.030669857
0.011509174 0.0005283336 -0.024434714 -0.113640055 -0.1583595 -0.090815105 -0.11841453 -0.1444003
-0.07235919 -0.005360112 0.08722646 0.17089702 -0.0020663056 0.12738542 0.08646617 -0.09777678
-0.1317285 0.14680128 0.16291748 0.09957493 -0.108777784 -0.201981 -0.11774977 -0.009692404
-0.038275085 -0.09017159 0.11637994 0.06121366 0.14338075 -0.08065227 -0.00783662 0.18369234
0.14400958 -0.04618243 0.0830726 -0.07959143 0.11146111 -0.014990049 0.018537147 -0.1286848
-0.19579595 0.011116052 -0.057961106 0.016429534 -0.039493576 -0.12621532 -0.008992612 0.026681686
-0.061519682 -0.14330606 0.07632809 -0.16225149 0.064830035 0.08282997 -0.07651636 0.03371169
-0.09091745 -0.10073973 0.0067400583 0.041262604 0.04192349 -0.050292492 -0.10362806 -0.11217104
-0.061389588 -0.06203768 0.10659674 0.018867549 0.037879456 0.124521405 -0.14437501 0.124377735
-0.076445065 -0.057301357 0.0808756 -0.008124434 -0.13953577 -0.05973278 0.09781705 -0.0992565
0.03271676 -0.1753098 -0.048792597 0.06838279 -0.00089820457 -0.04045204 0.07698326 0.050506867
0.09666781 -0.18665259 -0.034035094 -0.060553093 -0.024670206 0.094977036 -0.055633202 -0.20026357
-0.031997338 -0.05132407 0.0693826 -0.032429624 0.02487718 0.05179766 -0.15379067 -0.13454685
-0.028108513 -0.20759499 -0.07952108 0.097636856 0.10219147 -0.054604176 -0.18687269 -0.056875207
-0.06890969 -0.037745863 -0.14067195 -0.062126406 -0.041862436 -0.06912882 0.08300294 -0.10535397
0.021000857 0.03668377 0.11975755 -0.08209812 -0.14867327 -0.009538796 0.010962821 -0.12887727
-0.1024049 -0.07968624 0.06543943 -0.090128034 0.10670865 0.10112257 0.08607588 0.11529743
0.027979298 -0.11422432 0.07643327 -0.12271673 -0.12858997 -0.07832649 0.05988873 -0.09949922
-0.12958805 -0.10463916 -0.17654142 0.079501264 -0.15717423 0.038636047 -0.07674675 -0.041052822
-0.1435824 -0.093791656 -0.12838206 -0.14963105 0.046746403 -0.0811739 -0.017883537 0.020107979
-0.07953216 0.035754774 -0.061222453 -0.08745331 -0.14008102 0.054678977 0.010544833 -0.055520892
0.03209389 0.001584535 -0.07700463 0.11420528 0.02347558 -0.09919983 0.122504726 0.07980929
-0.13636862 0.14032136 -0.06549048 -0.054669145 -0.14718845 0.050419047 0.08509915 0.01392095

fc2.bias f4 [10]
00000000: c84f c73d 039e 63bd 7aba a4bd df20 bc3a
00000010: e01a b9bd d46a a7bd 1d82 b03d e806 4a3c
00000020: 06b0 6f3d 1f8b 9abd
0.09732014 -0.055570614 -0.0804338 0.0014353058 -0.09038329 -0.08174673 0.08618567 0.012330748
0.05851748 -0.075460665
