parameters/MNIST/enc-trained-model.pth (torch, 9388 bytes, 5 tensors)

conv1.weight f4 [1, 1, 4, 4]
00000000: c7c7 733c a6a5 85bd 6776 ac3e 3b1c 563e
00000010: d8d0 8cbe bee2 843d 2356 cb3c b14d 9c3e
00000020: 54e3 14be a26e fa3b 2fdb cb3e ebaa d83e
00000030: 0bb0 893d 3ab3 923e 4f48 213e 2d30 c03d
0.014879174 -0.065257356 0.33684084 0.20909207 -0.27503085 0.0648856 0.024821347 0.30528024
-0.14539844 0.007642583 0.3981566 0.423179 0.06723031 0.28652364 0.1575024 0.09384189

fc1.weight f4 [28, 49]
00000000: 19c3 1bbe 910a 84bd 6bc9 57be f129 b0bd
00000010: 952d 6fbe 6cd8 243c 7cad bf3b 22d1 013d
00000020: ac3a a93d 44f2 023e 5294 61bd 71a4 313d
00000030: 648b 6c3d 7d47 c0bc c0f0 44be 141c 37be
00000040: c5d0 143e c575 e7bd 26d4 833d 7147 02be
00000050: cd57 713d bbaa d83c 03fb ad3d e8de 9bbd
00000060: 6efe 38be b6e1 f2bd 9d18 30bd aac0 c1bb
00000070: 243d 0e3a 13d2 e5bc b945 aabd a3e7 1fbe
00000080: 6312 19be be2b 68bd dbf1 56be 4fed 92bd
00000090: 06c4 063e 8b17 403c 44db afbd 7d2d 3ebe
000000a0: a2a0 9ebc 51d4 9ebd e9cb 5cbd d744 113d
000000b0: 90f3 e43a ff38 5b39 089e 8bbd 0674 22be
000000c0: c61a ebbd 083f babd 373d 2abe 4eb5 54be
000000d0: 4b35 c9bd 721b b3bd d6f8 92bd aa7f 3fbe
000000e0: 94ef 3c3d d6f6 b6bd be68 4fbe adbb 853d
000000f0: 5907 11bd 6cdd 14be 4d97 10be 5ea9 e53c
00000100: 0f33 2ebe ff52 1dbd 8517 55be 141a 0638
00000110: e834 27be 7e81 29be e63e 46bd e4d0 8ebd
00000120: bfa0 2bbe 6e01 6dbc e61f e83d 20f9 7dbc
00000130: 6a9b 8ebc d0f1 b9bb 9f10 563e a43a 603c
00000140: 9977 ebbd 0865 603b d195 89bd 27df 54be
00000150: cfe6 27be 6a55 46be 753b 013e 70a2 05be
00000160: 5644 e4bd e411 8cbd 9ec0 c13a 9ebc 3abe
00000170: c779 37bd 354e 9a3d 453a e6bd d8ea d63c
00000180: e389 cabd a33e bcbd 4660 573e e39b 883c
00000190: 8730 c73d aed5 483e 0d12 0e3e 187e 57bd
000001a0: 606d c5bc 5eee 75bc 09ba 503d 7288 bdbd
000001b0: e263 4e3e 7ab2 713c 51ba 083e af33 82bb
000001c0: cca7 35bb 6110 9abb 88a1 ab3c 35d6 813d
000001d0: 6d79 d4bc 385d f63d f9cd 17bd 5e8e 03bd
000001e0: fdfa ce3d a53b e13d b553 32bd 3d53 5a3d
000001f0: 57ad 2e3e 816d 273c e8e4 633e 886a 783d
00000200: b40e 39bd cb29 e5bc 6135 133e bbac 803d
00000210: f7a2 a9bc c7f9 693e 4c8c b93d 8c58 c23d
00000220: 9e8c 6d3d 10d8 3c3d caa3 62bc 7f05 2c3d
00000230: 77c4 333e f8fc a5bd b25b 073e 86c9 283e
00000240: 77f3 473d d31a 103e 78e0 af3d 021c f73c
00000250: 421a 17be 3dc0 b93d 2919 d93c 3d20 bebd
00000260: c184 4b3d d4d4 053d 630e 23be 60e8 043e
00000270: 4755 d63d 7a30 d93d 5bac 71bd 169b 163e
00000280: 3e3c 26be ece4 d03d f389 bd3d 312b c13d
00000290: c507 e5bc 018f f4bd df8e 803d d494 633d
000002a0: dc87 4fbd c5a2 33be e605 88bd c496 933d
000002b0: 8e28 fb3d f2af ec3b 21ea a4bd 8ea1 533d
000002c0: dbca 35be fe1e fe3d d1b4 d1bd d95f 0e3e
000002d0: 665b 9f3d d966 99bd b241 8cbd 1e26 993d
000002e0: a7d0 b63d 50e5 cfbd 6737 b43c f902 a83d
000002f0: df18 f1bd 3b50 eebd f1a4 a8bd e557 b6bd
00000300: a82e cabc df0e 24be a9ad 5c3c a904 d6bd
00000310: 4edb f83d 0e3a 78bd 2edb 023e 88ff a9bd
00000320: 2d17 13be d790 d8bd e693 653d c2b9 a43d
00000330: 2535 49bd 0a1b a13a 3c8f 153e 75f8 8fbd
00000340: dabf a93d a5ea 07be ba56 bdbd c40d 213e
00000350: 7be2 553e a1f8 07bd c787 5f3e de63 78bd
00000360: cb2c 31bd d8f8 6cbd 67d9 2d3d 70de a1bd
00000370: 38fc 05be f83e 0f3e 1662 513d 2d1e bbbd
00000380: e5df 69bd eb6d c53d 7e57 debd fe43 f1bd
00000390: 2faf 0dbc 5d23 ad3d 34cd 0fbe 4307 8d3d
000003a0: 6090 c73d 76ac d5bc a4e1 27be d016 a1bd
000003b0: a097 c73d 22c1 fb3d 2c5b 25bd 33cd b5bd
000003c0: f3e8 f7bd 5aaf aebd 616d 183e 7de4 db3d
000003d0: 49d4 a83d 8c61 aabd 9f0e 883d cc47 913d
000003e0: 471d 023d 36e5 d6bd 1803 10be 7d6f 3fbe
000003f0: 2659 6f3a 1d33 e9bd 24af 53be 9773 39be
-0.15211143 -0.06447328 -0.21072929 -0.0860175 -0.23357232 0.010061365 0.0058495384 0.031693585
0.08263144 0.1278773 -0.05507309 0.043369714 0.05775012 -0.023471588 -0.19232464 -0.17881805
0.14532764 -0.1130176 0.064369485 -0.12722565 0.058921624 0.026448598 0.08495142 -0.07610875
-0.18065807 -0.11859457 -0.042992223 -0.00591286 0.0005425981 -0.028054273 -0.0831408 -0.15615706
-0.1494842 -0.05668234 -0.20990698 -0.07174169 0.13160715 0.011724363 -0.085867435 -0.1857204
-0.019363705 -0.0775534 -0.0539054 0.03546604 0.0017467607 0.000209067 -0.068172514 -0.15864572
-0.11479716 -0.090940535 -0.16624914 -0.20772287 -0.09824618 -0.08745469 -0.07176368 -0.18701044
0.046126917 -0.08933799 -0.202548 0.06529937 -0.035407398 -0.1453759 -0.14120217 0.028034862
-0.17011665 -0.03840923 -0.20809753 3.1972377e-05 -0.16328776 -0.16553304 -0.04839983 -0.069734365
-0.16760539 -0.014465673 0.11334209 -0.015501291 -0.017408092 -0.0056745782 0.20904778 0.013685856
-0.11497421 0.0034239907 -0.06718028 -0.20788251 -0.1639664 -0.1936852 0.12620337 -0.13050246
-0.111458465 -0.0683935 0.0014782136 -0.18236014 -0.04479387 0.07534448 -0.11241583 0.02623503
-0.09889581 -0.091916345 0.21032819 0.016675895 0.09726053 0.19612762 0.13874073 -0.052610487
-0.024100006 -0.015010444 0.050958667 -0.092545405 0.2015529 0.014752025 0.13352324 -0.0039734463
-0.0027718423 -0.0047016595 0.020951048 0.06339685 -0.025936807 0.12029499 -0.037061665 -0.032118194
0.10106466 0.109977044 -0.04353686 0.05330204 0.17058311 0.010218979 0.2225529 0.06064847
-0.045180038 -0.02797403 0.14375831 0.06282946 -0.02070759 0.22849189 0.09059963 0.09489545
0.05799543 0.04610449 -0.013832996 0.04199743 0.17555414 -0.081048906 0.13218573 0.16483125
0.04881617 0.14072733 0.08587736 0.030164722 -0.1475611 0.0906987 0.026501255 -0.09283493
0.04968715 0.03267367 -0.15923457 0.12979269 0.10465484 0.10604949 -0.05900226 0.14707598
-0.16233918 0.101999134 0.09254827 0.09432066 -0.027957806 -0.11941338 0.062772505 0.055561855
-0.050666675 -0.1754256 -0.0664175 0.07206491 0.122635946 0.0072231228 -0.08052469 0.051667742
-0.17753164 0.12408255 -0.10239566 0.1390375 0.07781105 -0.0749032 -0.06848468 0.074779734
0.08926516 -0.1015116 0.021999074 0.08203692 -0.11772322 -0.116363965 -0.08234585 -0.08903483
-0.02468045 -0.16021298 0.013469138 -0.104501076 0.12151204 -0.06060224 0.12778923 -0.08300692
-0.1436431 -0.10574501 0.05604925 0.08043243 -0.04912295 0.0012291383 0.14605421 -0.07029811
0.08288546 -0.13273104 -0.092450574 0.15727907 0.20887177 -0.033196095 0.21829139 -0.060642116
-0.04325561 -0.057854503 0.04244366 -0.07903755 -0.13084495 0.13988864 0.051118933 -0.09136615
-0.057098288 0.09640106 -0.108565316 -0.117805466 -0.008647724 0.08454011 -0.14043123 0.06886151
0.09744334 -0.026083212 -0.16394669 -0.07865679 0.09745717 0.122926965 -0.04037015 -0.08877029
-0.121049784 -0.085295394 0.14885475 0.1073694 0.08243615 -0.08319387 0.06643414 0.07093772
0.031766202 -0.10492937 -0.1406368 -0.18694873 0.00091304106 -0.11386702 -0.2067228 -0.181105

fc1.bias f4 [28]
00000000: 67b6 3dbe 6679 f6bc e10d d13d bc40 edbd
00000010: f195 7f3c 2a46 38bd a1e4 fdba 2d50 443e
00000020: fe32 ce3d c213 2a3e ccae cf3d 5a33 5c3d
00000030: da5c b03c f6b5 133d 90d8 dabd 37ef 7b3d
00000040: fca0 253e d5bc f53d 7374 ac3d 27b1 873b
00000050: f54d a6bd 4352 f3bd 7c24 a13d 2484 303e
00000060: 9ae6 0abe 3f12 2cbd 56d8 f5bb bbcd 9e3a
-0.18526612 -0.030087184 0.10207725 -0.11584613 0.015599714 -0.04498879 -0.0019370505 0.1917121
0.1006832 0.166091 0.10140762 0.05375991 0.02152865 0.036062203 -0.10685837 0.06150743
0.16174692 0.119989075 0.084206484 0.0041409913 -0.08120338 -0.118809246 0.07868287 0.17237908
-0.1356453 -0.04200959 -0.007502596 0.0012115756

fc2.weight f4 [10, 28]
00000000: 51b2 9dbe e9ec 9cbe dd04 653e 6358 75be
00000010: 5c54 463e 0f3a 3abe 6337 83be 7072 81be
00000020: a768 2f3e 8adb 8fbd ba6f ad3d c8f1 9abd
00000030: 67e9 183d ef08 403e 284f 99bd 6763 0a3e
00000040: 3ece 133e 9345 56be af02 573b 4c36 253e
00000050: bc43 54be a91f 02be ad55 973d 0486 7bbe
00000060: 2669 93bd de5f 07be faff 8abe 779f 293e
00000070: da98 703e 5e14 dd3c 39ad 82be 99ca bdbd
00000080: fca3 073e 2254 65be 5bac 033e 53df b33d
00000090: 681a eabd 52f3 84be 8243 523e 143c 493d
000000a0: a19f ef3b 4a73 59bd d47f 21bd 6aba 4abe
000000b0: fe0b d2bd 1be2 483d 3149 663d d6e1 83be
000000c0: a025 30bd 14e6 453d d43a be3d 54f8 e83c
000000d0: 12ec 60be ebae 15be 855e ee3c 4c70 0bbd
000000e0: 1d55 2dbe 3f25 1cbe 4285 2fbe 46a6 61be
000000f0: 27e8 0b3e 98f4 9dbd 66ab ee3d 564f 243d
00000100: ed5c aa3d f5e5 3cbe c82d 91be 412c 2d3e
00000110: b10d 073e a3eb 82be a0a6 593e 585a 643c
00000120: be3f 133e d582 8a3d fa15 5a3d d2a3 7ebd
00000130: 2b51 2a3e 677c 1dbe 668c 4dbc b849 87be
00000140: c97b 76be f3e3 e5bd 737b 91be 7fb3 9c3d
00000150: f179 883c 4084 5e3e 0c1a 5dbd 7c41 803d
00000160: 70e2 34be b3bb 863d 5c30 5abe a827 183e
00000170: f427 75be 5b9c 88bd a4c0 d3bc 9c48 ef3d
00000180: d668 12be 2c75 35be 140b 0ebe fe3a 73be
00000190: 575c 073d 0268 983c 4431 2bbe abf3 39be
000001a0: 6c2b 75be b7f1 423e 567e bfbd c9c2 99bd
000001b0: 4c5c 7ebe a151 4c3e 4dd4 6ebd 101f a53d
000001c0: a62a 513e 2f52 8ebd 601f 493d 2d86 81bd
000001d0: 16df a5be bdd6 89be 430b eebc 2d02 5d3c
000001e0: 0ef0 2a3e c988 c03d 8d90 f1bd 57ef 46be
000001f0: ca6c 353c f3b4 0b3c 4d64 48be 61c3 5e3e
00000200: 7b34 65be 8293 18be 7ce0 5bbe de71 d8bd
00000210: bae2 66be 6374 16be c959 303e 21c2 263e
00000220: 2329 6cbe 7899 583e 8ee0 203e 74fb 4cbe
00000230: 7cb8 b53d 1980 84bd dad3 13be 7b77 4f3e
00000240: 21ed b9be 235b 3f3b 8fa9 7fbe 9606 1a3e
00000250: 4f47 16be 2138 a03d d396 1d3c b13c f13d
00000260: fc62 75be 709f c0bd 91c9 65be 52e8 9f3d
00000270: 7dbb 173d ce5f bb3c 9e00 703c e540 ef3d
00000280: d1d9 f63d df18 bb3d 935f 0a3e 7005 933c
00000290: a2bb 8dbd 69a8 3ebe fe79 88be 996f 71bd
000002a0: b9a0 e83d 7480 54be e6c0 033e 0222 6d3d
000002b0: 862a 40be fc30 a63d 9703 dfbd f2ca 453e
000002c0: 5df4 bcbd d9af 113d 1b0b 77bd 0905 14be
000002d0: 64d9 4fbe 98be 29be 8d36 adbd f713 0fbe
000002e0: c3c1 6dbd 9dd4 e83d f4c5 1a3d bccd b33d
000002f0: 7f70 f4bd 28e8 1fbd 5508 0fbe 41e1 7abd
00000300: da62 2f3d 4b49 30bc f903 82be 8386 193e
00000310: 9c0f d2bc cfd1 11be e84e 28be 874a e33c
00000320: 239f 753c da81 8dbe 84e8 21be aa37 dabd
00000330: c93f bebd cb8d a1bd ce3d 153e 5481 9ebe
00000340: 0ee2 f1bd 53e6 30be 790b c33d f66a 6dbd
00000350: e57c 963d 85f9 d1bd 39ec 9dbe 0f78 1bbd
00000360: af77 65bd c462 47be 610b 5bbe f014 3abe
00000370: 2c8f 463d 188e b6bd 090d dabd b373 323d
00000380: 306c 05be 709c 63bd c6ec aabe 6cae 81be
00000390: 8c53 fc3b 367e 1bbd b72b dfbd 451d cebd
000003a0: 9d89 6abe 0194 fabd f8b4 1bbe b90e 4e3d
000003b0: eb04 d63d 0666 a6bd 5532 403e 8d98 13be
000003c0: 94f1 39be f88f 293e e85d 12bd e992 91be
000003d0: e8d0 c43d 2129 1cbe ff2e c4bc 924d dcbd
000003e0: b3ef 47be ceed b8bc 4bfb 3dbe 58ce b2bd
000003f0: 568c 6dbd 3c1b ef3d 5279 99be 0898 623e
-0.30800107 -0.30649498 0.22365136 -0.23959498 0.19368118 -0.1818621 -0.25628194 -0.2528262
0.17129765 -0.07024296 0.08468576 -0.07565647 0.037331965 0.18753408 -0.07485801 0.13514481
0.14434144 -0.20924978 0.0032807996 0.16133994 -0.20728964 -0.1270739 0.07389388 -0.24562842
-0.0719779 -0.13220164 -0.2714842 0.16564737 0.23495808 0.02698725 -0.25522783 -0.09267158
0.13246149 -0.22395375 0.12858717 0.0878283 -0.11430818 -0.2596689 0.20533565 0.04912956
0.0073127304 -0.053088464 -0.039428547 -0.19797674 -0.102561936 0.049043756 0.056222145 -0.25758237
-0.043004632 0.048315123 0.09288564 0.028438725 -0.21965054 -0.14617507 0.029097805 -0.03404264
-0.16927 -0.15248583 -0.17140678 -0.22036085 0.13662778 -0.07712668 0.116537854 0.040114723
0.083185054 -0.18447097 -0.2835524 0.16911413 0.13188817 -0.25570402 0.21254969 0.013937555
0.14379784 0.067632355 0.053243615 -0.06216795 0.16632526 -0.15379487 -0.012545681 -0.2642343
-0.24070658 -0.112251185 -0.28414497 0.07651424 0.016659709 0.21730137 -0.05397992 0.0626249
-0.17664504 0.065787695 -0.2130751 0.14858878 -0.23941022 -0.066704474 -0.025848694 0.11683771
-0.14297804 -0.17720479 -0.13871413 -0.23752972 0.033047047 0.018604282 -0.16718012 -0.18159358
-0.23942345 0.1903752 -0.093502685 -0.075078554 -0.24839896 0.19953014 -0.058307935 0.08062565
0.20426425 -0.06949269 0.049102187 -0.0632442 -0.32396764 -0.26921645 -0.029058104 0.013489288
0.16693136 0.0940109 -0.11795149 -0.19427238 0.011073301 0.008527028 -0.19569512 0.21754219
-0.22383301 -0.1490002 -0.21472353 -0.105685934 -0.22547427 -0.14692836 0.1722175 0.16284992
-0.23062567 0.21152294 0.15710661 -0.20017797 0.08873078 -0.06469745 -0.14436284 0.20260422
-0.36313727 0.0029198609 -0.24967025 0.15041575 -0.1467564 0.07823206 0.009618479 0.11779154
-0.23963541 -0.0940541 -0.22440173 0.078079835 0.037044037 0.022872832 0.014648585 0.116822995
0.12053264 0.09135603 0.13513021 0.017946929 -0.06920554 -0.18618931 -0.26655573 -0.05894432
0.113587804 -0.20752126 0.12866554 0.05789376 -0.18766221 0.08114812 -0.108893566 0.19315699
-0.09226296 0.035568092 -0.060313325 -0.14455046 -0.20297772 -0.16576612 -0.0845767 -0.1397246
-0.058046114 0.11368678 0.03778644 0.08779475 -0.119355194 -0.03903976 -0.13968022 -0.061249975
0.04281888 -0.010759662 -0.25393656 0.14992718 -0.025642209 -0.14240192 -0.1643635 0.027745498
0.014991554 -0.2763813 -0.15811354 -0.10655148 -0.0928951 -0.07888373 0.14574358 -0.30958045
-0.11810695 -0.17275362 0.095236726 -0.057963334 0.073480405 -0.1025267 -0.30844286 -0.037956294
-0.056022342 -0.1947127 -0.2139106 -0.1817205 0.048476383 -0.08913821 -0.106470175 0.04356737
-0.13029552 -0.055569112 -0.3338377 -0.25328386 0.0077003893 -0.03796216 -0.1089701 -0.100641765
-0.22904058 -0.12235261 -0.15205753 0.05030701 0.10450157 -0.08124928 0.187692 -0.14413662
-0.18158561 0.16558826 -0.035734087 -0.28432396 0.09610158 -0.15250064 -0.02394819 -0.10756983
-0.19525032 -0.022574332 -0.18552892 -0.08730763 -0.057995163 0.116751164 -0.29975373 0.22128308

fc2.bias f4 [10]
00000000: 7841 d6bd 93fc 523e 195e 1ebe b925 53bd
00000010: 9eba dd3d 3c1c 06bd 5467 95bd 26e1 133e
00000020: c046 3ebe 2f66 973d
-0.10461706 0.20604162 -0.15465583 -0.051549647 0.1082661 -0.03274177 -0.07295099 0.14441356
-0.18581676 0.07392537
