parameters/MNIST/enc-trained-model.pth (torch, 22124 bytes, 5 tensors)

conv1.weight f4 [1, 1, 7, 7]
0	0xbdb4bf17	-0.0882551
1	0xbe4ba06b	-0.19885413
2	0x3ce55463	0.02799434
3	0xbd186ef8	-0.037215203
4	0xbe4813bd	-0.1953878
5	0xbdbbc68c	-0.09168729
6	0xbe0d0c71	-0.13774277
7	0xbca4af9c	-0.020103268
8	0xbe414230	-0.18872905
9	0xbe277462	-0.1635299
10	0x3d9a5836	0.07536356
11	0x3dca9979	0.09892554
12	0xbd9cfeff	-0.07665824
13	0xbc8c59c7	-0.017132653
14	0xbdd76f50	-0.10519278
15	0xbddd0cb5	-0.10793439
16	0x3d521fff	0.051300045
17	0xbdb1c0bf	-0.086793415
18	0xbc69a4c2	-0.014260473
19	0xbe55f697	-0.20894848
20	0xbdf683a4	-0.12036827
21	0xbe63cdda	-0.22246495
22	0x3d27f8af	0.041008648
23	0x3dbee246	0.09320502
24	0x3df304de	0.11866163
25	0x3de1a05c	0.11016914
26	0x3d049a53	0.032373738
27	0xbe276bf4	-0.16349775
28	0x3c7873ea	0.015164355
29	0x3e0d7425	0.13813837
30	0x3dac7637	0.08420985
31	0xbdd187ed	-0.10231004
32	0xbe2b07ea	-0.16702238
33	0xbd4de5f4	-0.05026813
34	0xbe40ff9f	-0.18847512
35	0xbdc443c0	-0.09583235
36	0xbdad6da9	-0.08468182
37	0x3de234db	0.11045238
38	0x3dafabc8	0.085776865
39	0xbd5d0bd8	-0.053966373
40	0xbe1a8e6b	-0.1509339
41	0xbe6339ee	-0.22190067
42	0xbe56ef3b	-0.20989697
43	0xbe17a763	-0.14809947
44	0xbc6f3907	-0.014600999
45	0xbb5f1fdf	-0.0034046096
46	0xbe21a92f	-0.15787195
47	0xbe66cd34	-0.22539216
48	0xbe945891	-0.2897382

fc1.weight f4 [64, 64]
0	0x3cc707dc	0.02429574
1	0xbd6ed6bf	-0.058310267
2	0x3d32335f	0.043506023
3	0x3d23177e	0.039817326
4	0x3dd77000	0.10519409
5	0x3bb6b85c	0.0055761766
6	0xbd892bd4	-0.06697813
7	0x3d77ce89	0.0604997
8	0x3d0dac57	0.034588184
9	0xbca26e81	-0.019828083
10	0x3dfce706	0.12348752
11	0x3def618d	0.11688528
12	0x3e1ab77d	0.15109058
13	0x3cbb5ab6	0.022870403
14	0xbd5e024d	-0.054201413
15	0xbb0d6c14	-0.0021579312
16	0x3ce9dc07	0.0285473
17	0xbd25b4bc	-0.040455565
18	0xbdc41893	-0.09575
19	0x3d61a7d5	0.055091698
20	0xbd0db164	-0.034593
21	0x3d906bd5	0.07051817
22	0xbd964af0	-0.07338512
23	0x3e240de7	0.16020928
24	0x39fe0690	0.00048451545
25	0xbdadb668	-0.08482057
26	0x3dc9634d	0.09833393
27	0x3db65078	0.08902067
28	0xbdf397a4	-0.118941575
29	0xb7f825f5	-2.9581579e-05
30	0x3db53ec2	0.08849861
31	0xbd7afb73	-0.061274957
32	0xbb39360b	-0.0028260972
33	0xbe078091	-0.13232638
34	0x3dba0ad7	0.09084099
35	0xbd5263dc	-0.051364765
36	0xbdbcf3fb	-0.09226223
37	0x3d510041	0.051025633
38	0xbdeb4175	-0.11487094
39	0xbd256ad9	-0.0403851
40	0x3d0db275	0.034594018
41	0x3dfea3e6	0.12433605
42	0x3d80cd8d	0.06289206
43	0x3dc23fc4	0.094848186
44	0x3d8e68b9	0.06953568
45	0x3e1a9231	0.1509483
46	0xbca9e300	-0.020738125
47	0xbd8dd5e6	-0.069255635
48	0x3d19e17a	0.037568547
49	0x3cc717da	0.024303365
50	0xbda250ea	-0.079255894
51	0x3bbd50dd	0.005777462
52	0xbdc09388	-0.09403139
53	0x3e0f25d6	0.13979277
54	0xbcec1b92	-0.02882174
55	0xbce29d9d	-0.027663046
56	0x3caa431f	0.020783959
57	0x3e134056	0.14380011
58	0xbd9d5dcc	-0.07683906
59	0x3e004cd6	0.1252931
60	0x3e3d2d13	0.18474226
61	0x3d6460a2	0.05575622
62	0x3da27376	0.07932179
63	0x3d0ecaad	0.034861255
64	0x3cb748ff	0.022373674
65	0x3e1792d6	0.14802107
66	0xbd0872df	-0.033312675
67	0x3c6082f9	0.013703101
68	0x3e157b27	0.1459776
69	0x3ddacee1	0.1068399
70	0xbdcd2fd0	-0.10018885
71	0xbccb91cd	-0.024849797
72	0xbd4adb22	-0.049525388
73	0xbcc23fbd	-0.023712033
74	0xbda4f0f5	-0.080537714
75	0x3df56e38	0.11983913
76	0xbc776692	-0.015100138
77	0x3d6b45ac	0.05743949
78	0xbdb949d6	-0.09047286
79	0xbc80e7ab	-0.015735468
80	0xbd09f20a	-0.033678092
81	0xbd13a33c	-0.036044344
82	0x3d11fcfb	0.03564165
83	0xbccfe47b	-0.025377503
84	0x3d4fc122	0.050721295
85	0xbd49476f	-0.04914039
86	0xbe05c77b	-0.13064377
87	0x3da790a9	0.081818886
88	0x3d10446a	0.035221495
89	0xbd887dcf	-0.06664621
90	0xbcf9f401	-0.030511858
91	0x3d9147a8	0.070937455
92	0xbda03994	-0.07823482
93	0x3e284774	0.16433507
94	0xbd5d6f82	-0.05406142
95	0xbd9c436e	-0.07630049
96	0xbc4c19fe	-0.012457369
97	0x3cc88c25	0.024480889
98	0xbca8dcc6	-0.020613085
99	0xbdfec792	-0.12440409
100	0x3e3ca0bf	0.18420695
101	0x3a52ef01	0.00080464786
102	0x3d3de076	0.04635664
103	0x3d914d5b	0.070948325
104	0xbd081751	-0.03322536
105	0xbd8a9b95	-0.06767956
106	0xbd1af455	-0.03783067
107	0x3d94f14c	0.07272586
108	0xbd835c6a	-0.06414111
109	0x3cbe5c4a	0.023237366
110	0x3e11b852	0.14230469
111	0xbcf48a9f	-0.029851256
112	0x3db75c66	0.089531705
113	0x3d630fcd	0.05543499
114	0x3d964505	0.07337383
115	0xbdf45131	-0.119295485
116	0x3dedc265	0.116093434
117	0x3d9aae7f	0.07552814
118	0xbcec20b7	-0.028824193
119	0x3d54c1fe	0.051942818
120	0x3d85c948	0.06532532
121	0xbdabac0c	-0.08382425
122	0x3e2739be	0.1633062
123	0x3de586d7	0.11207359
124	0x3e086c9f	0.13322686
125	0x3ce9777e	0.028499361
126	0x3e169e3f	0.14708804
127	0xbda26a98	-0.079304874
128	0x3e0ac506	0.13551721
129	0x3dd126dc	0.1021249
130	0x3dae9250	0.08524001
131	0xbd41c281	-0.047304634
132	0xbd7869a9	-0.06064764
133	0x3d4209f8	0.04737279
134	0x3d7b8122	0.061402448
135	0xbceec728	-0.0291477
136	0xbdb80d76	-0.089869425
137	0x3b749abf	0.0037323681
138	0x3d534f22	0.05158914
139	0x3e17cd9b	0.14824526
140	0x3d660b5d	0.05616318
141	0xbd1efea3	-0.03881706
142	0x3dc9371f	0.09824967
143	0xbdb844d9	-0.08997507
144	0x3e0b9ad9	0.13633288
145	0xbd244134	-0.040101245
146	0x3dfbc81f	0.122940294
147	0x3da901e8	0.08252317
148	0xbd7cad54	-0.061688736
149	0xbccc3679	-0.024928318
150	0x3dbb7cbc	0.091546506
151	0x3dff6117	0.1246969
152	0xbd9bc003	-0.07604983
153	0x3c56c971	0.013109551
154	0x3dd7befb	0.105344735
155	0xbdbfd73c	-0.093672246
156	0xbd34b870	-0.044121206
157	0xbcbcd5b0	-0.023051113
158	0xbd17887d	-0.0369954
159	0x3d225f94	0.03964193
160	0xbd7a2aee	-0.061076097
161	0x3d95f36b	0.07321819
162	0xbc8f40bb	-0.01748692
163	0x3e03c50a	0.12868133
164	0xbda80652	-0.082043305
165	0x3e059cee	0.13048145
166	0xbdcdb495	-0.10044209
167	0xbd83349a	-0.06406517
168	0xbdc15777	-0.09440511
169	0x3da2f966	0.07957725
170	0x3d3563df	0.044284698
171	0xbdc3e518	-0.095651805
172	0xbd585163	-0.05281199
173	0x3dcb6f15	0.099332966
174	0xbd623eb6	-0.055235587
175	0x3dbccd48	0.09218842
176	0xbe16bf64	-0.14721447
177	0xbd88f594	-0.06687465
178	0x3e1d3898	0.1535362
179	0x3de51313	0.11185279
180	0x3c2068f1	0.009790645
181	0x3df26f99	0.11837692
182	0xbd3721d0	-0.04470998
183	0xbc78f9c9	-0.015196272
184	0xbda98c92	-0.08278765
185	0x3d2f6eff	0.042830463
186	0xbd842733	-0.06452789
187	0xbd4a27ea	-0.04935447
188	0x3d1bcff5	0.03804012
189	0xb9f9ada9	-0.00047622368
190	0xbdb5dcf6	-0.088800356
191	0xbd3a6c40	-0.04551339
192	0x3afa5ea7	0.0019101695
193	0xbd8a8b85	-0.067648925
194	0xbde96681	-0.11396504
195	0xbd8e38bb	-0.06944414
196	0xbbcff6cc	-0.006346559
197	0xbe296857	-0.16543709
198	0x3ccca493	0.024980819
199	0xbd8e0c26	-0.06935911
200	0xbd76c944	-0.060250536
201	0xbe09f3cf	-0.13471912
202	0xbdc5c721	-0.096571214
203	0x3d974c5f	0.073876135
204	0x3d9140f1	0.07092465
205	0xbd7737c5	-0.06035592
206	0xbe362aa4	-0.17789704
207	0xbe25ce33	-0.1619194
208	0xbda04dff	-0.078273766
209	0x3e2767c5	0.16348179
210	0x3db194b2	0.086709395
211	0x3ab13556	0.0013519924
212	0xbca1138e	-0.019662645
213	0x3dfdf403	0.12400057
214	0x3d9aff90	0.07568276
215	0x3d21fe4b	0.039549153
216	0xbd826fdb	-0.06368991
217	0xbda7a247	-0.08185249
218	0xbe279d6f	-0.1636865
219	0x3cdeedbd	0.027212972
220	0xbd86425b	-0.06555625
221	0xbdaf808d	-0.08569441
222	0xbe111787	-0.14169131
223	0x3dbc47ff	0.0919342
224	0xbe301aab	-0.17197673
225	0xbd939013	-0.07205214
226	0x3d3f6771	0.04672951
227	0xbded7bfc	-0.11595914
228	0xbe025477	-0.12727533
229	0xbd85746e	-0.06516348
230	0xbd3cbe18	-0.046079725
231	0xbd433710	-0.047659934
232	0x3c3da42a	0.011574784
233	0x3ce3f3fe	0.027826305
234	0xbd609fb5	-0.05483981
235	0xbc17a870	-0.009256467
236	0x3d15c51d	0.036564935
237	0x3d66feb1	0.056395236
238	0xbdd81930	-0.10551679
239	0x3d50c4af	0.050968822
240	0x3b90bdf3	0.004417175
241	0x3dcacbb9	0.09902138
242	0xbdd36d4c	-0.10323581
243	0xbdb13dc0	-0.08654356
244	0xbe059a8a	-0.13047233
245	0xbd2a2a74	-0.041544393
246	0xbd86d10a	-0.0658284
247	0x3cda5b7a	0.026654948
248	0xbd62d573	-0.055379342
249	0x3e144120	0.14477968
250	0x3db98cc8	0.09060055
251	0x3d640838	0.0556719
252	0xbde3214f	-0.110903375
253	0xbe037aee	-0.12839863
254	0x3d5e95d2	0.0543421
255	0xbc4ec033	-0.012619066

fc1.bias f4 [64]
0	0x3e222fa8	0.15838492
1	0x3dc62999	0.09675903
2	0xbdac8f19	-0.08425731
3	0xbe32588b	-0.17416589
4	0x3d4b6649	0.049658094
5	0x3dba48bd	0.09095905
6	0x3db76563	0.08954885
7	0xbcf85c2c	-0.030317388
8	0xbc8226c3	-0.015887624
9	0xbe2a1269	-0.16608585
10	0xbd3a121b	-0.045427423
11	0x3d345769	0.044028673
12	0xbd0b715a	-0.034043647
13	0x3cb596ec	0.022166692
14	0x3d93749a	0.07199974
15	0x3de45596	0.11149137
16	0xbe10da70	-0.14145827
17	0xbdd3e016	-0.103454754
18	0x3ddc15ee	0.1074637
19	0xbdbb57e5	-0.09147624
20	0x3dab4bfc	0.08364102
21	0x3d9c7f7a	0.07641502
22	0x3d39bcee	0.045346193
23	0x3c55ce29	0.013049641
24	0x3d7571d3	0.059923004
25	0xbe1238f8	-0.14279544
26	0x3dbc13c1	0.09183455
27	0x3d61aac4	0.055094495
28	0xbd72e35f	-0.05929887
29	0xbe092a40	-0.13395023
30	0x3e273c5c	0.16331619
31	0x3d8c0aa1	0.06837965
32	0xbe03accf	-0.1285889
33	0x3e298003	0.16552739
34	0x3e392fe6	0.18084678
35	0xbcb3db4d	-0.021955157
36	0xbe0e6d14	-0.13908798
37	0xbd48d08b	-0.049027007
38	0x3dc81fcf	0.09771692
39	0xbdc6eb95	-0.097129025
40	0x3ddb76d1	0.10716022
41	0xbdc0b52e	-0.09409557
42	0xbe0965f4	-0.13417798
43	0xbde18f4e	-0.11013661
44	0x3cad7cc8	0.021177664
45	0x3d6ec5af	0.058293995
46	0xbce2eeb2	-0.02770171
47	0x3dee39aa	0.11632092
48	0xbdb275e9	-0.08713896
49	0xbe35eeab	-0.17766826
50	0xbdb80bf3	-0.08986654
51	0x3dea7417	0.11447924
52	0x3d5ced39	0.05393717
53	0xbdeca7dd	-0.11555455
54	0x3d4eec34	0.05051823
55	0x3e16509e	0.1467919
56	0x3e206fe6	0.15667686
57	0x3d8e7666	0.069561765
58	0x3de57c1f	0.11205315
59	0xbbb1e744	-0.0054291803
60	0xbe394862	-0.18094018
61	0x3b7c2ec6	0.0038480028
62	0x3dc8914f	0.097933404
63	0xbde3d404	-0.11124423

fc2.weight f4 [10, 64]
0	0x3dc91f85	0.09820465
1	0x3e05d90b	0.13071077
2	0xbdf16b4a	-0.11788042
3	0xbe437e6f	-0.190912
4	0x3d851265	0.06497649
5	0x3be263d5	0.0069088736
6	0xbc958b68	-0.01825495
7	0x3d5be001	0.053680424
8	0x3d2d974d	0.04238062
9	0xbe1d061f	-0.15334366
10	0xbe201449	-0.15632738
11	0x3d71704e	0.058944993
12	0x3d0cb74f	0.034354504
13	0xbcf9fd0e	-0.030516174
14	0x3c47228b	0.012154232
15	0xbdf56c44	-0.11983541
16	0xbdd94178	-0.1060819
17	0x3e010055	0.12597783
18	0x3ce91bc0	0.028455615
19	0xbe03500f	-0.12823509
20	0xbe02b268	-0.12763369
21	0xbe4f4e6e	-0.20244762
22	0xbdc46f94	-0.09591594
23	0x3dd2d2d4	0.102941185
24	0x3d2ed754	0.04268582
25	0x3db0c529	0.08631355
26	0x3dfe0afd	0.124044396
27	0xbe03300e	-0.128113
28	0xbe2fe739	-0.17178048
29	0xbd4f7e08	-0.050657302
30	0x3dde1cdb	0.108453475
31	0x3d98ef43	0.074675106
32	0xbddbba42	-0.10728885
33	0xbc1ff7c1	-0.009763659
34	0xbd0bce63	-0.034132373
35	0x3a143301	0.0005653352
36	0x3cc4e12b	0.02403315
37	0xbe302734	-0.17202455
38	0xbd7be8a3	-0.061501157
39	0x3c93be3c	0.018035047
40	0xbe3fdbf7	-0.18736254
41	0x3dc2c002	0.09509279
42	0xbde59abb	-0.11211153
43	0x3cba806e	0.022766318
44	0x3d4e522c	0.050371334
45	0xbd24a5d4	-0.04019721
46	0xbdf1ef6c	-0.11813244
47	0x3c811633	0.015757656
48	0xbd35b548	-0.044362336
49	0xbd91f9ec	-0.07127747
50	0xbe290699	-0.16506423
51	0x3dc31554	0.095255524
52	0xbe06f3ec	-0.13178986
53	0xbe540eed	-0.20708819
54	0xbdc329fc	-0.09529492
55	0x3c57c0ed	0.013168556
56	0xbe53a559	-0.20668544
57	0x3d00c67e	0.031439297
58	0xbde11719	-0.10990734
59	0xbc1f8fd3	-0.00973888
60	0xbe07a55c	-0.13246673
61	0xbd6d358a	-0.057912387
62	0xbe020e8e	-0.12700865
63	0xbdff6109	-0.1246968
64	0x3e2bcbfd	0.16777034
65	0x3c9d419e	0.019196328
66	0xbddcb6a7	-0.10777026
67	0x3dc07f87	0.09399324
68	0xbda6f5b7	-0.08152335
69	0xbe2f90e6	-0.17145118
70	0x3db66a5e	0.08907007
71	0x3cfac44b	0.030611178
72	0x3c3f5245	0.011677329
73	0x3a495980	0.0007680878
74	0xbcc97f3a	-0.0245968
75	0xbde84ef5	-0.11343185
76	0xbe220cc5	-0.15825184
77	0xbdba6413	-0.09101119
78	0xbdf37f6c	-0.11889538
79	0xbe13e165	-0.1444145
80	0xbd94586d	-0.072434284
81	0xbba809a7	-0.005128104
82	0x3db2c126	0.087282464
83	0x3e2f1510	0.17097878
84	0xbb1042a3	-0.0022012375
85	0x3e027482	0.12739757
86	0x3daf230e	0.08551608
87	0xbdc6f0ef	-0.09713923
88	0xbe06d435	-0.13166888
89	0x3e163adf	0.14670895
90	0x3e26f1fd	0.16303249
91	0x3dcc56ef	0.09977519
92	0xbdde64a8	-0.108590424
93	0xbe4e98c1	-0.20175458
94	0xbdf0c26f	-0.11755835
95	0xbc1b8eaf	-0.009494468
96	0xbd1c2f1c	-0.038130865
97	0xbdb87d03	-0.09008219
98	0x3dee80b7	0.11645644
99	0x3d7b3179	0.061326478
100	0x3e1308ea	0.14358869
101	0xbda4a2f8	-0.08038896
102	0xbbfe88a0	-0.007767752
103	0x3e3c23a3	0.1837297
104	0x3e1356c3	0.14388566
105	0xbd3cec6f	-0.04612392
106	0x3daa9b45	0.083303966
107	0xbda2fac9	-0.0795799
108	0x3de3f618	0.11130923
109	0xbc750afb	-0.014956231
110	0x3c996b4f	0.018727927
111	0xbe03bd25	-0.12865122
112	0xbe48484c	-0.19558829
113	0x3c380b36	0.011233142
114	0xbd6cd06a	-0.057815947
115	0x3c87a8d7	0.016560001
116	0xbd22f385	-0.03978302
117	0xbe01263a	-0.12612239
118	0xbc15efee	-0.009151442
119	0x3cdb0617	0.026736302
120	0xbd7c9bc0	-0.061671972
121	0xbe129261	-0.14313652
122	0x3d9c8e25	0.076442994
123	0xbe260158	-0.1621145
124	0x3d8501cf	0.064944856
125	0x3da99491	0.0828029
126	0xbd9c9b93	-0.07646861
127	0x3d09f8de	0.033684604
128	0xbdb9977f	-0.09062099
129	0xbdce5f69	-0.10076792
130	0x3bdd2374	0.006748611
131	0x3d288a82	0.041147716
132	0x3d2da605	0.042394657
133	0xbd4bdb9b	-0.04976998
134	0xbdd2cbad	-0.10292754
135	0xbde4cea8	-0.11172229
136	0xbd7c1562	-0.06154383
137	0xbd7e4cfa	-0.06208513
138	0x3dd9f20d	0.10641871
139	0x3c9a5936	0.018841367
140	0x3d1bd8a4	0.0380484
141	0x3dff55f5	0.12467567
142	0xbe138cab	-0.1440913
143	0x3dfebf3e	0.1243882
144	0xbd9d643a	-0.07685132
145	0xbd6a7b4a	-0.057246484
146	0x3da5c306	0.080938384
147	0xbc083e11	-0.008315579
148	0xbe0fe33e	-0.1405153
149	0xbd749bf1	-0.05971903
150	0x3dc891ea	0.09793456
151	0xbdcba598	-0.09943694
152	0x3d068976	0.032845937
153	0xbe339fdf	-0.17541455
154	0xbd46d769	-0.048545275
155	0x3d8ba583	0.06818678
156	0xb99be75f	-0.0002973629
157	0xbd26af82	-0.04069472
158	0x3d9d89de	0.07692312
159	0x3d4fafe1	0.05070484
160	0x3dc60b9a	0.096701816
161	0xbe3f2088	-0.18664753
162	0xbd0be157	-0.034150448
163	0xbd75c914	-0.060006216
164	0xbcca531c	-0.024697833
165	0x3dc27d21	0.09496523
166	0xbd641826	-0.055687092
167	0xbe4d1e52	-0.20031098
168	0xbd012dd5	-0.03153785
169	0xbd52b45c	-0.051441535
170	0x3d8def21	0.06930376
171	0xbd0589d7	-0.032602157
172	0x3cd116e4	0.02552361
173	0x3d546df4	0.051862672
174	0xbe1dfccb	-0.15428464
175	0xbe09add0	-0.1344521
176	0xbce82212	-0.028336558
177	0xbe5491e7	-0.20758782
178	0xbda282f2	-0.07935132
179	0x3dc7f28c	0.09763059
180	0x3dd1629f	0.102238886
181	0xbd5fea0a	-0.054666556
182	0xbe40415a	-0.1877493
183	0xbd69011a	-0.056885816
184	0xbd8cd7a8	-0.06877071
185	0xbd1a3575	-0.037648637
186	0xbe0fca87	-0.14042102
187	0xbd7e15fb	-0.06203268
188	0xbd2bbf26	-0.04193034
189	0xbd8ccc94	-0.06874958
190	0x3da9ecbb	0.08297106
191	0xbdd749ad	-0.105120994
192	0x3cac4054	0.021026768
193	0x3d162814	0.036659315
194	0x3df4df49	0.11956651
195	0xbda7b8fa	-0.08189578
196	0xbe17fe23	-0.14843039
197	0xbc188fdc	-0.0093116425
198	0x3c326cc8	0.010890193
199	0xbe03584f	-0.12826656
200	0xbdd1beec	-0.102414936
201	0xbda3568a	-0.079754904
202	0x3d86276c	0.06550488
203	0xbdb8b565	-0.09018973
204	0x3ddab7cd	0.106795885
205	0x3dced9d4	0.10100141
206	0x3db05a6a	0.08610995
207	0x3dec1c50	0.11528838
208	0x3ce5cbee	0.028051343
209	0xbde9fe40	-0.114254475
210	0x3d9c82a9	0.07642109
211	0xbdfbae92	-0.12289156
212	0xbe03a8db	-0.12857382
213	0xbda0890d	-0.0783864
214	0x3d75bc3a	0.05999396
215	0xbdcbfa8a	-0.09959896
216	0xbe04ab6b	-0.12956016
217	0xbdd624b9	-0.10456223
218	0xbe349901	-0.17636491
219	0x3da35070	0.079743266
220	0xbe20e6e7	-0.15713082
221	0x3d1ef3b9	0.03880665
222	0xbd9d73b8	-0.07688087
223	0xbd27ec80	-0.04099703
224	0xbe12eeb3	-0.14348869
225	0xbdbff3f9	-0.09372706
226	0xbe03668d	-0.12832089
227	0xbe1a7f5d	-0.15087648
228	0x3d405084	0.046951786
229	0xbda6ac9c	-0.081383914
230	0xbc92493e	-0.01785719
231	0x3ca670d5	0.020317474
232	0xbda2b69f	-0.079449885
233	0x3d12ffc4	0.03588845
234	0xbd7ab1fa	-0.061204888
235	0xbdb3617b	-0.08758827
236	0xbe0f350e	-0.13985083
237	0x3d5f8894	0.05457361
238	0x3c32eb92	0.010920422
239	0xbd63b9bf	-0.055597063
240	0x3d036034	0.03207417
241	0x3ad391a3	0.0016141426
242	0xbd9ddb18	-0.077078044
243	0x3de9ccfe	0.11416052
244	0x3cc27389	0.023736732
245	0xbdcb3512	-0.09922232
246	0x3dfaa367	0.12238198
247	0x3da3800f	0.079834096
248	0xbe0bc6c6	-0.13650045
249	0x3e0fae4e	0.14031336
250	0xbd8621fc	-0.06549451
251	0xbd600689	-0.054693732
252	0xbe16a4ff	-0.14711379
253	0x3d4ea08b	0.050446074
254	0x3dae8253	0.08520951
255	0x3c5cb103	0.013469937

fc2.bias f4 [10]
0	0x3dc74872	0.09730615
1	0xbd635fb0	-0.055511177
2	0xbda4c01b	-0.08044454
3	0x3aba0032	0.0014190732
4	0xbdb92040	-0.09039354
5	0xbda76d67	-0.08175164
6	0x3db077e0	0.08616614
7	0x3c4a0034	0.01232915
8	0x3d6fa7a2	0.058509476
9	0xbd9a8be5	-0.07546214
