parameters/MNIST/enc-trained-model.pth (torch, 129644 bytes, 5 tensors)

conv1.weight f4 [1, 1, 7, 7]
00000000: 7e88 00bd b248 02be 23aa ef3d 7cd8 2e3d
00000010: a0af 3fbe 5de9 e8bd 8b29 2dbe 4ec6 1a3d
00000020: df90 debd b020 7cbd 5773 253e 3ae5 ef3d
00000030: 58e9 a3bd 0987 0dbc e0c5 44bd df57 55bb
00000040: 16c7 193e 6c13 49bc ef4f bb3c 519e 4fbe
00000050: 6014 adbd ee08 dfbd 0b16 183e 6e9c 1e3e
00000060: 4481 273e 8915 203e 585a 503d b4b5 d5bd
00000070: 1f28 013e 4c74 5a3e 876e 0a3e d54f 20bd
00000080: 8fc6 b7bd b041 813b 8973 ffbd 6610 afba
00000090: 9b11 313b 5b6c 4f3e 3dee 3e3e 40df efb8
000000a0: 5bf1 b7bd f96b 1fbe 4df6 18be 5d4e d5bc
000000b0: 5cca fd3d d1dc dc3d 11c3 efbd 4ec4 2ebe
000000c0: b5e3 6bbe
-0.03138017 -0.12723044 0.11702373 0.042686924 -0.1871934 -0.113726355 -0.16910379 0.037786774
-0.10867476 -0.06155461 0.1615728 0.11713643 -0.08003491 -0.008638152 -0.04804027 -0.0032553596
0.15017352 -0.012272697 0.022865264 -0.20275237 -0.08451152 -0.10890375 0.14852159 0.1548936
0.16357905 0.15633215 0.05086741 -0.10435048 0.12612961 0.21333426 0.13518725 -0.039138634
-0.08973419 0.003944598 -0.124732085 -0.0013356328 0.002701855 0.20256178 0.18645568 -0.000114379916
-0.08981582 -0.15568532 -0.14937706 -0.026038343 0.123921126 0.10784305 -0.11707128 -0.17067072
-0.23036082

fc1.weight f4 [64, 484]
00000000: 4269 de3c eff9 6fba cc76 1e3d d385 573d
00000010: 5fb7 823d 01ba e43c d958 59bc 78a1 613d
00000020: cb4a 4a3d ff27 5d3d 9cea 813d 78e6 fc3c
00000030: 93b5 373d e14d 193d 85c4 ff3c 9d9a 513d
00000040: 0d94 3e3d dda9 bebb 4e39 f6bc 88e5 083b
00000050: 910d d53c be98 653d adbd 383a 933c a73d
00000060: c7cc 393d de8c 423b 1cce 8d3d 12fa 073d
00000070: a9d2 5aba 1aaa b33c 35b6 8c3d 1df1 d7bc
00000080: 1fba 52bc 575d febc b0b3 2c3d bcb9 0fbd
00000090: 66b8 79bc eb04 7b3d f704 893c b219 d63b
000000a0: 4e06 823d 5d6d 583d c611 0b3d 43a3 333d
000000b0: 2313 863d bb1f 963d 4ea1 5d3d 2d89 5cbb
000000c0: 011a 5d3d a6c8 e13c 932e 10bc 413a 09bb
000000d0: e183 93bc 1ef7 8e3b 3416 debc ec4f 2abd
000000e0: 64ce a23a 847f 8a3d b14b 413c cad1 503d
000000f0: c3db 8b3d 7e6d b13c f6b2 953d 9a5a 103d
00000100: d709 553c 3c22 8b3d 35a9 853c 8a88 ee3c
00000110: 014e a13d 1708 aa3c 6919 fcbc 8d49 4bbc
00000120: b940 82bc f49f 62bc 3b7e d8bc 94a3 1f3d
00000130: 3220 9d3c b676 9dbc a2c0 18bc 6282 8a3c
00000140: 87c2 173d 8ab2 91bb aaf6 a03c 0c53 51bb
00000150: 375e 213d ad14 a2bb 1d92 1cbd c51a f43c
00000160: 0797 d93c 41f7 3bb7 fe00 6f3c bef6 953c
00000170: 4209 37bd b151 1c3d 7066 9b3b 49b2 78bd
00000180: 137f cabb cb48 ad3d 04b3 453d 037d c0bc
00000190: 0f67 753d c3fe 8b3d 38fc 813d 2b5c dfbb
000001a0: e4ce 18bc 3973 afba 1040 bd3b cfc4 383d
000001b0: cace e8ba 64f1 913d 06e0 9b3d 3473 e339
000001c0: b566 e23c 5d1b 47bc f773 203c 946d c0bc
000001d0: 271c a33d f728 523d e32b 21bb 706d 973d
000001e0: 4588 803d 9589 49bd 1142 8a3d fa26 ae3d
000001f0: 50bf 983d 3418 0abd 3064 86bb cee8 f4bb
00000200: c21e 8c3d d602 de3c 01eb c63d 8e59 113d
00000210: 8a8e 233c 8449 f33c 22eb 4b3c 1ca7 f3bc
00000220: 4de3 23bd 9f6b 673d 4321 933d eeef b83d
00000230: 83bc 0f3d 5224 143c b802 6d3d fa4c 2cbd
00000240: b76f 8b3d f42d b93c 8257 b13d b2c4 5c3b
00000250: f714 25bd db2b 073d caf0 873d 54e7 7a3c
00000260: 61aa f43c 07c3 c53c 35e9 723d 05b2 05bd
00000270: f0e1 0cbd 76c8 f4bc c272 823c 477d 943d
00000280: 46e8 ed3c fa06 943d c87f c23c 00d7 933d
00000290: c6c7 683c 6b77 3e3d 8a1d 48bd 6d00 22bd
000002a0: bc7d 86bc 525c 4cbc df58 6c3a 377c 91bc
000002b0: 5072 793c 77f8 dc3c d3ab 253d 3d87 3b3d
000002c0: d304 d9bc 9727 39bd d0ba ff3c 8eb2 543d
000002d0: ae10 4c3d 1f0f d13d 7378 0c3d f14b d33c
000002e0: 6ec4 36bc a4a5 ce3c 4f9a 32bc 9856 d5bc
000002f0: d4bc 18bc 67b1 e9ba 992a f1bc 906b f3bc
00000300: 60f6 0739 fffc d83b 6767 44bc c4a0 7cbc
00000310: b5dc 813d ad58 a93c 2ea8 393d 20f8 32bc
00000320: 685f e5bb ee81 463b cdb5 d03c 4633 9d3d
00000330: d3c0 ac3d 01ed 083d 7870 edbc 48c4 54bd
00000340: cfa8 afbc 6261 6e3b 9b2e 6f3a 0c69 163d
00000350: cfac e83c 9f76 213d 5ee2 8b3d 0d05 a63d
00000360: ee32 fabc 48dd b0bc 368d 4abb 3ede 923d
00000370: 8613 983c 76c7 04bd b17c cbbc 6376 463d
00000380: e972 b6b9 b021 02ba 6c3e 6e3d bdc3 993b
00000390: 06fd fabc 1f91 71bd ec81 a9bc 77a8 2bbd
000003a0: b328 5ebc e8f0 323c 2166 0f3d 01e4 903c
000003b0: 0515 063d 4fa4 bd3d 4bb6 95bc b486 383d
000003c0: 89fb 873d 843e 923d 1978 7a3c cb7c 07bc
000003d0: c541 d6bc cb7d f3ba 7484 f73b dbca 5f3d
000003e0: 7acc b03c 1aad 713d 4028 3c3d 76a8 abbc
000003f0: 59c7 d2bc 06f7 ddbc 2586 583c 04c6 51bb
0.0271498 -0.00091543695 0.038687512 0.05261786 0.063826315 0.027920725 -0.013265812 0.05508563
0.049387734 0.05399322 0.06343576 0.030871615 0.044850897 0.037427787 0.031221638 0.05117284
0.04652791 -0.005818589 -0.030056622 0.0020888764 0.026007446 0.05605387 0.0007047307 0.081658505
0.045361307 0.0029686014 0.06924078 0.03319747 -0.0008347431 0.021931697 0.06870691 -0.026360089
-0.012861758 -0.031050367 0.04216355 -0.03508924 -0.015241718 0.061283987 0.016726 0.006533825
0.06348859 0.052838672 0.033952497 0.04385687 0.06546619 0.07330271 0.05410891 -0.00336511
0.053979877 0.027561497 -0.008800167 -0.0020939263 -0.01800722 0.0043629548 -0.027110197 -0.041580126
0.0012421128 0.06762603 0.011797831 0.05098132 0.068290256 0.021658655 0.07309525 0.035242654
0.013002834 0.06793639 0.016316036 0.029117841 0.07876206 0.02075581 -0.030773835 -0.012407673
-0.015900003 -0.013832081 -0.026427379 0.03897436 0.019180391 -0.019221645 -0.009323271 0.016907874
0.03705075 -0.0044463323 0.019648869 -0.003194037 0.03939649 -0.0049463124 -0.038225282 0.029797921
0.026561273 -1.1203637e-05 0.014587639 0.018306132 -0.044686563 0.038163844 0.004742436 -0.0607169
-0.006179699 0.0846115 0.048266426 -0.02349711 0.059912737 0.06835701 0.06346935 -0.006816407
-0.00932667 -0.001338578 0.005775459 0.045109566 -0.0017761823 0.0712612 0.076110885 0.00043382647
0.027636865 -0.01215252 0.009793273 -0.02348975 0.07964354 0.0513086 -0.002459281 0.073939204
0.06275991 -0.049203474 0.067508824 0.08503528 0.07458365 -0.03371449 -0.0041012987 -0.0074740415
0.06841804 0.027100962 0.09712792 0.035485797 0.009982714 0.02969814 0.012446197 -0.02974277
-0.040011693 0.05649912 0.071840785 0.09030138 0.03509189 0.009041863 0.05786392 -0.042065598
0.06808417 0.02260492 0.08659269 0.0033686575 -0.040303197 0.03300081 0.06637724 0.015313942
0.0298664 0.024140848 0.059304435 -0.032640476 -0.03439516 -0.029880743 0.015923861 0.07250457
0.02904142 0.07227893 0.023742571 0.07218742 0.014207786 0.046500605 -0.048856296 -0.039551187
-0.016417377 -0.012473183 0.00090159284 -0.017759426 0.015225008 0.026973946 0.040447067 0.04578327
-0.026491558 -0.04520377 0.031217009 0.051928096 0.049820594 0.10207962 0.034294557 0.025793048
-0.011155231 0.025225468 -0.010901048 -0.026042268 -0.009322364 -0.0017829359 -0.029439257 -0.029714376
0.00012966385 0.0066219564 -0.011987544 -0.015419189 0.06340925 0.020672167 0.045326404 -0.010923415
-0.0069998987 0.0030289846 0.025477314 0.07675795 0.08435216 0.03342915 -0.028984293 -0.051945
-0.021442799 0.0036373963 0.0009124071 0.036721274 0.028402714 0.039419767 0.068302855 0.08106432
-0.030541863 -0.02158989 -0.0030906922 0.071712956 0.018563997 -0.032416783 -0.024839731 0.048452746
-0.0003479936 -0.0004964126 0.058165 0.0046925233 -0.03063823 -0.05897629 -0.020691834 -0.041908707
-0.013559508 0.010921694 0.035009507 0.017686846 0.03273489 0.09259855 -0.0182754 0.045050338
0.066397734 0.0714083 0.015287423 -0.008269499 -0.026154408 -0.0018576918 0.0075536314 0.054636817
0.021581877 0.059002973 0.045936823 -0.020954352 -0.025729822 -0.027095329 0.013215576 -0.0032008896

fc1.bias f4 [64]
00000000: fc90 793d 82ca 213d b882 843d 1471 1f3d
00000010: db46 19bb f48e 51bd 5824 00bd e507 8b3d
00000020: f7c2 713d 8baf cebb 75f0 20bd 1d8b 1f3c
00000030: 05db b73c f9f5 7c3d 2d12 a23d 5391 0cbd
00000040: af16 e9bc 7c53 713c 157f f8bc cd75 a0bd
00000050: 121f 223d db63 5bbd a3b0 833d faea c03c
00000060: 010f 7ebd ee6c 0d3d 22e1 333c 16b1 81bd
00000070: 95c0 22bd 61a7 84bb 2f9e f0bc c1a5 e13c
00000080: f969 9dbd b281 7ebd 5d97 39bc 951a 5b3c
00000090: d8b8 34bd 4357 d53c 7199 13bc dd05 d737
000000a0: 01b3 31bd e2e5 44bd bd8a b23d 6d46 8c3c
000000b0: 026b 3abd 1f3c 373d 2353 bc3c 578c fd39
000000c0: 8c85 9a3d 7e78 4f3d c233 af3a e7ab 02bc
000000d0: 6f9c 0ebc 6d5b e43b dcf0 833d 98d3 03bd
000000e0: b002 133d ec24 5936 4080 193d b94c 4dbd
000000f0: a713 833d c9d9 61bd 0d38 04bd d73e 9bbc
0.060929283 0.039499767 0.06470245 0.0389262 -0.002338818 -0.05116172 -0.03128466 0.06788615
0.059023824 -0.0063075474 -0.039291818 0.009737757 0.022443304 0.061758015 0.07913623 -0.03431828
-0.0284532 0.014729377 -0.030334035 -0.07834969 0.039580412 -0.053562026 0.06430175 0.023549546
-0.062026028 0.03452771 0.010978969 -0.063326046 -0.03973444 -0.0040482734 -0.029372303 0.027544858
-0.07686228 -0.062135406 -0.011327592 0.013373037 -0.044121593 0.026042586 -0.009008751 2.5632728e-05
-0.043383602 -0.048070796 0.087178685 0.017123425 -0.045512207 0.04473507 0.022988861 0.00048360482
0.07545003 0.05065202 0.0013366865 -0.007975555 -0.008704289 0.0069689066 0.06442425 -0.032184213
0.035891235 3.2357011e-06 0.037475824 -0.050121997 0.06400233 -0.055139337 -0.032280017 -0.018950863

fc2.weight f4 [10, 64]
00000000: c51a 37bd 7d56 093e 4f0e 4e3c 9ad3 dfbd
00000010: 3e5d 773d 2cb6 0abe 49c6 03be b1f2 e1bd
00000020: d29d 8b3d 3294 f0bd 9b9f 563d 9bee dcbb
00000030: c628 fdbd 7174 34be 1a16 0cbe baba a5bd
00000040: d07e cf3d 842b 0ebe 5297 9e3d d587 19be
00000050: 6795 12be 78bc 6cba 01a8 4c3d 84ba 483d
00000060: 1268 653d 5c2d 263d 8780 713d 63f5 073d
00000070: 5afa e83d 1693 3cbe baaa 8abd 561d 53bd
00000080: 74ed 873d 3487 36be 779b eb3a 73cb 7b3d
00000090: 6fe6 d03c 40f0 7c3c c2bd 9f3b f29a d9bd
000000a0: 544b c3bc d73b 0cbe b42a 15be 0b59 a5bd
000000b0: 73d3 e33d 9b23 1abe 1763 25be 0a65 763d
000000c0: 3536 b9bd 8647 7f3d c393 4fbb 1996 4b3d
000000d0: 4bea e6bd 5a65 14be 35af f4bd ca0f dabd
000000e0: 59f0 543d 834e 92bd 0c81 28be 305a d4bd
000000f0: f184 b43c e193 bcbd 4dd7 0a3d 476d 843d
00000100: 7ea5 76bd 5fb3 33be bd7e e4bd 8360 71bd
00000110: 6446 93bd fe02 833d c032 453b 4462 c9bd
00000120: 7c83 10be 1013 e0bd 88ff 0b3d d465 723d
00000130: 69a4 a23c e322 98bd d1f8 223d bbcf 12be
00000140: d44e d4bd 226b 383d f338 893d c17f c9bd
00000150: 3a71 1abe d005 583d af3e 043e 1091 723d
00000160: 0a47 39be 69f8 143d 3f99 c4bd 1030 98bd
00000170: 46e8 b63d ebe6 09bc 7a4e 3bbd ce66 e03d
00000180: 0c69 9abd 6e72 b33d b8ed 8fbd b317 62be
00000190: b666 19be 83c2 03be b00c fcbd 8d09 063d
000001a0: 7bf5 083e 702e 47be ad05 bd3d a568 953d
000001b0: c4df 2abd 2be6 a23d f73b 2b3d 94fb 32be
000001c0: a938 153c daee 30be 2f0d 0fbe 85fd 3bbe
000001d0: a14c e03d 3bf7 0c3d 35bc 01be d249 2f3d
000001e0: 107f 443d 8257 bbbd 91c9 803d 6ebb 2cbe
000001f0: 91fe 003e 6352 54be 2749 edbd cb4e 963c
00000200: dc67 0dbe 5614 2e3d 8d8a 303d e223 d2bd
00000210: f758 903d 57c9 17be 3c1c dfbd 4c8d d7bd
00000220: 7a94 013e 0d03 403c ec49 fe3d 9027 53bd
00000230: 53a8 e13d 552d bf3c fd60 1bbe 0ef2 48bd
00000240: 2340 0c3b 5e66 b4bb 4853 c0bd dafd 01be
00000250: ad7a 4a3a ba2c d3bd 447a 6ebb c751 47bd
00000260: b90a 443d 3cf7 f53d 5e9f 4b3d 57c4 2bbe
00000270: ddf6 0ebe 35cc 20be 4bbd 2cbd d973 11be
00000280: 572e 0fbd be1e 43bd 132d adbd 3ad7 04be
00000290: 25d7 5e3d f924 2e3c fcd8 4f3d 2a7b 36be
000002a0: 6652 cf3d 595f f83c a841 35be bf7b 88bc
000002b0: 3bf2 34be 910c acbd 2aee 99bd 7cdd 9e3d
000002c0: 425e 763d 4c97 ec3d 2b13 d53d 21dc 91bd
000002d0: a426 1ebd 8454 b6bd a557 e23d ac34 0c3d
000002e0: b8f8 4f3d 3e7e d73d 98f9 28bd 52c3 8ebd
000002f0: c27b 3d3d 4863 99bd f512 dfbd 3655 813c
00000300: 0b93 a63d 5433 623d 725d 8fbd c221 263d
00000310: 3399 973d a78d f13b 5938 f7bd cbd5 a33c
00000320: be40 d43d 29c4 d4bb 7c95 913d 0abf d5bd
00000330: 6149 b0bb dbc4 c23d fb96 3fbe 9938 35bd
00000340: 47bd a73d 4d4c 933d 1029 863d 8e7f cabd
00000350: ef01 20be dee5 9e3d 15fe 153d 8618 863d
00000360: 2526 6c3d ab39 92bd 2f0a 73bd 4dcd b63d
00000370: 1470 76bc b0d8 ba3b 1088 f0bd 866a c2bd
00000380: 5a2e d9bd be8e f6bd 599a d0bd b5a1 2bbc
00000390: d9f5 d13d 1535 23be 5afc 603d 8dcd 6a3d
000003a0: b46e da3d 56fd e1bd 1d0b 44be d10c fb3b
000003b0: e87c a63d 8e8c a93d c710 9cbd f3eb efbb
000003c0: 188c 25be 053b ebbd bec3 14bb ccf6 b3bd
000003d0: 04e5 1d3c a8b4 cd3c a840 23be 2143 72bd
000003e0: d2be 493d b422 3b3d 86b8 353d 0657 35be
000003f0: 982e 6bbd 7430 a93d 2599 353d 6ad2 6e3d
-0.044703264 0.13411899 0.012576654 -0.10929032 0.060391657 -0.13546056 -0.12868609 -0.11032618
0.06817211 -0.11747016 0.052398305 -0.006742311 -0.123612925 -0.17622544 -0.13680306 -0.08092256
0.101316094 -0.13883787 0.07743706 -0.14993222 -0.14314805 -0.00090307696 0.04996491 0.049006
0.056007452 0.0405706 0.058960464 0.033193003 0.11375876 -0.18415484 -0.06770845 -0.05154165
0.066370875 -0.17825013 0.0017975409 0.06147332 0.025500504 0.015438139 0.004874916 -0.106252566
-0.02383963 -0.13694702 -0.14567071 -0.08073624 0.11124315 -0.15052645 -0.16151081 0.060154952
-0.09043542 0.06232407 -0.0031673766 0.04970369 -0.112751566 -0.14491788 -0.119474806 -0.10647543
0.051987026 -0.07143881 -0.16455477 -0.103687644 0.022036048 -0.09207893 0.033896733 0.064661555
-0.06021642 -0.17548893 -0.11156986 -0.05892993 -0.0719116 0.06397055 0.0030090064 -0.09833196
-0.14112657 -0.10941136 0.03417924 0.059179142 0.019853787 -0.07428529 0.03978807 -0.14337055
-0.10366598 0.045024045 0.06700315 -0.0983882 -0.15082255 0.05273992 0.12914537 0.059220374
-0.18093506 0.036369715 -0.09599542 -0.07431042 0.089310214 -0.008416872 -0.045729138 0.109571084
-0.07539567 0.0876206 -0.07027763 -0.22079353 -0.14980587 -0.12867169 -0.123071074 0.032723952
0.13374893 -0.19451308 0.09229598 0.0729535 -0.041717306 0.07954057 0.041805234 -0.17478782
0.009107747 -0.17278615 -0.13969873 -0.18358429 0.10952116 0.034415465 -0.12669452 0.04279501
0.04797274 -0.0914755 0.06288446 -0.16868374 0.1259711 -0.20734553 -0.11586218 0.018348118
-0.1380915 0.042499863 0.043100882 -0.1026075 0.07048219 -0.14822899 -0.10894057 -0.10524997
0.12654296 0.011719477 0.12416443 -0.0515514 0.110184334 0.023337046 -0.15173717 -0.049058966
0.0021400533 -0.005505367 -0.09390885 -0.12694493 0.00077239686 -0.10311265 -0.0036388794 -0.048661973
0.04786179 0.12010047 0.04971253 -0.16774116 -0.13961358 -0.15702899 -0.04217271 -0.14204349
-0.034956302 -0.04763674 -0.08455863 -0.12972727 0.054404397 0.010628932 0.05074404 -0.17820421
0.10123138 0.030318903 -0.17700827 -0.01666057 -0.17670529 -0.08400834 -0.07516129 0.077570885
0.060148485 0.11552295 0.104040466 -0.071220644 -0.03861107 -0.08902839 0.11051873 0.03422992
0.050774306 0.10522126 -0.041253656 -0.06970848 0.046260603 -0.074896395 -0.10892288 0.015787702
0.08133515 0.05522473 -0.07000245 0.040559538 0.07402267 0.0073716226 -0.12071294 0.019999405
0.10363911 -0.0064931107 0.0710859 -0.104368284 -0.005379841 0.095102035 -0.18709938 -0.04424343
0.08190399 0.071922876 0.06550801 -0.098876104 -0.15625738 0.077586874 0.036619265 0.06547646
0.057653565 -0.071399055 -0.059335884 0.08925877 -0.01504137 0.0057021007 -0.11744702 -0.09492974
-0.10604544 -0.12038945 -0.101856895 -0.010475566 0.1025197 -0.15938218 0.05492816 0.057324935
0.10665646 -0.11034648 -0.19144864 0.00766144 0.08129293 0.08278762 -0.076203875 -0.0073218285
-0.16166723 -0.114858665 -0.002269968 -0.08787307 0.009637121 0.025110558 -0.15942633 -0.05914605
0.049254246 0.045687392 0.04436543 -0.17708978 -0.057417482 0.08261195 0.044335503 0.058306135

fc2.bias f4 [10]
00000000: c5c3 bcbd 080f 323d 290a cbbd fab4 903d
00000010: e688 b2bd ebe4 ea3d 0037 cdbd 29f6 b93d
00000020: 8dd9 c43d faf9 283d
-0.092170276 0.043471366 -0.09914047 0.070657685 -0.087175176 0.11469444 -0.10020256 0.090801544
0.09611807 0.04125402
