parameters/MNIST/model.pth (torch, 71540 bytes, 6 tensors)

conv1.weight f4 [4, 1, 7, 7]
00000000: 2785 86bd 83af 07be bf99 333d ea5f 653c
00000010: 0ae1 323b 0246 e73d c7e1 61be b463 debc
00000020: a935 18be 4f3c 09bd 4353 0a3e fd81 683e
00000030: a052 a93c 47a9 3abe cfe4 95bd 3014 913d
00000040: 49ad 323e 896d b63c f056 0c3e fa15 ffbd
00000050: 9059 91be ae48 0bbe ebbf 033e 8c2c 153e
00000060: f1fa 283e 2c74 c23d 33b6 14be ebc0 a2be
00000070: 7af3 82bd 78a7 4b3e 7765 503e 9e82 3fbd
00000080: 5f1a 05be 58d3 48be 17e3 25be eb3e 87bd
00000090: a6e5 133e d959 8e3e e93f 093d 6f57 d8bd
000000a0: b199 05be 55d8 97bd f423 a9bd ffea 5e3e
000000b0: d73d 563e 8f05 92bd ef65 1fbe 3177 09be
000000c0: 6ec1 17be 57df 51bd 9487 9abd 678d 78bd
000000d0: 567a 583e adcb ae3e 657e 733e 964d e33d
000000e0: 76e6 90bd c6b3 f0bd b067 a0bd 7fa8 8f3d
000000f0: dbcc 5c3e 7d73 aa3d feb7 e83d 3f3f 4a3d
00000100: fd7e 64be 26bb 2abe 3e43 18be b76f 19be
00000110: 9eb9 42be 93a8 1f3b 554b 603d a6ea 20be
00000120: cf12 a3be f4aa 05be 27c4 2fbe 8b39 31be
00000130: 8d83 d4bb 4f39 1a3e b6f2 19be cae8 47be
00000140: acba 0abe 2de5 78be cb0c 82bd 4314 69be
00000150: ae65 1f3e 793f a8bd 3a00 ffbd 28ee 5dbd
00000160: a13c b7bd ecb8 b0bd e2cf aa3c f034 973e
00000170: cd2e 673e 3f33 633e e1dd 2a3e 4064 6d3e
00000180: b4a2 003e 6a89 b1bd 460b f63d a8dd 933d
00000190: a1d3 47bd acde b2bd f2d2 85bd 9869 9c3d
000001a0: d33f b43d a8dd 91bb 5726 33bd f545 66bd
000001b0: fca0 47be baf2 b4bd 6717 fe3d d8ec 653d
000001c0: 248f 013e 0965 9fbd eba6 78bb 6b89 22bd
000001d0: f0e6 d2bd 161b 453e 166e 843e 13c2 123e
000001e0: dc54 8fb9 7995 0dbd 9817 51be ace8 c2bd
000001f0: 0e1e 95bc a08d 5c3e a6c3 b03d 397a 973d
00000200: df9b aabd 23dd 77be 83ca 9bbe 57d0 33be
00000210: f8a0 51bd d695 00be 88cb bc3c 3a56 aebd
00000220: 4f1b 8ebe 0d31 41be b421 0ebe 1b44 39be
00000230: 0da5 e1bd e7fe fc3d e78c 8b3d cb6b 913d
00000240: 048f ecbd 6206 01be c3f0 d5bd 21fe 69ba
00000250: 6d21 b3bd 5282 1dbe e880 3ebc cb47 593c
00000260: 42d9 993d 0d89 b33c 7815 af3d a308 44be
00000270: a3bf 05be 94ce 05bd 517b 5cbd 6ee4 073e
00000280: 43f9 263e 667e 2ebe b1ef 49be 11b0 12be
00000290: 6cb1 093d bcce 6d3d f8b0 863e 8359 d63d
000002a0: 00ed a1be 9d89 41bd 5940 ba3d 03e2 723d
000002b0: d71f b03e 7430 003e 0377 893d 3ada b3bd
000002c0: a501 5b3e 3524 bf3d 6a8c b13e a1ce 883e
000002d0: 9e61 1b3e 1935 3bbe 7de5 c53d ef37 3e3e
000002e0: a275 593e 6b6a 133e 20aa d03c f6f8 edbd
000002f0: 91e1 1fbe ac1c 1d3e 8679 573d c1d7 abbd
00000300: 6de7 d13c 9892 36be 0c1c 1dbe 9592 cabd
-0.065683655 -0.13250546 0.043847796 0.0139999185 0.0027294778 0.1129265 -0.22058783 -0.027147152
-0.1486422 -0.03350478 0.13508324 0.22705837 0.020669281 -0.18228637 -0.073190324 0.070839286
0.17448916 0.022269027 0.13705039 -0.124553636 -0.28388643 -0.13601944 0.1286618 0.14567775
0.16501977 0.09494814 -0.14522628 -0.3178781 -0.06394096 0.19888103 0.20351206 -0.046755426
-0.12998341 -0.19611871 -0.16199909 -0.066037975 0.14443073 0.27802923 0.033508215 -0.10563552
-0.1304691 -0.07414309 -0.08258811 0.21769331 0.20922028 -0.071299665 -0.15566228 -0.13424374
-0.14819881 -0.051238384 -0.07545391 -0.060681727 0.21140417 0.34139767 0.23778684 0.11098783
-0.07075207 -0.11753039 -0.07832277 0.0701456 0.21562521 0.08322809 0.11363219 0.049376722
-0.22314067 -0.16672954 -0.14869401 -0.14984022 -0.1901612 0.0024361953 0.054759342 -0.15714511
-0.31850287 -0.13053495 -0.1716467 -0.17307107 -0.0064854086 0.15060924 -0.15033993 -0.19522396
-0.13547772 -0.24306174 -0.06350096 -0.22761635 0.15566131 -0.082152314 -0.12451215 -0.0541822
-0.08947111 -0.08629021 0.02085108 0.29532576 0.22576447 0.22187518 0.16686203 0.23182774
0.12562066 -0.08668788 0.12013869 0.07220012 -0.04878581 -0.087338775 -0.06534375 0.07637328
0.08801236 -0.0044514723 -0.043737736 -0.05621906 -0.19495004 -0.08835359 0.124068074 0.056134075
0.1265226 -0.07782943 -0.0037941288 -0.039681833 -0.10297954 0.19248614 0.2586524 0.14331846
-0.0002733831 -0.034566376 -0.20419157 -0.09517035 -0.018202808 0.215384 0.08631067 0.07396359
-0.08330511 -0.2420545 -0.30427942 -0.17559944 -0.051178902 -0.12557158 0.02304627 -0.0851254
-0.2775521 -0.18866368 -0.13880044 -0.18092386 -0.11017809 0.12353306 0.06813984 0.07100638
-0.115507156 -0.12600091 -0.10446312 -0.0008926113 -0.0874661 -0.15381745 -0.011627413 0.013261746
0.07512142 0.021915937 0.08549017 -0.1914392 -0.13061385 -0.03266771 -0.05382854 0.13270733
0.16306023 -0.17040405 -0.19720341 -0.14324977 0.03361647 0.058058485 0.2630689 0.10466292
-0.3162613 -0.04725038 0.090943046 0.059297573 0.34399292 0.12518483 0.06712153 -0.08781858
0.21387346 0.09333078 0.3467744 0.26720145 0.15173957 -0.18281974 0.09662912 0.18576024
0.2123628 0.14396064 0.025471747 -0.11619751 -0.1561339 0.15342969 0.05260613 -0.08390761
0.025623048 -0.17829359 -0.1534273 -0.098912396

conv1.bias f4 [4]
00000000: 8531 da3e 56b0 2abe 7828 29be 8496 5fba
0.42615905 -0.1666883 -0.16519344 -0.00085292035

fc1.weight f4 [64, 256]
00000000: b6c5 6fbd 099c f4bd 3190 48bd 3575 183e
00000010: 822b 34bd 7e31 2abe 79a3 cbbd 8304 e5bd
00000020: 9cc0 a33c d459 e9bd b577 b1bb d44a c73d
00000030: d2c6 80bd 4c17 c1bb 9cf0 72bd 7474 afbd
00000040: 0dbb 9a3c 09a9 efbd 6bab 38bd 9670 3cbd
00000050: 4a4c 3ebe 2143 e1bd 541b 0ebe 8c02 e3bd
00000060: 8459 5abd 3228 c43d 3dff d93d 4e6f 3fbd
00000070: 3d0f 31bd b8f5 523d c63a 4ebd 65ff 523d
00000080: b6e7 25be dda7 60bd 9bc4 48be 06a7 bdbd
00000090: 0bef babd 6698 9c3d 99a3 863d d374 3dbc
000000a0: 4c2d 9fbe 4e0f 0abe ee4d 71be 40bc d5bc
000000b0: 03fd fe3c 0194 ed3d 38af 983d 6e5e 5dbe
000000c0: 8601 8fbe 19be 3cbd 51de c13c df99 f33c
000000d0: c180 9e3d 8e06 e53d 3735 203d e6ed 5bbd
000000e0: 7d53 04be 2e24 d4bc b311 c63d 7599 a23d
000000f0: 56c4 763e 5bf7 fa3c bc25 cebd 9da0 953d
00000100: 1699 3b3c e104 87bc bb82 d7bd 1216 33bd
00000110: 74b8 4abd c706 0d3e 3004 ba3d d7ae c1bc
00000120: a6f7 983c e8f6 f83d d244 b3bb 1ff4 16bd
00000130: 817b 013d a1a0 fe3a a5b3 e0bc 1fcf 5fbd
00000140: 5c96 eabd 8716 c3bd 933f c0bc 06e1 733c
00000150: 043e 3a3d 3993 853c e0cf a13c 09eb 743d
00000160: 6d98 1c3b c65f 023e f88c c53c 1bbe d6bb
00000170: 037d 493b ea70 193e 25a4 ec3c bc76 d8bd
00000180: 5b7c bb3c 2f18 093e 004a 063e db73 3e3e
00000190: 390a 6d3c 6415 813c 9b0c 87bd 10cf 86bd
000001a0: f98c b03d add1 533e d8ff 843e 1a68 84bd
000001b0: 216c 1ebd 7d53 18be 2f9c 2cbe eb46 d6bd
000001c0: 5f90 53bd 0792 cb3d e20f 7bbd 4896 1bbe
000001d0: 9b0c d9bc 1b12 f43c a164 a2bd 5824 adbd
000001e0: b1e1 b83d 306b 323e c878 26bd c6fd 53be
000001f0: a507 a3bd 0378 34bd f448 80bc 48ec e1bb
00000200: 36d5 ca3c b347 993c 3cd7 0dbe 42e7 e2bd
00000210: bb0e d7bd 0e80 3bbd e567 10bd 6df7 f43d
00000220: e9df c0bd 9585 87bc 3388 96ba eb63 b03c
00000230: a0d0 87bd 5bc8 81bb 2007 94bd eb85 d6bd
00000240: 3c28 78bc 48c0 5abd 6bad 653c e036 64bd
00000250: 2b1b 2a3e 87f2 08bd a6ce 06be 23c1 12bd
00000260: 44ec 34bd beb8 923d 3d24 913c ce20 88bc
00000270: f0b5 623d 769f a93c b21f 11bc 883c 46bd
00000280: 32d1 4d3d acf2 f2bc 1b7b 12be 97b8 adbd
00000290: 6cd7 203d d811 b63d 5333 6fbd 491c 203b
000002a0: fd16 503d 1a95 c73d 6d99 c3bd fddd 233b
000002b0: 2c1d a83d e2f4 12bd 049e 283d 9447 4dbc
000002c0: c4ad 683e e0c6 59be b4ed 78be ccec 99bd
000002d0: c2c6 8a3d f660 2cbd 53aa c33c 643f a23d
000002e0: 6c36 a2bd 74c7 f3bd ce31 0bbe ebc5 3bbb
000002f0: 6166 6c3e 691a 063e 9f76 b73c 1754 0cbd
00000300: 0eda ec3d 94ca 7abe f190 97be 238c 623c
00000310: bd3a 443c 1249 063c e5ce aebc 98f3 253d
00000320: bc43 adbc 7a80 b3bc 7333 9fbd 8371 b7bc
00000330: 00d5 26bd 6ea5 1f3e 1047 163d 2326 f63c
00000340: 8b20 943b 11e4 8ebd 480c 59bc 16c6 61bc
00000350: 7f2c 6cbd fdd2 4ebd 00a3 da3d 1028 0d3d
00000360: beb3 793d b31d d93c ac99 8d3b f150 8b3c
00000370: be39 a4bc 6a58 dcbd cac3 a4be aca9 84bd
00000380: 3f87 c43c a4e1 22be 5812 90be 5ffe 43be
00000390: 1e91 ce3c e1a9 29be 6b1c 02bd 6741 90be
000003a0: e5a5 d6bd 3769 39be e8f1 23be d651 43bd
000003b0: 374b e1bc 1e73 f03d 2a91 083c 022c 433d
000003c0: d713 57bd 4e87 8bbd d141 863d 8620 ff3d
000003d0: b5c3 5bbd 3107 033d c49e 953c 706c 94bd
000003e0: 3ed7 283e 594d b03d b80a c13c e54b 343d
000003f0: f419 553e f1f0 653e 835d e73d 4d0f 6bbd
-0.05853816 -0.11943824 -0.048965637 0.14888461 -0.043986805 -0.16620442 -0.09943289 -0.11182501
0.019989304 -0.113940865 -0.0054158815 0.09731069 -0.06287922 -0.00589267 -0.059311494 -0.085671335
0.01888802 -0.11702163 -0.045085352 -0.046005808 -0.1858379 -0.10999132 -0.13877612 -0.1108447
-0.053308025 0.09577979 0.10644386 -0.046737008 -0.043227423 0.051503867 -0.05034902 0.051513094
-0.16201672 -0.054847587 -0.19606249 -0.09260373 -0.09127625 0.07646255 0.065741725 -0.011563498
-0.31089246 -0.13482401 -0.23564884 -0.026090741 0.031126505 0.11600495 0.07455295 -0.21618053
-0.2793085 -0.04607973 0.023665579 0.029736457 0.077394016 0.11182891 0.03911325 -0.053693675
-0.12922473 -0.025896158 0.096713446 0.07939426 0.24098334 0.030635526 -0.10065791 0.07306025
0.011450073 -0.016481819 -0.10522982 -0.04372222 -0.049492314 0.13772117 0.0908283 -0.02364294
0.018672775 0.12156469 -0.0054708505 -0.036853906 0.031611923 0.0019426533 -0.027429411 -0.054640885
-0.1145446 -0.09525781 -0.023467815 0.014885193 0.0454693 0.016305553 0.019752443 0.05979446
0.0023894564 0.12731847 0.02411507 -0.006553424 0.0030744679 0.1498448 0.028886864 -0.10569522
0.022886446 0.13388132 0.13114166 0.18598883 0.014467769 0.01575727 -0.06594201 -0.06582463
0.086206384 0.20685454 0.25976443 -0.06465168 -0.03867734 -0.14875598 -0.16856454 -0.10462745
-0.051651355 0.09939962 -0.061294444 -0.15194046 -0.026495269 0.02979379 -0.0792935 -0.08454198
0.09027422 0.17423701 -0.04064253 -0.20702276 -0.079604425 -0.044059765 -0.015659787 -0.006894622
0.02475987 0.018710947 -0.13851637 -0.11079265 -0.105008565 -0.04577642 -0.03525533 0.11961255
-0.094177075 -0.016543189 -0.0011484682 0.02153202 -0.06631589 -0.003960652 -0.072279215 -0.104747616
-0.015146311 -0.05340603 0.014018397 -0.055716395 0.16611926 -0.033434417 -0.13164768 -0.03582872
-0.044170633 0.07164143 0.017717475 -0.016617205 0.05534929 0.02070592 -0.008857654 -0.04839757
0.050248332 -0.02965673 -0.14304774 -0.08482473 0.039267942 0.08890122 -0.058398556 0.0024430922
0.050803173 0.09745236 -0.09550748 0.0025004141 0.08208689 -0.03587807 0.04116632 -0.012529273
0.22722536 -0.21267271 -0.24309427 -0.075158685 0.06776191 -0.042084657 0.023884928 0.07922247
-0.079205364 -0.11903277 -0.13593218 -0.0028651904 0.2308593 0.13096012 0.02239543 -0.03425988
0.11565028 -0.2449134 -0.2960277 0.0138273565 0.011976895 0.008196132 -0.02133889 0.040515512
-0.021150462 -0.021911848 -0.07773485 -0.022392994 -0.040730476 0.1559045 0.036688864 0.030047482
0.004520481 -0.06977094 -0.013247557 -0.0137801375 -0.057659622 -0.050494183 0.10675621 0.034462035
0.06096243 0.02650342 0.0043212976 0.01700637 -0.020047065 -0.10759051 -0.32180625 -0.06477675
0.023990272 -0.15906388 -0.28138995 -0.19140004 0.025215682 -0.1656871 -0.031765383 -0.28174898
-0.104808606 -0.18106543 -0.16010249 -0.047685467 -0.027501686 0.11740707 0.008335391 0.04764939
-0.052509155 -0.06812917 0.06555522 0.12457375 -0.053653438 0.03198928 0.018264182 -0.07247245
0.16488358 0.08608503 0.023564681 0.04401769 0.20810682 0.22455193 0.11297133 -0.05738764

fc1.bias f4 [64]
00000000: f75e f0bd ac17 0b3e 8e2e 1c3e 8c64 6a3d
00000010: 2174 093e ee1b 64be c239 bd3d c09a 223e
00000020: 9aa0 9f3d 011e 8a3e 7a31 393d 704f eebd
00000030: b55c 20be f4e7 763d 9ea2 2c3e b55c ee3d
00000040: 7a8a 593e 6822 ad3d 35a4 203c 01d9 85bc
00000050: b312 223e d633 28be 33da d7bd 897a 25bd
00000060: 6cd7 e03d d902 ea3d d9a4 d73d e84f 693d
00000070: 1928 22be 1c52 f7bd 74bb 463e 26c9 4fbe
00000080: 754f a5bd 849f b53d 708a f4bd 3328 343d
00000090: b76b 29be 8e9f d13b 1974 4bbe b0c2 0b3e
000000a0: e482 1bbd 54d5 03be 5d8c 323d 052c afbd
000000b0: c699 643e 8a00 d1bd d629 17be 0b91 b03d
000000c0: 2a62 e5bd 5cf7 ff3d 94ad 46be 1c26 6f3d
000000d0: 4aaa 14be cd45 e8bd db25 353e a2b7 82be
000000e0: db67 453e ebda 163d 122e 813d 9fcc 383e
000000f0: 2d59 78bd 1d04 fdbc cc31 6bbe 77c3 d9bd
-0.11736863 0.13583249 0.15252134 0.057224795 0.13423206 -0.2227628 0.09239532 0.15879345
0.07794304 0.26976016 0.0452132 -0.11636245 -0.15660365 0.0602798 0.16858909 0.11638776
0.21244231 0.08453828 0.009804775 -0.016338827 0.15827446 -0.16426024 -0.10539665 -0.04040006
0.109785885 0.114263244 0.10529489 0.05696097 -0.15835609 -0.12076208 0.19407445 -0.20291576
-0.08071796 0.08868316 -0.11940467 0.04398365 -0.16544996 0.006397194 -0.19868506 0.13648486
-0.037966624 -0.12874347 0.043590892 -0.08553318 0.22324285 -0.10205181 -0.14762053 0.08621415
-0.11200364 0.12498352 -0.19402152 0.058385953 -0.14518085 -0.113414384 0.17690222 -0.25530726
0.19277899 0.03682987 0.06307615 0.18046807 -0.06063192 -0.03088575 -0.22968215 -0.10632985

fc2.weight f4 [10, 64]
00000000: 6414 f43d 5a40 133e e7e0 7abe 2fa8 cfbd
00000010: 5a98 b8bd 4ea1 1bbd be39 4c3e 69b6 09be
00000020: beaa 903b 7f44 00bc 935e b53d a64f 823d
00000030: 13a5 7dbd 3599 27be 708a a63d 012b f63d
00000040: fd93 0cbe b314 0e3e 2d73 613e d3e5 773d
00000050: 7a6a 1dbe 6d5f bfba 0de3 a53d 3bb7 08be
00000060: 8050 62be 7b11 e83d 1e25 843d ac5a 27be
00000070: ddb5 cbbd d9c0 1f3e cccd 163d e15b c0bc
00000080: ba9f a1bc ed32 ba3d 1e37 96bd e639 e6bd
00000090: 17be 383c 6c4a 29be 224f 22bd a939 02be
000000a0: 4c23 c23d d059 db3d e619 3cbd 16fe 0bbe
000000b0: 8911 833d ea65 0ebe a52f e6bd 26c9 613d
000000c0: 80dc b0bd b1de c4bd 25cd 3abe 21bd 943b
000000d0: 1478 82be 52d6 c7bd f594 7cbe 7e64 d03d
000000e0: 9ee9 67bc 548e 58be 3ce1 943a 4473 b63c
000000f0: 5342 a2ba 42ff 9b3d 6d72 b13d 84f2 3e3e
00000100: c8b8 503c 1800 2a3d 424e b3bb f909 083d
00000110: 21f2 81bd 816d 0bbd c28d c73d 13f9 313d
00000120: 7012 da3d b2b4 c33d 593e 08bf abe3 81be
00000130: eb66 7d3e aeda abbd 2e93 143d 5d58 a2bd
00000140: 9cf5 023e f43e 93bb dbbd e13d e7c4 293d
00000150: 53fd b93d 9bac afbe 94f2 87be fa00 163d
00000160: 3d91 58bd b297 1fbe 6722 553c af14 a9bc
00000170: b41c 3dbd bd6a 1ebe 8ab1 583d 7e73 fbbc
00000180: f304 443d 9f85 533d a4e5 533e 4a21 0c3e
00000190: 135e 0dbd d8be d1bd 1bff 77ba cb2d 76be
000001a0: b651 35be 9459 b6be 46f9 5dbe 68f8 42bb
000001b0: e5c9 613e f458 553d 3236 713d 769f d6bd
000001c0: 2197 0b3e a895 56bd 4121 5f3d 1f19 38be
000001d0: e471 ad3d 16b2 33bc 0120 07be 19f3 283e
000001e0: bee0 92be 12b8 98be e7ae c53d 199b 063e
000001f0: 21ae 97be 2a40 d7bd 4ff3 0fbd 40bb 423e
00000200: b3a2 193e 5457 d7ba 616f 6fbd 5c2e b8bd
00000210: 3331 55be 7bde 22be 3957 be3d c1ce 253d
00000220: 43be 9cbd 8641 ee3c 8729 81bd d563 8abe
00000230: cf99 013e 7dc1 cc3c 261b 333d 68c5 0c3e
00000240: 5de7 31be c941 1dbe 93f6 233e 15d7 c83d
00000250: b3b2 483d 00ad a1bd 7c2f e73d 65da df3c
00000260: 1b09 c13a 2eb3 083e 3e5a 29be eb3d 703e
00000270: 9c94 363d 22ed 44bc 1b40 65be bc5b 003e
00000280: 445d 2a3e cf8c 2abe 7c5f edbd a094 d83d
00000290: f335 313e 9943 d53c b4fe 1d3e fa33 12bc
000002a0: 78f4 52be 8d8a 0b3d 5f9f 90be 5e5f f53d
000002b0: 6a8a 223c 6931 a93d cc29 8a3d 9d73 903d
000002c0: 7d1b 643d 86c4 173c e5d0 633e 4e43 50be
000002d0: 0161 b0bd 262f 4dbe 002c 36be 9129 533e
000002e0: ad7c a63d 37d2 edbd 9558 21bd a9a4 843c
000002f0: 8862 f33d 4702 04be 97bd 6bbe 57e1 92bd
00000300: 729e b3bd 0005 c8bc 5c13 5abd c11f 173e
00000310: 21a2 a93d 138c e4bd 280f 25bd e8a5 443d
00000320: e729 8f3d 5268 bf3d 601e 89bd 1c7b b83c
00000330: 5a71 ae3d c676 03be 8577 7ebe adc9 0ebe
00000340: d986 f0bd ac58 0a3c 59e3 a8bb 4b24 ff3d
00000350: f010 153e 069e 8d3d 8867 073e a408 aebd
00000360: ac68 2c3e 5a8d ef3c 4855 893d 23c8 c93a
00000370: fb99 623e 2510 d8bd f003 61b6 9d56 4a3c
00000380: 0f10 d43d 5e58 3dbe b69e debd 87d9 3a3e
00000390: 6543 823d f614 f6bd 95cc eb3d 6189 3e3e
000003a0: 0f3b f5bd 5589 dc3d ac67 42be cd40 f03d
000003b0: 6f84 65be 0818 30be 186d ccbd cb8f c7bd
000003c0: 9cc7 443e e050 b6bd 03af debc f60b 023e
000003d0: 8ef2 fc3a 49cf 333d e3bc 0c3e ba25 62be
000003e0: 5c48 5bbe a000 cb3d 5d8e 4bbe d6e4 05be
000003f0: c7bd e3bc 400c 673e 6f08 99bd 5ca3 003d
0.11917952 0.14380017 -0.24499856 -0.101395 -0.09013434 -0.03799563 0.19943902 -0.1344849
0.0044148853 -0.007828831 0.08855929 0.06362848 -0.061925005 -0.16367038 0.081318736 0.12019921
-0.13728328 0.13875084 0.22016592 0.06052191 -0.15372649 -0.0014600583 0.08099947 -0.13351147
-0.22101021 0.11331459 0.06452392 -0.16343182 -0.09946797 0.1560091 0.036817357 -0.023481311
-0.019729484 0.090917446 -0.073347315 -0.11241512 0.01127579 -0.16532296 -0.03962625 -0.12717308
0.094793886 0.1071049 -0.045923136 -0.13671145 0.06399829 -0.13906065 -0.11239556 0.05512347
-0.08635807 -0.096127875 -0.18242319 0.0045391475 -0.25482237 -0.09757675 -0.24666198 0.10175417
-0.01415482 -0.21148044 0.0011358629 0.02227176 -0.0012379385 0.07617046 0.08664403 0.186472
0.012739368 0.041503996 -0.0054719755 0.033212636 -0.063450105 -0.034039978 0.09743835 0.043450426
0.10648048 0.09555949 -0.53220135 -0.2536901 0.24746291 -0.08391319 0.036273174 -0.0792701
0.12789005 -0.0044935886 0.1102254 0.041447546 0.09081521 -0.34311375 -0.2655226 0.036622025
-0.052872885 -0.15585211 0.01300869 -0.020639746 -0.04616995 -0.15470405 0.05290369 -0.03069472
0.047856282 0.051641103 0.2069307 0.13684574 -0.034513544 -0.10241479 -0.0009460316 -0.24040906
-0.17706951 -0.35615218 -0.21677122 -0.0029750112 0.22049673 0.052086785 0.058889575 -0.104796335
0.1363187 -0.052388817 0.054475073 -0.17978333 0.084689885 -0.010967752 -0.13195802 0.16498984
-0.2868709 -0.29827935 0.096525006 0.13145103 -0.29625037 -0.10510285 -0.035144147 0.19016743
0.15003471 -0.0016429224 -0.05845583 -0.08993217 -0.2081955 -0.15905182 0.0929398 0.04048038
-0.07653477 0.029083978 -0.06306749 -0.2702929 0.1265633 0.024994606 0.043727063 0.1374718
-0.17373414 -0.15357126 0.1601203 0.09806649 0.048998546 -0.07894325 0.11288354 0.027325818
0.0014727445 0.13349602 -0.16538331 0.2346112 0.04457532 -0.0120194275 -0.22387736 0.12534994
0.1663714 -0.16655277 -0.11590478 0.10575223 0.17305736 0.02603321 0.15429193 -0.008923525
-0.2060107 0.03406768 -0.2824659 0.119810805 0.009920696 0.08261377 0.06746253 0.070533015
0.055690277 0.009263163 0.22247656 -0.20338175 -0.08612252 -0.20037517 -0.17790222 0.20621325
0.08129249 -0.11612361 -0.03939112 0.016191797 0.11884028 -0.12891494 -0.23021542 -0.071718864
-0.087704554 -0.024416447 -0.05324112 0.14758207 0.08282877 -0.111595295 -0.040297657 0.048009783
0.06990414 0.093460694 -0.06695247 0.02251964 0.08517714 -0.12838277 -0.2485028 -0.1394412
-0.1174447 0.008443993 -0.005154055 0.12458094 0.14557242 0.06914906 0.13223088 -0.08497742
0.16836804 0.029242206 0.06705719 0.0015394728 0.22129051 -0.10549954 -3.3529905e-06 0.012349752
0.103546254 -0.1849074 -0.108701155 0.18247043 0.06360511 -0.12015717 0.1151363 0.18607093
-0.11974155 0.107683815 -0.1898486 0.1173111 -0.224138 -0.17196667 -0.099817455 -0.09744223
0.1921677 -0.089021444 -0.027183061 0.12699875 0.0019298361 0.043898854 0.1374393 -0.22084704
-0.21414322 0.099122286 -0.19878526 -0.13075575 -0.027800454 0.22563267 -0.07472312 0.03140579

fc2.bias f4 [10]
00000000: f7bf 83bd d340 423e f054 f33d 8cce aa3d
00000010: 2fe9 2dbe 3043 8e3e b8c8 92bd c92e 243b
00000020: be96 5fbd db9a 813c
-0.06433099 0.18970041 0.11881435 0.08340177 -0.16983484 0.27785635 -0.0716719 0.00250523
-0.05458712 0.015820911
