parameters/MNIST/model-enc.pth (torch, 71708 bytes, 6 tensors)

conv1.weight f4 [4, 7, 7]
00000000: 9653 073f 4882 253e ae0f 633f 8a21 1f3f
00000010: 00f1 3b3d 106b c53e 0c45 673e 41a1 483f
00000020: 981a 523e a845 3f3e 47fb 663f e107 7e3f
00000030: c8f2 ea3e b5aa 3d3f dc92 e93e 0ef3 c33e
00000040: f7fd 4a3f d08a 573e 2b50 053f 40ba 023c
00000050: 6afd e33e e072 213d 43e3 473f 323e 443f
00000060: 3eab 4e3f 746b 633f 6441 5d3f 8634 c03e
00000070: 551b 423f 813f 7f3f bfa9 323f 38e1 c03d
00000080: 788c 843d 68d7 3a3f 9699 af3e 92d8 d13e
00000090: 360e 913e a9a4 6d3f 0c81 5f3f 1c5d 233f
000000a0: 7a1d fd3e c241 8f3e e871 f03d bc16 a13e
000000b0: 0a19 373f 2c58 3f3f 9670 ae3e 6805 7a3e
000000c0: 205a e83c 4cb3 063e 5c68 cc3e a82d 8e3d
000000d0: 2cee fc3e a42c 233f a136 483f fec8 f13e
000000e0: 40ea a23d 273b 303f 6ae2 f23e 56a5 0e3f
000000f0: 2f04 643f fd36 2f3f e6d3 3c3f e6d9 083f
00000100: a005 433e c8dd af3e 16b1 d93e 3450 253e
00000110: 00d2 8b3c 9016 ca3e 060a 9f3e 342a fc3e
00000120: 809f b63d 85b6 723f 0275 fd3e 1832 ca3d
00000130: 1a76 673f cbb6 0b3f 00d2 153c 6c87 753e
00000140: b36d 573f 90ba b33d 52b1 c93e 404c f33d
00000150: 17bd 323f 603e 193d 78bc 303e c0e8 003f
00000160: 20b3 5f3e f82f 3c3e 22a7 473f 5aeb 703f
00000170: d47a 203f 752e 2d3f 772e 393f 85a6 7c3f
00000180: f1f6 1d3f 1862 c93d b6a8 403f e259 d43e
00000190: c0fa d13c 18c5 2d3e 1891 f83d 3925 603f
000001a0: a600 073f d6ea ba3e a259 ef3e c1c2 3f3f
000001b0: c0f8 d73d 8659 223f 2716 7f3f c278 ea3e
000001c0: cd79 473f 842d cb3e f633 d83e 8ca8 6e3f
000001d0: c844 813e b9cc 083f d424 613f d735 1d3f
000001e0: 0071 203c f89c e03d 8c19 0a3e d4cd b43e
000001f0: 5cc9 1d3e fcf2 5c3f eef0 d53e 54d7 1a3f
00000200: b8fa 513e 68de 313e b4cd 6a3e 7478 973e
00000210: 3939 0a3f bc92 023e da14 3d3f 10fc 523d
00000220: 48ed 8b3d b16d 1a3f 0c83 dd3e b026 373e
00000230: 6449 943e 035b 5d3f 5cc4 703e b926 793f
00000240: a4e9 e43e 58d4 8a3d 2043 be3e 312c 403f
00000250: 701e e73e 2866 fd3d 146d 7e3f ef97 1e3f
00000260: 9b7d 153f 4469 2b3f 2421 e83e d0dd 243e
00000270: bcc8 ae3e da0e 4f3f 6023 933d 0b83 373f
00000280: 23a0 6d3f ce56 af3e 0ff4 2f3f 5e44 fd3e
00000290: 3312 303f 60b9 863d 3f87 663f c765 2c3f
000002a0: ec02 253e 00c6 413f b860 323f 60f1 dd3c
000002b0: 6089 7c3f fd00 453f 7e7c 373f 26f7 c33e
000002c0: 62cb 633f 48d0 cb3d a8f4 723f e720 563f
000002d0: 0b59 733f 8e29 c03e 66fd 8d3e 2c5d 4d3f
000002e0: 75c1 363f 5234 e33e 9049 813d ba5d ff3e
000002f0: ea6d 253f 8c92 6f3f 2623 203f 749c 9e3e
00000300: b963 433f 407e 903d b727 753f 602d 573e
0.52861917 0.1616298 0.886958 0.6216055 0.045884132 0.38558245 0.22584933 0.78371054
0.20517957 0.18678916 0.9022717 0.9923077 0.45888352 0.74088603 0.45619857 0.38271374
0.7929377 0.21049047 0.5207545 0.007978976 0.44529277 0.039416194 0.7808115 0.766574
0.80730045 0.88835835 0.86427903 0.37540072 0.75822955 0.99706274 0.6979026 0.09417957
0.06472105 0.72984934 0.34296864 0.40985543 0.28331155 0.92829376 0.87306285 0.6381395
0.4943655 0.27979857 0.11740476 0.31462657 0.7152258 0.74743915 0.3407027 0.24416125
0.028363287 0.13154334 0.3992337 0.06942302 0.4940046 0.6373999 0.7820836 0.47223657
0.07954836 0.6884026 0.47438365 0.5572103 0.89068884 0.6844328 0.7376083 0.53457487
0.19045115 0.34348893 0.42517918 0.16143876 0.01706791 0.3947034 0.31062335 0.49250948
0.08917141 0.9480975 0.49503332 0.09872836 0.90414584 0.54575795 0.009144306 0.2397744
0.8415176 0.08775818 0.39393097 0.11879778 0.6981978 0.037413 0.17259395 0.5035515
0.21845675 0.18377674 0.779894 0.9410912 0.6268742 0.6764901 0.72336525 0.9869159
0.6170493 0.09833163 0.7525743 0.41474825 0.025632262 0.16969717 0.121370494 0.875568
0.52735364 0.3650729 0.46748072 0.74906546 0.10545492 0.6341785 0.99643177 0.45795256
0.7792023 0.39683163 0.42227143 0.9322593 0.25247788 0.5343738 0.8794682 0.6141028
0.009792566 0.109674394 0.13486308 0.35313284 0.15408844 0.86308265 0.41785377 0.60484815
0.20505798 0.17369998 0.22930032 0.29584086 0.53993565 0.12751287 0.7385994 0.051509917
0.06832367 0.60323626 0.43264043 0.17885852 0.28962243 0.86467 0.23512405 0.9732471
0.44709504 0.067787826 0.37160587 0.7506743 0.4514041 0.123730004 0.9938519 0.6195058
0.58394784 0.669575 0.45337784 0.1610024 0.34137523 0.80882037 0.071844816 0.7168433
0.92822474 0.34245914 0.6873178 0.49466223 0.6877777 0.06578326 0.9005012 0.673428
0.16114396 0.7569275 0.6967883 0.027092636 0.9864712 0.76954633 0.71674335 0.38274497
0.8898221 0.09951836 0.94904566 0.83643955 0.95057744 0.37531704 0.2773239 0.80220294
0.7138894 0.44375855 0.06312859 0.49876195 0.6462084 0.9358299 0.6255363 0.3097874
0.7632404 0.0705533 0.95763725 0.21013403

conv1.bias f4 [4]
00000000: d1a2 713f 962b 5d3f ceb9 b53e fc8b af3e
0.94389063 0.8639463 0.3549332 0.34286487

fc1.weight f4 [256, 64]
00000000: 1d85 483f 0c9d 573f 70ed 1b3e 2c04 1a3f
00000010: b47d 653f 18ae 2d3e ec46 333e 1461 593e
00000020: 9cb8 743e b6f1 013f 40b2 9a3d 7df8 203f
00000030: 9008 5e3e dcc5 633f 785c 813e d879 693f
00000040: 18dc 2c3e 78be b13d e0d4 c03d ff4b 293f
00000050: d9eb 303f 3007 2f3e 5015 da3e 6a39 533f
00000060: 84aa 9b3e 283b 373f 0061 583c 3092 073e
00000070: 834f 783f ff2e 733f 14c6 dc3e 4066 7e3f
00000080: 4c45 c63e 4c5d a03e b40e 553e b4e9 013f
00000090: 2497 253e 16e4 c93e eb98 293f 89d2 003f
000000a0: 301c e83d 54be 873e a34b 043f e864 4a3e
000000b0: 54ae 173e 943a 333e cdc6 243f f88d 9e3d
000000c0: dc9a 343f 5f47 093f 16a7 ef3e 2ca9 863e
000000d0: a04e 0f3e 4e20 4b3f cc5f 653f 6ccd a53e
000000e0: 0422 1c3e f0e7 8a3d f433 d13e 8968 7e3f
000000f0: f145 573f cfdf 403f 0abc d43e f9cb 703f
00000100: 7805 753f 4cb7 513f f8b3 e83e e898 5c3e
00000110: 107a 5c3d e51d 433f 546a b93e 5043 2f3e
00000120: f8fb bf3d 561a 693f 6416 4e3e 8e5e 923e
00000130: 6f73 643f d852 533e 10d5 eb3d 0edd 8e3e
00000140: 44a4 d93e 78b9 613e a69e 453f 582f 033f
00000150: c94d 033f faf3 163f b508 3d3f 7b4c 543f
00000160: 68de 8a3e 8602 5a3f d878 553f c91c 523f
00000170: 1e5b b03e 5ade df3e 8009 533e 42be 093f
00000180: 6c2c f23e 0004 5d3f 6e0a 063f 48a3 653f
00000190: fb3c 663f caea 4a3f 5013 4a3d 7412 043e
000001a0: 5fae 6e3f 069a 403f 5d66 473f 3841 c83e
000001b0: d5c4 273f 36fc bf3e d7b8 083f a858 003f
000001c0: c499 653e 86ca d23e ce38 143f 38f3 dd3d
000001d0: 643c 3f3e 0e9b 3c3f 243d 423f a019 953e
000001e0: bef3 a23e 6803 253f 68e7 0c3f a220 643f
000001f0: 4062 e53d 061c 2d3f 8c9a 133e 61df 003f
00000200: c1b3 113f f5fc 593f 50a7 383d c87d fb3d
00000210: 3412 0a3e 40b0 143f 0e0a 703f d8ff 2a3f
00000220: fa53 d13e 0080 cc3d 70d0 9e3e 0206 363f
00000230: 60fb c43d 385f 453f fc0f e93e e862 203f
00000240: f28e 2c3f a274 d33e 7e37 c23e 8c5a 013f
00000250: e62d 6f3f 95df 083f 5444 753e ee50 9f3e
00000260: ee99 bb3e fff7 713f e265 b53e c2c9 ef3e
00000270: f907 013f 001d d83c b7c2 533f c13e 433f
00000280: 961e 423f 76b0 0e3f b03f cb3e 207b c13c
00000290: a34c 353f 4f56 3c3f 008d 613e 7888 c43e
000002a0: 16e1 833e f28d 363f 24f2 f33e 5e3c 523f
000002b0: 6ff5 213f 288f eb3d 822a 763f 82f6 283f
000002c0: 001b d33d a4ec 4e3e 4848 c13e 80e6 8b3b
000002d0: 4e69 543f b00d 9d3e f734 553f 39fb 223f
000002e0: 42d2 653f 9ebb 653f a854 f73e f48c 163f
000002f0: 4056 673f b09e b43e 28c5 413f 4c78 483e
00000300: fb77 2b3f 803e a73d 0034 fa3a 141d d53e
00000310: 1d84 523f 9c21 503e 9bff 1f3f 90e3 ad3d
00000320: a0ea ba3e f78c 673f 5c16 533e 88e4 393f
00000330: c0cd 753d 1ed5 423f bcbe 883e c39c 1e3f
00000340: 5822 e43e c4cb dd3e 28b6 233e bd84 0d3f
00000350: 5888 613f f020 3c3d 171b 073f d1f7 133f
00000360: 15a6 783f 40d1 073c 8463 de3e 6ca3 3d3f
00000370: c37a 2d3f c6da c83e a65f 0d3f 1cf2 6b3f
00000380: 8e93 563f e068 b03e 3629 ba3e 4469 823e
00000390: 619c 183f 0877 e83d 08ce b83e 8813 e93d
000003a0: b892 563e ca09 903e 6934 123f a225 a43e
000003b0: c690 ec3e 5895 af3e fac8 c63e c0ec e13e
000003c0: b496 e63e 26a8 ee3e 0fe7 153f 1855 4b3e
000003d0: 82c1 a43e 5220 173f 1855 b13d fe3a 5f3f
000003e0: e8ec 3d3f e072 d23e f1c1 6c3f 04a5 ce3e
000003f0: fe02 ba3e 92eb 6b3f 446b 9a3e 7456 1a3f
0.78328115 0.8422401 0.15227294 0.60162616 0.8964493 0.16960943 0.17507523 0.21228439
0.23898548 0.50759447 0.0755353 0.62879163 0.21682954 0.88973784 0.2526586 0.91201544
0.16880834 0.08678907 0.09415603 0.66131586 0.69109875 0.17092586 0.42594385 0.8250948
0.3040353 0.7157464 0.01320672 0.1323936 0.96996325 0.94993585 0.43119872 0.9937477
0.38724744 0.3132118 0.2080639 0.5074723 0.16170937 0.39431828 0.6624896 0.5032125
0.11333501 0.26512396 0.5167791 0.19765055 0.14812595 0.17502815 0.64365846 0.07741922
0.70548797 0.5362453 0.46807164 0.26300943 0.13994837 0.7934617 0.895993 0.32383287
0.15247351 0.0678252 0.4085995 0.9937826 0.840911 0.75341505 0.41549712 0.9406124
0.9571147 0.81920314 0.45449805 0.21542704 0.053827345 0.7621749 0.36213934 0.17115521
0.09374231 0.9105581 0.20125729 0.28587765 0.8923864 0.20637071 0.11515248 0.27903026
0.42508137 0.22043407 0.77195203 0.51244116 0.51290566 0.5896603 0.7384141 0.829292
0.27122808 0.851601 0.8338752 0.8207517 0.34444517 0.43724328 0.20609093 0.53805935
0.47299516 0.8633423 0.52359664 0.8970227 0.899368 0.7926451 0.049334824 0.12897664
0.9323482 0.7523502 0.7789057 0.39112258 0.65534717 0.3749711 0.53407043 0.5013528
0.22421938 0.41170138 0.5789918 0.10837406 0.18675381 0.73674095 0.75874543 0.29121113
0.31826586 0.6445832 0.550406 0.89112294 0.1120038 0.67620885 0.14414424 0.5034085
0.5691491 0.85151607 0.045081437 0.1227985 0.13483506 0.58081436 0.9376534 0.66796637
0.40884382 0.099853516 0.310184 0.7110292 0.096182585 0.7709842 0.45520008 0.6265092
0.6740562 0.4129992 0.37932962 0.5052879 0.9342941 0.5346616 0.23951846 0.31116432
0.36640877 0.94519037 0.35429293 0.46833616 0.5040279 0.026381016 0.82718986 0.7626763
0.7582792 0.5573801 0.39697027 0.02361828 0.70820063 0.73569196 0.22026443 0.38385367
0.25757664 0.7131034 0.47645676 0.82123363 0.63265127 0.11501914 0.9615861 0.6600114
0.10307884 0.20207459 0.3775046 0.004269421 0.8297318 0.30674505 0.8328394 0.63664585
0.8977395 0.89739406 0.48306775 0.5880883 0.9036598 0.3527732 0.7569146 0.1957714
0.6697995 0.08166218 0.0019088984 0.41623747 0.8223284 0.20325321 0.624994 0.0849067
0.3650713 0.9044947 0.20613998 0.72614336 0.06001067 0.7610644 0.2670802 0.6195795
0.44557452 0.43319523 0.15987456 0.5528067 0.8809867 0.04592985 0.5277571 0.5780001
0.9712842 0.008289635 0.434353 0.74077487 0.67765445 0.3922941 0.5522407 0.92166305
0.838189 0.34455013 0.36359566 0.25470936 0.59613615 0.113508284 0.3609469 0.113806784
0.20954406 0.28132468 0.5711122 0.32059962 0.46204203 0.34293628 0.38825208 0.44125938
0.45036852 0.46612662 0.5855569 0.1985668 0.32178885 0.5903369 0.086588085 0.8719939
0.74189615 0.41103268 0.9248343 0.40360272 0.36330408 0.92156327 0.30159962 0.60288167

fc1.bias f4 [64]
00000000: 6483 5f3e ec2a aa3e e849 aa3e 248e fc3e
00000010: fc10 b63e 098f 223f 5c49 203e e8c6 983e
00000020: 4055 643e 20be 693f 7cfb 133f 5c88 f13e
00000030: 5511 123f 1e2e 803e 77e3 193f 87b4 3f3f
00000040: 86ee 6b3f 14de 473e 39ef 193f cbb5 793f
00000050: 3c39 173e 0b80 153f c09f 2c3f e530 7a3f
00000060: 0c36 873e 3ec8 0a3f bae9 613f 8829 ff3e
00000070: c0dd e33d 3084 903d 6f4e 623f fbc7 173f
00000080: 64cc bb3e ecfb 0d3f dc2e a03e 95b6 003f
00000090: 9866 aa3e e0e3 bd3c dcc5 e03e d0b3 4a3f
000000a0: 3477 4c3e c0b0 0b3c 947f f43e 64d8 de3e
000000b0: 0ea6 453f 22d1 473f d446 883e f42d eb3e
000000c0: b2c6 f93e 5027 293f 2c36 133f 9cd6 763f
000000d0: 57c7 1d3f c05f 123e 0976 623f 1a71 a83e
000000e0: d5b3 643f 68c9 a13e 883c 643f 9b3e 1c3f
000000f0: 2cc3 b73e f33f 2c3f 6ae7 aa3e 98ba d33d
0.21827465 0.33235872 0.3325951 0.49327195 0.35559833 0.63499504 0.15652984 0.29839253
0.22298145 0.9130573 0.5780561 0.47174346 0.57057697 0.25035185 0.6011271 0.7488484
0.9216083 0.1951831 0.6013065 0.9754302 0.14767927 0.58398503 0.6743126 0.9773086
0.26408422 0.54211795 0.88247263 0.49836373 0.1112628 0.07056463 0.8840093 0.5928952
0.36679375 0.5546253 0.3128575 0.502786 0.33281398 0.023179948 0.43900955 0.7918062
0.19967347 0.008526027 0.47753584 0.43524468 0.77206504 0.78053486 0.26616538 0.45933497
0.48784405 0.6607561 0.57504535 0.9642122 0.61632293 0.14294338 0.8846136 0.3289879
0.893369 0.31598973 0.89154863 0.6103303 0.35891092 0.6728508 0.3337968 0.10338324

fc2.weight f4 [64, 10]
00000000: 340b 323f 5386 733f 00f9 d03d cea7 ab3e
00000010: e070 e63d f842 fd3e 69ec 753f 402c bd3e
00000020: 3764 443f 90ab f63e 1e34 193f 00fe c13e
00000030: 3742 353f e80a a23e 2944 0b3f 087f 753f
00000040: 541a 183e 1df1 713f 5eed 6f3f e9ba 763f
00000050: 20f1 9a3e ceca d23e 9721 433f 24c2 0b3e
00000060: a2d0 b83e 3321 5e3f 68e0 363f 2416 3d3e
00000070: 43af 043f be83 033f fafd fd3e 94ab 393f
00000080: e9ed 043f e053 2f3f a8f0 b93d c800 0a3e
00000090: 6914 263f 0030 7c3c ca47 bb3e fe5c ac3e
000000a0: 48b6 7a3f 16a9 683f 46bf 823e e80d da3d
000000b0: 4b6f 793f 30dd 7b3d 3441 7f3e ebbe 583f
000000c0: f88a f63e eecf b33e ac7c c43e 5c4a c23e
000000d0: 7e85 be3e bb37 183f 582f fc3d 1f6a 6d3f
000000e0: 0a48 a63e e093 f93c 26d9 c73e 63d3 2a3f
000000f0: 1d48 1d3f 7d8e 523f cd88 233f 4610 473f
00000100: 75d6 353f e9ba 243f 59a3 153f 56c7 263f
00000110: 920b 823e c484 153f a010 7f3f 2a75 5d3f
00000120: dffd 383f db60 5e3f dc70 303e 2647 e33e
00000130: b4cb 753f 4af3 ec3e 2c5a 3a3f 0cde af3e
00000140: c69b eb3e 5661 f63e a49d e03e 0677 433f
00000150: 51d7 103f f080 343e f476 353e 6652 423f
00000160: 4ca6 b03e a497 443e a4a5 e33e 7a4b d03e
00000170: 549f 8e3e fab0 e93e 1d3d 383f fe5f b83e
00000180: f62d 313f 5154 313f 1c30 323f 4976 1f3f
00000190: e53f 063f b02e 113e 7d2e 103f 206f b83c
000001a0: 9651 843e e09d a13d 1875 173e 80a0 2e3f
000001b0: 7f2d 7b3f d880 3e3f b4a3 323f 642a 743e
000001c0: 7b0d 523f 0746 083f 5c01 183f 780c af3e
000001d0: 690a 213f 74da 0e3f 200f ae3d bbe4 553f
000001e0: 8c3d 0a3e 60c2 b83c 06aa 503f f2ca 073f
000001f0: 6036 b13d d6d7 503f ee95 963e 4f30 783f
00000200: f26a 653f 6d11 0b3f 04f1 863e 0480 473e
00000210: 0013 1e3e 2738 003f 9561 153f cd0f 493f
00000220: e8be a43d 34f0 ec3e 6c1b 0c3e e0e5 0f3e
00000230: 66c1 3d3f 4c43 d63e f179 5c3f 58b8 7e3f
00000240: 5c81 a03e 6001 673d 90ac 743f f09c 2e3f
00000250: 2081 a33e da56 963e 6d65 5a3f 514a 1c3f
00000260: 05e1 073f 3ed9 603f 7881 7b3e f35a 303f
00000270: 1839 1d3f a4ca 293f e01a 3b3e 2a2b 3a3f
00000280: 5369 633f d0a1 263e c4ef 383e 2095 0a3f
00000290: 4e39 7e3f e9e1 423f e90f 643f 4a87 fb3e
000002a0: 50c5 033d 0c4e b63e 0c97 303e be54 423f
000002b0: 9324 183f 8994 0a3f 2d83 383f f2d2 e53e
000002c0: 8cb9 0e3f a44f 353e 92d5 593f fc5a 4b3e
000002d0: 3bb1 4a3f 5640 953e d890 913d 115c 6c3f
000002e0: d169 233f 5025 ab3e 2216 943e d847 ae3e
000002f0: fee4 153f 56e1 fd3e 2069 693d 041a 663e
00000300: da9a b03e ac01 163f eca9 753e d33f 513f
00000310: 0dfb 603f fcc8 a13e b0c1 7a3e 51cb 0e3f
00000320: 78b8 683f 0125 523f 9ad8 e93e 5251 3f3f
00000330: 50a5 753f 4055 f53c b005 8e3d fc63 083e
00000340: e489 3a3e f06a bf3e 7003 d63e 298b 563f
00000350: ab56 3d3f 3c8e ea3e eee7 573f c8d3 563e
00000360: 1125 7e3f c5f5 173f 6e50 733f 2046 973c
00000370: 2a49 753f b0ae 673d 0799 173f 5efa c93e
00000380: 9dce 713f f872 683e ec05 e93e 918b 4c3f
00000390: 904a 323f a86c 7e3e 5574 6d3f 974a 483f
000003a0: 2030 f73d 8b7a 583f 00ee c43a c525 553f
000003b0: 1225 bd3e 7081 e93d d834 853e 78b6 463e
000003c0: 5911 6d3f 649d b53e 2e11 e23e ab14 6a3f
000003d0: 41ca 153f 08f4 0f3f c9f9 1b3f 0cf8 063e
000003e0: 18b6 f73d 10a7 623f c40b 1d3e 803c 513e
000003f0: 000b 513d b312 653f aedd 133f 28ee 0e3f
0.69548345 0.9512684 0.10203743 0.33526462 0.11251998 0.49465156 0.9606386 0.36947823
0.76715416 0.48177767 0.5984515 0.378891 0.7080416 0.31648946 0.5440088 0.9589696
0.14853793 0.94508535 0.9372157 0.9637895 0.3026209 0.41170353 0.7622313 0.13648278
0.36096674 0.8676941 0.71436167 0.18465477 0.5182993 0.513729 0.4960783 0.7252743
0.5192552 0.6848736 0.09079105 0.1347686 0.64874893 0.0153923035 0.36578208 0.33664697
0.9793439 0.90883005 0.25536555 0.10647184 0.97435445 0.061490238 0.24927217 0.8466632
0.481529 0.35119575 0.38376367 0.37947357 0.3721122 0.5946004 0.123137176 0.9274005
0.32476836 0.03046602 0.3903286 0.667288 0.6143816 0.8224867 0.63880616 0.77759206
0.7103036 0.643477 0.58452374 0.6514791 0.25399452 0.5840571 0.9963474 0.86506903
0.72262377 0.8686654 0.17230552 0.4439022 0.9601395 0.46279365 0.7279384 0.34349096
0.46017283 0.48121136 0.4387027 0.7635349 0.56578547 0.17627311 0.17721158 0.7590698
0.34501874 0.19198471 0.4446231 0.40682584 0.27855933 0.45642835 0.7196825 0.36010736
0.69210756 0.6926928 0.6960466 0.62289864 0.52441245 0.14177966 0.56320935 0.022513926
0.25843495 0.078914404 0.14790761 0.68213654 0.98116297 0.7441535 0.6978104 0.23844296
0.8205182 0.53231853 0.59377074 0.341892 0.6290651 0.55802083 0.084989786 0.8355214
0.13500041 0.022553623 0.81509435 0.53044045 0.08652949 0.8157934 0.29411262 0.96948713
0.8961631 0.54323465 0.26355755 0.19482428 0.15436935 0.5008568 0.58352023 0.78539735
0.08044225 0.4627701 0.13682336 0.14052534 0.7412323 0.41848218 0.8612357 0.99500036
0.31348693 0.056397796 0.9557581 0.6820822 0.31934452 0.29363137 0.85311013 0.610509
0.5307773 0.87831485 0.24561107 0.6888878 0.61415243 0.6632483 0.18271971 0.72722113
0.88832587 0.16272664 0.18060213 0.54133797 0.9930619 0.7612596 0.89086777 0.49126655
0.032170594 0.3560642 0.1724512 0.75910556 0.5943081 0.54132897 0.7207516 0.448875
0.5575187 0.17706162 0.8509151 0.19858927 0.7917668 0.29150647 0.07107705 0.9232798
0.6383334 0.33426905 0.28923136 0.34039187 0.5855254 0.4958598 0.05698502 0.22470862
0.34493142 0.585963 0.23990601 0.81738013 0.87883073 0.3159865 0.24487948 0.55778986
0.90906477 0.82087713 0.45673066 0.7473346 0.9595537 0.029947877 0.069346786 0.13319391
0.18216664 0.37386274 0.41799498 0.8380609 0.7396037 0.4581164 0.8433827 0.20979226
0.9927531 0.5935939 0.950446 0.018466055 0.95814764 0.05656308 0.59217876 0.39448828
0.9445589 0.22700107 0.4551233 0.7990046 0.69645023 0.24846137 0.92755634 0.78238815
0.12069726 0.84561986 0.0015024543 0.83260757 0.36942345 0.11401641 0.2601688 0.19405544
0.92604595 0.35471642 0.44153732 0.91437787 0.5851174 0.5623174 0.60928017 0.1318056
0.120952785 0.8853617 0.1533652 0.20433235 0.05103588 0.8948166 0.5776013 0.5583215

fc2.bias f4 [10]
00000000: 162a 3c3f 4d92 7b3f 884e 7c3e efb9 743f
00000010: b6bf e33e 211d 0e3f b603 273f 230f 243f
00000020: f16a 103f 57c6 1e3f
0.7350172 0.9827011 0.24639332 0.9559621 0.444822 0.555132 0.6524004 0.64085597
0.5641318 0.6202139
