parameters/MNIST/original-model.pth (torch, 129614 bytes, 5 tensors)

conv1.weight f4 [1, 1, 7, 7]
000000 6e f8 05 3c b3 fe c5 bd fc 6c e2 3d 2e 50 0e 3d
       0.008176906 -0.09667721 0.11055943 0.034744434
000010 80 dc 04 be b7 e6 05 bd d5 6a a0 bd de 02 a6 3d
       -0.12974739 -0.03269073 -0.078328766 0.081060156
000020 17 83 ac bd ea 45 b7 bd ec 62 eb 3d 02 09 10 3e
       -0.08423441 -0.08948882 0.11493477 0.14065936
000030 dc 78 40 bc e7 f3 8c 3d 6e 0a 4d bc 2a 42 09 bd
       -0.011747565 0.06882458 -0.012514694 -0.033510365
000040 11 69 ab 3d 8a 67 a9 bd 4a 4f c2 3b 88 f3 0f be
       0.08369649 -0.08271702 0.005929862 -0.14057744
000050 d3 0b 80 bc f0 c0 06 be 9a 50 a4 3d e0 fb 9b 3d
       -0.015630638 -0.13159537 0.08023186 0.07616401
000060 8e d0 b3 3d c1 3e e3 3d c1 27 d5 3d 17 d1 11 bd
       0.08780013 0.11095954 0.10407973 -0.035599794
000070 e7 19 97 3d 26 6d 11 3e 45 9a 67 3d 83 76 ed bd
       0.07377987 0.14201793 0.056543607 -0.1159487
000080 4c b3 fe bd a5 7e 86 3d 85 c5 37 bd 65 fd d2 bc
       -0.12436542 0.06567124 -0.044866104 -0.025755594
000090 61 96 7d bd f1 9c fa 3d 8a 4b da 3d a5 a9 21 3d
       -0.06191099 0.122369654 0.10658939 0.039468426
0000a0 b7 01 d3 ba 6c d9 80 bd 75 df df bd 9c f0 58 bd
       -0.0016098534 -0.0629147 -0.10931293 -0.052963838
0000b0 2e e0 7b 3d 8a c9 90 3d 61 6c 3a bd c5 b3 95 bd
       0.06149309 0.070696905 -0.045513514 -0.07309679
0000c0 c8 fc 09 be
       -0.13475335

fc1.weight f4 [64, 484]
000000 3a 16 16 bc ca 54 20 bd ba e0 0e ba a3 a6 4c 3c
       -0.009160573 -0.03914336 -0.0005450357 0.012490901
000010 49 13 d2 3c d2 68 25 bb 98 8f 1c bd fd 4e 8c 3c
       0.025643962 -0.002523948 -0.03822288 0.017127508
000020 18 9e 18 bb a3 6c aa 3b 73 7a 11 3d 26 5a 89 3c
       -0.002328759 0.005200939 0.035517167 0.016766619
000030 12 f4 b0 3c a3 fd 4d 3b 8c 87 e6 bc bb 1d 69 bc
       0.021600757 0.0031431697 -0.028140806 -0.01422828
000040 69 e2 de bb c3 22 fc bc 8c d3 33 bd a3 d5 1c bc
       -0.0068018925 -0.030778294 -0.04390292 -0.009572419
000050 b2 08 8d bc 2f 82 32 ba 46 fa 18 bd f0 da 26 3d
       -0.01721606 -0.000680956 -0.037348054 0.04073614
000060 75 b9 ec b9 42 6b 15 bd 3d 7d 16 3d 0c 4f 88 3b
       -0.00045151604 -0.036479242 0.03674053 0.0041598137
000070 dd c6 36 bd 0f cc c1 bc 66 56 fe 3c fd 80 19 bd
       -0.044623245 -0.023656873 0.031047057 -0.03747653
000080 29 fc 1d bc 23 f2 0d bd 72 9a 93 3c 26 40 2c bd
       -0.009642639 -0.034654748 0.018017981 -0.042053364
000090 06 d4 f3 bc d2 45 a9 39 46 ac d1 bc 06 80 eb bc
       -0.029764187 0.00032286212 -0.025594842 -0.02874757
0000a0 d8 71 d0 3c 0f 3f 24 3d 2f f9 3c 3c e0 6f 83 3c
       0.02544491 0.0400992 0.011534019 0.016044557
0000b0 a0 58 a6 3c 4d 4f 35 3d ef 56 2e 3c 13 91 15 bd
       0.020305932 0.04426508 0.010640844 -0.036515307
0000c0 58 19 bc 3c 0c f5 fd bb 26 a3 30 bd 4c fc f5 bc
       0.022961304 -0.007750159 -0.04312434 -0.030027531
0000d0 e5 fc 0c bd 0d d9 0b 3d d2 f7 22 3b c0 f7 48 bc
       -0.034420867 0.034142543 0.002486695 -0.012266099
0000e0 75 be 41 bb 60 7c b9 3c 0c ea 12 bd 52 da 47 3c
       -0.0029562984 0.022642314 -0.035867736 0.012198048
0000f0 68 da 38 3d d2 82 7a bb f8 ed cf 3c 23 aa 19 bc
       0.045130163 -0.0038224948 0.025382027 -0.009378943
000100 de 8b e7 bb 29 f5 20 3d 23 56 b8 bc 00 cb 4c 3b
       -0.007066234 0.039296303 -0.02250201 0.0031248927
000110 d8 4c 0d 3d 6f f3 29 3c 12 89 36 bd d3 57 11 bd
       0.034497112 0.0103729805 -0.044564314 -0.035484146
000120 b6 f6 07 bd 80 c0 5a bc 0d ce 00 bd e3 32 07 3d
       -0.033194266 -0.01335156 -0.031446505 0.033007514
000130 c6 b4 f4 bb a3 2a 1c 3c c0 a6 db bc 29 01 f3 bc
       -0.007467839 0.00953165 -0.026812911 -0.02966364
000140 f2 98 c9 bc fa 0a 98 bc e9 ed 6d 3b 5f b3 0a bd
       -0.024609063 -0.018559922 0.0036305136 -0.033862468
000150 06 b1 b1 3c 5c 00 27 bd 96 bd 20 bd 06 c4 19 3c
       0.021690857 -0.040771827 -0.039243303 0.009385115
000160 75 a8 c8 bb af 29 ef bc 86 ac 9c bc 33 ca 07 3d
       -0.0061235973 -0.029194681 -0.019125234 0.033151817
000170 a6 42 c5 bc 53 38 30 3d 5d 99 9d bb aa f0 20 bd
       -0.024079632 0.043022465 -0.004809542 -0.039292015
000180 bb 3c 3f bc 1b af ba 3c 46 c3 90 bb f9 1b 0c bd
       -0.011672194 0.022788575 -0.0044178097 -0.034206364
000190 7b e4 37 3d 9d ff 31 3c af 12 fa 3b 00 93 7c 3c
       0.04489563 0.010864166 0.007631622 0.015415907
0001a0 18 e2 8a bb f5 75 fc bc af 43 6c bc a9 fc e5 3c
       -0.0042383783 -0.030817965 -0.014420434 0.02807458
0001b0 ef 6d 1f bd 38 7d a1 3c 90 74 1f 3d 63 a6 6a bc
       -0.0389232 0.01971303 0.038929522 -0.014321896
0001c0 2c 80 8b 3c 75 69 fe b9 da d7 8b 3c c0 af 21 bd
       0.01702889 -0.00048525227 0.0170707 -0.03947425
0001d0 d0 21 15 3d 15 28 81 3c f8 5a fc bc 46 57 bf 3c
       0.0364092 0.015766183 -0.030805096 0.023357045
0001e0 ba 8d 92 3c f0 17 30 bd e9 24 35 3d 0f bd c8 3c
       0.017889846 -0.04299158 0.044224653 0.024504213
0001f0 29 6a a1 3c 63 a5 2e bc d5 27 11 3d f3 1f 15 bd
       0.019703941 -0.010659548 0.035438377 -0.036407422
000200 52 35 27 3d 43 8e fa 3c 56 c7 27 3d a9 b5 39 bc
       0.040822335 0.030585414 0.040961586 -0.011334815
000210 3d d5 a5 bc 0c 0f e1 3c 0f 4a 9f 3c c6 89 a7 bb
       -0.020243281 0.027472995 0.019444494 -0.0051128594
000220 cf ac 22 bd bb 08 ec b8 52 c5 59 3c 86 49 22 3d
       -0.039715584 -0.00011254983 0.013291674 0.0396209
000230 0c fb 3a 3c 12 a8 8d bc d5 0a c4 3c 0c e9 1f bd
       0.011412393 -0.017292056 0.023930946 -0.03904061
000240 50 68 2a 3d 00 df d7 bc eb 49 25 3d 38 85 07 3d
       0.041603386 -0.026351452 0.040353697 0.03308603
000250 06 12 58 bc af 0b 6a bc 9b f7 d2 3c 23 e0 fe 3c
       -0.013187891 -0.014285012 0.025752833 0.031112736
000260 1d 7b 01 bd 18 5e 17 3c 92 9f 13 3d 06 0d f6 bc
       -0.03161155 0.009238742 0.03604085 -0.030035507
000270 f8 fa f1 bc 09 45 d6 bc 78 62 c2 bc 5d fc 34 3a
       -0.029538617 -0.026155965 -0.023728594 0.000690406
000280 23 0e 1e bd 4c d4 3f 3c 80 e2 d2 bc cc 1f 11 3d
       -0.0385877 0.01170833 -0.02574277 0.035430714
000290 af 33 b8 bc 69 6b 19 3d c0 a5 f6 bc 5f dd 19 bd
       -0.022485582 0.03745595 -0.030108333 -0.03756463
0002a0 1d 1f 17 bd cc 45 70 3c 03 51 8e 3c 0c 12 f5 bc
       -0.036894906 0.014665078 0.017372614 -0.029915832
0002b0 46 9b dc bb 63 1b f2 3c b5 f0 91 bc 18 ac a0 3c
       -0.006732377 0.029554075 -0.017814973 0.01961331
0002c0 9d 43 35 bd 1d e2 08 bd 4b ff 2e 3d 2d 8a 27 3d
       -0.044253934 -0.033418763 0.042723935 0.04090326
0002d0 e9 f3 cc bb 8c da 37 3d 98 f0 27 bc 35 1b 8b bc
       -0.0062546623 0.044886157 -0.010250233 -0.016980747
0002e0 ac 69 d9 bc e9 12 32 3a 2c ef fb bc 7a 68 1d bc
       -0.026539646 0.0006792979 -0.030753694 -0.009607429
0002f0 58 05 72 3c d2 1d 99 39 e0 fa 0f bd 29 eb ae bc
       0.014771782 0.00029204652 -0.035151362 -0.021352367
000300 18 ef c7 3a fb 2a e1 bc 6d 06 03 bd f2 03 f2 bc
       0.0015253751 -0.027486315 -0.03198855 -0.029542897
000310 06 f9 55 3c 8d 5a 1d bd 52 08 99 3c 5e f1 57 3b
       0.01305986 -0.038416434 0.018680725 0.0032950263
000320 2f 39 3e bb 4c 7e b0 bc f5 11 06 bd 86 8c da 3c
       -0.0029025783 -0.021544598 -0.03273197 0.026678335
000330 12 74 13 3d 4c 32 83 bc ff 67 01 bd 1a ed 20 bd
       0.035999365 -0.016015194 -0.03159332 -0.039288618
000340 0c 23 08 bc df dd 37 3d be e2 fd 3c a0 b9 bc 3c
       -0.008309137 0.044889327 0.030991908 0.023037732
000350 f5 b9 fb bb 6b 11 24 3d 80 36 2a 3d 23 b8 ed 3c
       -0.00768208 0.040055674 0.04155588 0.029018467
000360 d2 8b 87 bb e3 ed d3 bc 73 23 26 bd b2 3f c3 3c
       -0.004136541 -0.02587027 -0.04056115 0.023834083
000370 52 56 4d bc 52 e6 f4 bc 8d 46 17 bd 7d e0 18 3d
       -0.012532787 -0.029894982 -0.036932517 0.037323464
000380 5b 7b de bc 78 76 9f bc 45 1c 12 3d 7b ac da bc
       -0.02715843 -0.01946567 0.03567149 -0.026693573
000390 a0 4d 0f bd ec 8f a4 bc 00 2d df bb 4c 33 d0 bc
       -0.03498614 -0.020088159 -0.0068107843 -0.025415085
0003a0 b5 87 ca 3c 8c 3e 94 3a 75 c7 99 3a 80 8b 05 3c
       0.024722913 0.0011310144 0.0011732416 0.008150935
0003b0 b2 8d b1 3c 95 3b f5 3c 69 5f aa bc 66 ec 02 3d
       0.02167401 0.029935637 -0.020797448 0.03196373
0003c0 5e a5 f8 3c 60 df ee 3c 1e b1 67 bc 52 f2 ba bb
       0.03035229 0.029159248 -0.014141349 -0.0057051564
0003d0 d2 e1 da bc 2f c0 62 3b d2 e3 20 bb a3 4b 07 3d
       -0.026719008 0.0034599414 -0.0024549854 0.033031117
0003e0 a3 95 0c 3b 3a d6 13 3d ca b5 14 3d d8 f0 d9 3c
       0.0021451495 0.036092974 0.03630618 0.026604101
0003f0 b3 cf 27 bd d6 27 0a bd a2 fd 20 3d 9d ee bb 3c
       -0.04096956 -0.033729397 0.039304383 0.022940928

fc1.bias f4 [64]
000000 26 f2 f2 3c 7d c8 a8 3c b6 a4 09 3d 12 a7 32 3d
       0.029656481 0.020603413 0.033604346 0.043616362
000010 72 ad 81 bc be c3 f6 bc 5e a4 e2 ba 93 7f 10 3d
       -0.015829775 -0.030122634 -0.0017291417 0.035277914
000020 12 f8 28 3d c3 42 ff bc 69 ab 11 bd 86 9e aa bc
       0.041252203 -0.031159764 -0.03556386 -0.020827543
000030 d2 75 75 3a 96 5f 38 3d af 2a 1e 3d c3 52 d3 bc
       0.0009363565 0.045013033 0.038614925 -0.0257963
000040 80 fb 87 bc 80 9e 9f 3b 86 56 48 bc 8c 82 1b bd
       -0.016599417 0.0048711896 -0.01222766 -0.037966296
000050 8c 3e f5 3a 7d 3c 2b bd ab e2 2e 3d 8a 02 02 3d
       0.0018710657 -0.041805733 0.042696636 0.031740703
000060 6c 2f f5 bc 58 03 30 3c e9 ca f4 bb 8f bd 32 bd
       -0.02992984 0.010742985 -0.007470478 -0.04363781
000070 5d cc a4 bc fd 9f c2 3c d2 95 62 3a c0 6b 96 3c
       -0.02011698 0.023757929 0.0008643541 0.018361926
000080 58 4d 20 bd 46 50 0b bd 9e 27 6a bc c6 48 0a bc
       -0.03913626 -0.0340121 -0.014291672 -0.008440202
000090 c0 9b c7 bc 00 bc ec ba 18 f8 da 3b 15 8c b3 3c
       -0.02436626 -0.00180614 0.006682407 0.021917382
0000a0 d2 e5 17 bd 12 00 3f bc 72 d3 39 3d d2 0a a4 3b
       -0.037084408 -0.011657732 0.045367666 0.0050061727
0000b0 16 5f 09 bd 86 ed 0e 3d 00 15 b8 bb 43 30 92 bc
       -0.033537947 0.03489449 -0.005617738 -0.017845279
0000c0 76 e6 21 3d 7e dc ec 3c e3 b9 a3 3c 49 89 ea bc
       0.039526425 0.028913733 0.019986099 -0.028629916
0000d0 c3 70 a2 3c 89 7f ae 3c c0 30 fb 3c 52 65 f7 bb
       0.01982916 0.021301048 0.030662894 -0.00754992
0000e0 fb e3 ab 3c 92 10 95 bc 75 3f 1b 3c d2 27 37 bc
       0.020982733 -0.018196378 0.009475579 -0.0111789275
0000f0 55 43 15 3d 95 4f d4 bc 43 d1 e3 bc 0f c8 e0 bc
       0.036441166 -0.025916854 -0.027809745 -0.027439145

fc2.weight f4 [10, 64]
000000 60 cc aa 3b 1c b3 f4 3d 28 12 90 3d f6 37 ab bd
       0.0052123517 0.11948225 0.07034713 -0.08360283
000010 0a b9 c0 3d f2 cb b1 bd b0 80 b5 bd d4 5e ba bd
       0.094102934 -0.086814776 -0.08862436 -0.09100118
000020 80 ee 66 3d a8 46 b4 bd bc e6 d3 3d 4c f6 52 3d
       0.056379795 -0.08802539 0.103467435 0.05150442
000030 bc 12 c5 bd 3a 93 fc bd 4a 71 c7 bd 18 92 9e bd
       -0.09622714 -0.12332769 -0.09738405 -0.07742709
000040 a8 93 cf 3d 58 9c cc bd 48 3c af 3d ec 35 d2 bd
       0.10135585 -0.09990758 0.085564196 -0.10264191
000050 6e 50 f2 bd f2 96 bc 3d f0 2f 72 3d 6c 47 6c 3d
       -0.11831747 0.09208478 0.059127748 0.0576853
000060 cc 0a 63 3d 70 f6 fc 3c 88 9a 5d 3d 90 f8 0f 3d
       0.05543022 0.03087923 0.05410245 0.035149157
000070 f0 a0 d7 3d 46 17 e6 bd b8 2c 3b bd 30 28 5a 3c
       0.10528743 -0.11234908 -0.045696944 0.0133152455
000080 14 21 97 3d 30 18 ff bd 60 a3 23 3c a0 91 64 3d
       0.07379356 -0.12455785 0.009987682 0.05580294
000090 60 f6 ed 3c 00 d9 75 3b 98 93 f1 3c c4 1a 5f bd
       0.029048145 0.0037513375 0.029489323 -0.054468885
0000a0 80 a4 26 3c b8 04 eb bd 1c 1e 9e bd 4c d8 07 bd
       0.010171056 -0.114755094 -0.07720587 -0.03316526
0000b0 92 1e e1 3d 4a ad cd bd e0 63 a8 bd 08 6c 7c 3d
       0.10992159 -0.10042818 -0.08222175 0.061626464
0000c0 24 b2 4c bd f4 46 89 3d e0 b3 f5 bb 10 c2 ce 3c
       -0.049974576 0.06702986 -0.0074982494 0.02523902
0000d0 b4 13 0f bd 68 80 d9 bd c8 b5 bc bd e6 5a 92 bd
       -0.0349309 -0.10620195 -0.092143595 -0.07146244
0000e0 1e a7 a6 3d 48 bd 8a bd 76 a3 ca bd 60 78 82 bd
       0.08137344 -0.06774384 -0.09894459 -0.06370616
0000f0 c0 9d f1 3c 98 2c 56 bd 60 57 1b 3d 84 39 59 3d
       0.029494166 -0.05228862 0.037925124 0.053033367
000100 00 d3 64 ba cc 27 f7 bd d8 76 2e bd 50 8e e8 bc
       -0.0008728951 -0.120681375 -0.042593807 -0.028388172
000110 c4 77 28 bd ac de 55 3d 80 1b 8d bb 80 e6 5c bd
       -0.041129842 0.05221431 -0.004306257 -0.05393076
000120 52 c1 8b bd a8 b7 86 bd 58 21 ec 3c 70 33 40 3d
       -0.06823982 -0.065779984 0.028824493 0.046924055
000130 50 ee 39 3c 8c 61 4d bd 10 b7 9e 3c ce 0c e0 bd
       0.011348322 -0.050141856 0.0193744 -0.10939942
000140 78 41 83 bd 38 25 00 3d 88 26 52 3d e4 31 0f bd
       -0.064089715 0.031285495 0.051306278 -0.03495969
000150 12 7c dc bd 48 2a e4 3c 4a 2d ed 3d d4 f1 5b 3d
       -0.10765852 0.027852193 0.11580904 0.053697422
000160 52 9a f5 bd cc 97 9c 3d 6c b2 35 bd 30 73 3e bd
       -0.11992325 0.076461405 -0.04435961 -0.04649657
000170 10 a3 a2 3d b0 40 54 bc b8 eb 90 bc 56 c7 a5 3d
       0.07941258 -0.012954876 -0.017690524 0.08094661
000180 a0 e8 c2 bc e0 76 77 3d 48 bc 12 bd fa 31 fc bd
       -0.023792565 0.060416102 -0.03582409 -0.1231422
000190 8e 40 be bd f4 9b 7e bd a8 e0 9a bd e8 d5 cd 3c
       -0.092896566 -0.062160447 -0.07562381 0.025126413
0001a0 9e 10 e0 3d 16 10 fe bd de 39 9e 3d 62 f2 86 3d
       0.109406695 -0.12405412 0.07725881 0.065891996
0001b0 38 48 be bc d2 49 85 3d 08 f3 97 3c fe 18 c3 bd
       -0.023227796 0.06508221 0.018548504 -0.09526251
0001c0 80 5c 04 bb 66 8b f0 bd a8 0b ac bd 42 aa f2 bd
       -0.0020196736 -0.11745338 -0.08400661 -0.1184888
0001d0 0c 3a c7 3d 88 44 84 3c ae 02 a3 bd 38 a6 c1 3c
       0.097278684 0.01614596 -0.079594955 0.02363883
0001e0 f4 80 55 3d 2c 7c 65 bd 74 ab 51 3d c8 67 dd bd
       0.052124932 -0.056026623 0.0511889 -0.1081081
0001f0 d2 77 d9 3d fa 05 fd bd b6 aa cb bd a8 ac 8e 3c
       0.10618557 -0.123546556 -0.0994467 0.017416313
000200 2c 5b ab bd ec 13 4d 3d 60 ce 27 3d ac 9a b3 bd
       -0.08366999 0.050067827 0.0409683 -0.08769736
000210 de 3c f9 3d 78 c8 fc bd 7a 5f 8c bd bc 3f 93 bd
       0.121698126 -0.12342924 -0.06854148 -0.07189891
000220 9c 5d ff 3d f0 da 7f 3c 6a cb f1 3d 44 16 2c bd
       0.124690264 0.015616164 0.11806376 -0.04201342
000230 ec 12 cb 3d f8 51 b5 3c 20 4e d2 bd 30 e2 e0 bc
       0.099157184 0.022133812 -0.102688074 -0.027451605
000240 00 cb 8f ba 00 09 03 ba 6c 9a 99 bd 9c b5 a2 bd
       -0.0010970533 -0.00049985945 -0.07500157 -0.079447955
000250 80 3c e5 bb 10 6e 08 bd 60 d8 ef bb 4c 31 1f bd
       -0.0069957376 -0.03330809 -0.007319495 -0.038865373
000260 e8 4d 3c 3d fc 21 ca 3d 34 2d 66 3d 9c 13 e1 bd
       0.045972735 0.09869763 0.056195453 -0.10990068
000270 ea 8a ad bd 62 d2 c0 bd b8 13 88 3c 50 85 ea bd
       -0.084737614 -0.09415127 0.016610965 -0.114512086
000280 90 95 5f bc 48 af 3e bd a0 e2 48 bd 78 4b d4 bd
       -0.013646498 -0.04655388 -0.04904425 -0.10365957
000290 94 46 4e 3d f8 05 e1 3c 24 1f 58 3d 1e 05 fe bd
       0.050360277 0.027468666 0.052764073 -0.1240332
0002a0 50 74 d3 3d 80 12 4a 3c ce d6 d1 bd 38 07 00 bd
       0.10324919 0.012333512 -0.10246049 -0.031256884
0002b0 84 4d fb bd 1c a2 65 bd 8c 8c 35 bd 3c 11 9f 3d
       -0.12270644 -0.056062803 -0.04432349 0.07766959
0002c0 ec ac 82 3d 34 f5 d6 3d 32 ad e9 3d 54 32 5c bd
       0.063806385 0.104959875 0.114099875 -0.053758934
0002d0 80 c4 5d 3b 7c cf 89 bd 28 d7 e6 3d 60 98 c1 3c
       0.0033839047 -0.06729028 0.112715065 0.023632228
0002e0 c4 95 4c 3d d2 23 a2 3d 68 fb d7 bc e8 aa 0e bd
       0.049947515 0.079169884 -0.026364997 -0.034830958
0002f0 dc 56 35 3d ec 0f 3a bd 46 e3 98 bd 48 73 26 3d
       0.04427229 -0.04542534 -0.07465224 0.040637285
000300 7c 8b 9f 3d 54 a3 89 3d ec da 04 bd 40 96 85 3c
       0.077902764 0.067206055 -0.032435343 0.016306996
000310 78 48 6a 3d 00 50 72 3b 8c 2a 7e bd 00 ae cd 3c
       0.057198018 0.0036973953 -0.062052295 0.025107384
000320 28 52 ec 3d 30 b7 79 3c aa e1 94 3d 66 34 a2 bd
       0.115391076 0.015241429 0.072696045 -0.079201505
000330 78 a9 8b 3c 06 80 bc 3d 06 f0 f2 bd d8 07 ea bc
       0.017048582 0.09204106 -0.11862187 -0.028568193
000340 90 0c ac 3d 08 b5 af 3d 3c 61 87 3d 5c db 42 bd
       0.084008336 0.08579451 0.06610343 -0.04757248
000350 28 a4 e5 bd 4c dc ac 3d 88 46 4e 3d 20 a8 97 3d
       -0.11212951 0.08440456 0.050360233 0.07405114
000360 a6 3b a0 3d 48 78 8c bc 48 66 cc bc f2 06 e7 3d
       0.07823877 -0.017147198 -0.024951115 0.112806216
000370 c0 26 c6 3c 58 e5 a0 3c b4 85 76 bd 6a d5 81 bd
       0.0241884 0.01964061 -0.060186103 -0.063395336
000380 cc 4e 5d bd ee 7f a5 bd 04 60 7c bd 00 40 35 b7
       -0.054030225 -0.08081041 -0.061615005 -1.0803342e-05
000390 70 fa ef 3d 20 15 f8 bd 2e 24 a5 3d 78 ce 60 3d
       0.11717689 -0.12113404 0.08063541 0.054884404
0003a0 2a ed ff 3d 2c 3b 7a bd 1a 7e f7 bd a8 a0 ce 3c
       0.12496407 -0.061091587 -0.12084599 0.025223091
0003b0 6c 84 ad 3d 44 64 b2 3d d0 e2 2b bd 60 96 09 3c
       0.08472523 0.087105304 -0.041964352 0.008397669
0003c0 a6 90 e4 bd be ba a4 bd 80 fc f5 3a d0 74 67 bd
       -0.11160402 -0.08043431 0.0018767267 -0.056507885
0003d0 90 71 d5 3c c4 57 34 3d be 91 ef bd 20 01 65 bc
       0.026055127 0.044029012 -0.1169772 -0.013977319
0003e0 00 0c 69 3d 6c f0 71 3d 9c ee 50 3d 7a c4 fd bd
       0.05689621 0.059067175 0.051008806 -0.123909906
0003f0 20 4d d5 bc 40 42 b7 3d 0c 20 6d 3d 96 a4 95 3d
       -0.026037753 0.08948183 0.05789189 0.07306783

fc2.bias f4 [10]
000000 c4 57 a7 bd 48 0b 16 3d 60 86 c8 bd a6 af a8 3d
       -0.08171037 0.036631852 -0.09791255 0.08236627
000010 84 eb b6 bd a0 0c e2 3d 5e 3d c8 bd 28 54 ed 3d
       -0.0893164 0.11037564 -0.0977733 0.11588317
000020 92 e7 f6 3d 70 6d 3b 3d
       0.12055887 0.045758665
