parameters/MNIST/original-model.pth (torch, 4622 bytes, 5 tensors)

conv1.weight f4 [1, 1, 7, 7]
0	0x3c05f86e	0.008176906
1	0xbdc5feb3	-0.09667721
2	0x3de26cfc	0.11055943
3	0x3d0e502e	0.034744434
4	0xbe04dc80	-0.12974739
5	0xbd05e6b7	-0.03269073
6	0xbda06ad5	-0.078328766
7	0x3da602de	0.081060156
8	0xbdac8317	-0.08423441
9	0xbdb745ea	-0.08948882
10	0x3deb62ec	0.11493477
11	0x3e100902	0.14065936
12	0xbc4078dc	-0.011747565
13	0x3d8cf3e7	0.06882458
14	0xbc4d0a6e	-0.012514694
15	0xbd09422a	-0.033510365
16	0x3dab6911	0.08369649
17	0xbda9678a	-0.08271702
18	0x3bc24f4a	0.005929862
19	0xbe0ff388	-0.14057744
20	0xbc800bd3	-0.015630638
21	0xbe06c0f0	-0.13159537
22	0x3da4509a	0.08023186
23	0x3d9bfbe0	0.07616401
24	0x3db3d08e	0.08780013
25	0x3de33ec1	0.11095954
26	0x3dd527c1	0.10407973
27	0xbd11d117	-0.035599794
28	0x3d9719e7	0.07377987
29	0x3e116d26	0.14201793
30	0x3d679a45	0.056543607
31	0xbded7683	-0.1159487
32	0xbdfeb34c	-0.12436542
33	0x3d867ea5	0.06567124
34	0xbd37c585	-0.044866104
35	0xbcd2fd65	-0.025755594
36	0xbd7d9661	-0.06191099
37	0x3dfa9cf1	0.122369654
38	0x3dda4b8a	0.10658939
39	0x3d21a9a5	0.039468426
40	0xbad301b7	-0.0016098534
41	0xbd80d96c	-0.0629147
42	0xbddfdf75	-0.10931293
43	0xbd58f09c	-0.052963838
44	0x3d7be02e	0.06149309
45	0x3d90c98a	0.070696905
46	0xbd3a6c61	-0.045513514
47	0xbd95b3c5	-0.07309679
48	0xbe09fcc8	-0.13475335

fc1.weight f4 [16, 16]
0	0xbd4e5e90	-0.05038315
1	0xbe5c7496	-0.21528849
2	0xbb447500	-0.0029976964
3	0x3d8cb290	0.068699956
4	0x3e106d42	0.14104179
5	0xbc637020	-0.013881713
6	0xbe574570	-0.21022582
7	0x3dc0ec9c	0.0942013
8	0xbc51d960	-0.012808174
9	0x3cea5560	0.028605163
10	0x3e48085e	0.19534442
11	0x3dbcdbf4	0.0922164
12	0x3df34f98	0.11880416
13	0x3c8d9e60	0.017287433
14	0xbe1e7d30	-0.15477443
15	0xbda04470	-0.078255534
16	0xbd193ba8	-0.03741041
17	0xbe2d57e6	-0.16928062
18	0xbe7742e0	-0.24146605
19	0xbd57a5c0	-0.052648306
20	0xbdc1ebf4	-0.094688326
21	0xbb757300	-0.0037452579
22	0xbe525820	-0.2054143
23	0x3e656d0a	0.22404876
24	0xbb22bf80	-0.0024833381
25	0xbe4d737a	-0.20063582
26	0x3e4eec34	0.20207292
27	0x3cbb6cb0	0.022878975
28	0xbe7b5170	-0.24542785
29	0xbe053c4a	-0.1301128
30	0x3e2edb66	0.17075881
31	0xbe53115c	-0.20612091
32	0xbd593ab8	-0.053034514
33	0xbe432cf0	-0.19060111
34	0x3dcaf45c	0.09909889
35	0xbe6cd834	-0.2312935
36	0xbe27a1c4	-0.16370302
37	0x3ae8c000	0.0017757416
38	0xbe102670	-0.14077163
39	0xbe21e804	-0.15811163
40	0x3e0f4e44	0.139947
41	0x3e61d6b4	0.22054559
42	0x3d81eb50	0.063437104
43	0x3db4b9d4	0.088245064
44	0x3de4b9dc	0.11168262
45	0x3e794d0a	0.24345794
46	0x3d6fb788	0.05852464
47	0xbe4da77a	-0.20083418
48	0x3e01516c	0.12628716
49	0xbd2e9878	-0.042625874
50	0xbe72e054	-0.23718387
51	0xbe291d74	-0.16515142
52	0xbe41dbba	-0.18931475
53	0x3e404a72	0.18778399
54	0x3c6014c0	0.013676822
55	0xbd8a2a54	-0.06746355
56	0xbc8532f0	-0.01625964
57	0x3dff0b04	0.12453273
58	0xbe4a01d0	-0.19727254
59	0x3d896618	0.06708926
60	0x3e7e2c4e	0.24821588
61	0xbcac39f0	-0.02102372
62	0x3e0ef39a	0.13960114
63	0xbd5349f0	-0.051584184
64	0xbd1f3028	-0.038864285
65	0x3e5d5118	0.21612966
66	0xbdfd7670	-0.12376106
67	0x3c8ccb90	0.01718691
68	0x3e4249a8	0.1897341
69	0x3d69aeb8	0.05705139
70	0xbe7afc78	-0.24510372
71	0xbe47d8c2	-0.1951628
72	0xbe3af33a	-0.18256846
73	0xbd966458	-0.07343358
74	0xbe311b52	-0.17295578
75	0x3e39e5f8	0.18154132
76	0xbd283c48	-0.041073114
77	0x3d56baa0	0.052424073
78	0xbe1702a4	-0.14747101
79	0xbe2710cc	-0.16315001
80	0xbe0a9926	-0.13534984
81	0xbdd10f18	-0.10207957
82	0x3ca39390	0.019967824
83	0xbe3eb6a2	-0.18624356
84	0x3df45368	0.11929971
85	0xbe65a07e	-0.22424504
86	0xbe5d04ae	-0.21583816
87	0x3d536d88	0.05161813
88	0xbd09f3d0	-0.033679783
89	0xbe246ca8	-0.16057074
90	0xbdd76d38	-0.10518879
91	0x3e3ab606	0.18233499
92	0xbe079dd2	-0.13243797
93	0x3e724d72	0.23662356
94	0xbcd8b2e0	-0.026452482
95	0xbe5d4aea	-0.21610609
96	0xbd8379c0	-0.06419706
97	0x3e005862	0.12533715
98	0xbcc70c80	-0.024297953
99	0xbe40a676	-0.188135
100	0x3e7cda28	0.24692595
101	0x3d74bf78	0.05975291
102	0x3d2becd8	0.04197392
103	0x3dada510	0.08478749
104	0xbcbef6e0	-0.023311079
105	0xbe2d9118	-0.1694988
106	0xbda26e88	-0.079312384
107	0x3e1e1db4	0.15441018
108	0xbe5b3728	-0.21407759
109	0x3dde0c2c	0.10842165
110	0x3e5b4046	0.21411237
111	0xbda15264	-0.07877043
112	0x3dbfd03c	0.093658894
113	0xbb2ee880	-0.0026688874
114	0x3dc048cc	0.09388885
115	0xbe5e51a8	-0.21710837
116	0x3e4d0e7e	0.2002506
117	0x3db1971c	0.086714
118	0xbe2d7e8a	-0.16942802
119	0x3e038c00	0.12846375
120	0x3dc982e0	0.098394156
121	0xbe7220ea	-0.23645368
122	0x3e7912c0	0.24323559
123	0x3e0a01fa	0.13477316
124	0x3dddf1f8	0.108371675
125	0xbd702368	-0.058627516
126	0x3e4796c4	0.19491106
127	0xbe4d0bee	-0.20024082
128	0x3e65e950	0.22452283
129	0x3e2c41ce	0.16821977
130	0x3e66b216	0.22528872
131	0xbd7f59c8	-0.06234148
132	0xbde40534	-0.11133805
133	0x3e1aba58	0.15110147
134	0x3ddb05d4	0.10694471
135	0xbce65d70	-0.028120726
136	0xbe5fad9c	-0.2184357
137	0xba224600	-0.00061902404
138	0x3d95b7a8	0.0731042
139	0x3e5f2518	0.21791494
140	0x3d808c98	0.06276816
141	0xbdc2c718	-0.0951063
142	0x3e06c772	0.1316202
143	0xbe5be070	-0.21472335
144	0x3e6a4f6e	0.22881863
145	0xbe146950	-0.14493299
146	0x3e6345a2	0.22194532
147	0x3e3a572c	0.18197316
148	0xbd948c64	-0.0725334
149	0xbda0e808	-0.078567564
150	0x3e110a3a	0.14164057
151	0x3e2f3a18	0.17112005
152	0xbe320948	-0.17386353
153	0x3d502160	0.05081308
154	0x3e4afb68	0.19822466
155	0xbe2928f4	-0.16519529
156	0xbe265c8a	-0.16246238
157	0xbe134f76	-0.1438578
158	0xbe05a3b2	-0.13050726
159	0x3b78db00	0.003797233
160	0xbe595370	-0.21223235
161	0x3d83e1f4	0.064395815
162	0xbe10fbb8	-0.14158523
163	0x3e478bb8	0.19486892
164	0xbdfd4710	-0.1236707
165	0x3e52f3b0	0.20600772
166	0xbe2991f4	-0.16559583
167	0xbe539062	-0.20660546
168	0xbe4fcac8	-0.20292199
169	0x3da52ffc	0.08065793
170	0x3dc3af64	0.095549375
171	0xbe287c68	-0.16453707
172	0xbd17aac0	-0.037028074
173	0x3e2672d4	0.16254741
174	0xbdc8aaf8	-0.09798235
175	0x3ddceca0	0.1078732
176	0xbe793cf8	-0.24339664
177	0xbe3c36e8	-0.1838032
178	0x3e709f06	0.23498163
179	0x3e665dfe	0.22496793
180	0xbd0ce7b0	-0.034400642
181	0x3e7ccc80	0.24687386
182	0xbd66ead0	-0.05637628
183	0xbdbf4568	-0.0933941
184	0xbe1578a6	-0.14596805
185	0x3b74da00	0.0037361383
186	0xbe2d346e	-0.16914532
187	0xbd586fa8	-0.05284086
188	0x3da663ac	0.0812448
189	0x3ad28900	0.0016062558
190	0xbe45f8f4	-0.1933325
191	0xbdf08358	-0.11743802
192	0x3c097460	0.008389562
193	0xbe1acd8c	-0.15117472
194	0xbe3428d6	-0.17593703
195	0xbe2662b6	-0.16248593
196	0x3d931b34	0.07182923
197	0xbe585c82	-0.21129039
198	0x3dd26b70	0.10274398
199	0x3c9475f0	0.018122643
200	0xbc82c750	-0.01596418
201	0xbdf2ada8	-0.118495286
202	0xbe3858b0	-0.18002582
203	0x3e16409c	0.14673084
204	0x3e4abf98	0.1979965
205	0xbdb46528	-0.088083565
206	0xbe31eefe	-0.17376325
207	0xbe5d4604	-0.2160874
208	0xbd3b3030	-0.045700252
209	0x3e7cd112	0.24689129
210	0x3e2e8be2	0.17045549
211	0x3e01bf9e	0.12670752
212	0xbd2d0fd8	-0.042251438
213	0x3e6197f2	0.22030619
214	0x3e6a0af0	0.22855735
215	0x3e236e98	0.15960157
216	0xbcba6040	-0.022750974
217	0xbe11b38c	-0.14228648
218	0xbe6470be	-0.22308633
219	0x3e063bca	0.13108745
220	0xbd8d2b58	-0.06893033
221	0xbe285e58	-0.1644224
222	0xbe500102	-0.20312884
223	0x3e5234ac	0.20527905
224	0xbe18f4ce	-0.14937136
225	0xbddb42e4	-0.10706118
226	0x3e48e6de	0.19619319
227	0xbe165694	-0.14681464
228	0xbe450abc	-0.19242376
229	0xbde245e4	-0.11048487
230	0xbd196ef0	-0.037459314
231	0xbe0f2344	-0.13978297
232	0x3e0b3d4c	0.13597602
233	0x3bcbd600	0.006220579
234	0x3bd37240	0.0064528286
235	0x3d379fd0	0.044830143
236	0x3df422d4	0.119207054
237	0x3e2898f6	0.164646
238	0xbdea4330	-0.11438596
239	0x3e34050c	0.1758005
240	0x3e2af1b0	0.16693759
241	0x3e243992	0.16037586
242	0xbd9f49c4	-0.077777416
243	0xbd008698	-0.03137836
244	0xbe167b40	-0.14695454
245	0x3c9be420	0.019029677
246	0xbc5d3940	-0.013502419
247	0x3e3a0800	0.18167114
248	0x3c414dc0	0.011798322
249	0x3e4b4690	0.19851136
250	0x3e4c79f6	0.199684
251	0x3e15d594	0.14632255
252	0xbe66bd96	-0.22533259
253	0xbe3df6c6	-0.18551168
254	0x3e5d5cbe	0.2161741
255	0x3e01340c	0.1261751

fc1.bias f4 [16]
0	0x3e0eccba	0.13945284
1	0xbd5efb20	-0.05443871
2	0x3d9f1354	0.077673584
3	0xbd800794	-0.062514454
4	0x3c8b8d70	0.017035216
5	0x3a315000	0.0006763935
6	0xbe0d331e	-0.13789031
7	0xbd34d5e8	-0.04414931
8	0x3d21c670	0.039495885
9	0xbe488332	-0.19581297
10	0xbe2061ce	-0.1566231
11	0x3df26c38	0.11837047
12	0x3e047a48	0.12937272
13	0xbdd5ccc0	-0.104394436
14	0xbdba1884	-0.09086707
15	0x3d940da0	0.07229161

fc2.weight f4 [10, 16]
0	0x3cce7680	0.02520299
1	0x3e484144	0.19556147
2	0xbe46a770	-0.1939981
3	0x3db47018	0.08810443
4	0xbe3632ba	-0.17792788
5	0x3adf6100	0.0017042458
6	0x3d0d9e08	0.03457454
7	0x3e33f9ea	0.17575803
8	0xbe68eb16	-0.22745928
9	0xbe41208e	-0.18860075
10	0xbe3af6e6	-0.18258247
11	0x3d258200	0.04040718
12	0x3e60141c	0.21882671
13	0x3dabff60	0.08398318
14	0xbd3ab018	-0.045578092
15	0xbe4ce000	-0.20007324
16	0xbdc25f20	-0.094908
17	0x3dd81808	0.105514586
18	0xbe4ec128	-0.20190871
19	0x3e0abe70	0.13549209
20	0xbcb78020	-0.022399962
21	0x3d818ba0	0.063254595
22	0x3db23bc8	0.087028086
23	0xbd322d78	-0.043500394
24	0xbd772208	-0.06033519
25	0x3b2d4600	0.0026439428
26	0x3e5e5bcc	0.21714705
27	0x3c8df950	0.017330796
28	0xbe055dd6	-0.13024077
29	0xbdc15e24	-0.09441784
30	0xbd88cc24	-0.06679562
31	0x3e63effe	0.22259519
32	0xbd95343c	-0.072853535
33	0xbc81b1f0	-0.015831918
34	0x3b03fc80	0.0020139515
35	0xbe727e30	-0.23680949
36	0x3e27856e	0.16359493
37	0x3e067d82	0.13133815
38	0x3e043d2c	0.1291396
39	0x3ceb0760	0.02869004
40	0xbd530140	-0.051514864
41	0xbe73e84e	-0.23819086
42	0x3dd5328c	0.10410032
43	0x3df1593c	0.11784598
44	0xbe0f3980	-0.13986778
45	0xbd6dde20	-0.058073163
46	0xbdf83dd4	-0.12121168
47	0x3dda37c8	0.10655171
48	0xbc40ddc0	-0.011771619
49	0x3e2478bc	0.16061682
50	0x3d87d5bc	0.066325635
51	0xbe451c36	-0.19249043
52	0x3e6c5504	0.23079306
53	0x3da3da08	0.080005705
54	0xbe4b3940	-0.19846058
55	0xbe1889ae	-0.1489627
56	0xbd7adee0	-0.061247706
57	0xbe7dd066	-0.24786529
58	0x3e28d29c	0.16486591
59	0xbdc5e4a0	-0.096627474
60	0x3e2a69ee	0.16641971
61	0x3d8bece4	0.06832293
62	0x3e4ba484	0.19886976
63	0x3e4b773c	0.19869703
64	0xbc0ab580	-0.008466125
65	0x3d3467a0	0.044044137
66	0x3e4eac80	0.20182991
67	0xbd96c2a0	-0.073613405
68	0x3e038a50	0.12845731
69	0xbe1bc3da	-0.1521143
70	0x3daddfec	0.08489975
71	0xbe563060	-0.20916891
72	0xbe7f05cc	-0.24904555
73	0xbd2b8bb0	-0.041881263
74	0x3e25083a	0.1611642
75	0xbe17ef32	-0.1483734
76	0x3d7ffcd8	0.06249699
77	0xbe54871c	-0.20754665
78	0xbd8a2ac0	-0.06746435
79	0x3e4f19ee	0.20224735
80	0xbe1674d2	-0.14693001
81	0x3de79220	0.11307168
82	0xbe614648	-0.21999466
83	0x3e05aa3c	0.1305322
84	0xbdee8288	-0.116459906
85	0x3d74e618	0.059789747
86	0xbcdeed40	-0.027212739
87	0xbd08d0f0	-0.033402383
88	0xbe2e24ec	-0.17006272
89	0x3cd84bd0	0.026403338
90	0x3e4310b0	0.19049335
91	0xbe687be2	-0.22703508
92	0x3c6362e0	0.013878554
93	0x3d1fbe88	0.039000064
94	0x3e714c2a	0.2356421
95	0xbe7bc176	-0.24585518
96	0xbd0671f0	-0.032823503
97	0x3df68db0	0.120387435
98	0x3db5eb0c	0.08882722
99	0xbd5c94e8	-0.053852946
100	0x3cd5fa60	0.026120365
101	0x3e57e438	0.21083152
102	0x3e2d271c	0.1690945
103	0xbd9f2e40	-0.07772493
104	0xbd8bad94	-0.06820217
105	0xbdfb2d78	-0.12264532
106	0x3d44e308	0.048068076
107	0xbe45e23e	-0.19324586
108	0xbd8e63f0	-0.06952655
109	0xbe45bb1e	-0.19309661
110	0xbe14b6a4	-0.14522797
111	0xbddfec6c	-0.10933766
112	0x3d11a348	0.035556108
113	0xbdb7b4bc	-0.08970019
114	0xbc9b79d0	-0.018978983
115	0xbda0d550	-0.07853186
116	0xbd64dc18	-0.05587396
117	0xbcf09a00	-0.029370308
118	0xbccb4a60	-0.024815738
119	0xbc8abed0	-0.01693669
120	0x3d2f3878	0.042778462
121	0xbe1a5574	-0.1507166
122	0xbdb67cfc	-0.08910558
123	0x3d390290	0.04516846
124	0xbe53aaba	-0.20670596
125	0x3e3e75fc	0.18599695
126	0x3df7b3a0	0.120948076
127	0xbd363480	-0.04448366
128	0x3e5983e2	0.21241716
129	0xbd456bf0	-0.04819864
130	0xbd8bfa04	-0.06834796
131	0x3e57d724	0.21078163
132	0xbdcb2978	-0.09920019
133	0x3d52b3a0	0.051440835
134	0xbe0bad7e	-0.13640401
135	0x3e51d6be	0.20492074
136	0xbaf29700	-0.0018508136
137	0xbe677a86	-0.22605333
138	0x3e51ee8c	0.20501155
139	0x3e258a94	0.16166145
140	0xbe42c3a0	-0.19019938
141	0x3e56d26e	0.2097871
142	0x3e3112fa	0.17292395
143	0xbe7f0444	-0.24903971
144	0x3e22ea36	0.15909657
145	0xbdf1138c	-0.117713064
146	0x3e469ca8	0.19395697
147	0xbe1bde84	-0.15221602
148	0xbe2a990e	-0.16659948
149	0xbe194dc0	-0.14971066
150	0xbe59ca72	-0.21268633
151	0xbd04d8a8	-0.032433182
152	0x3e7b7046	0.24554548
153	0xbd354f40	-0.04426503
154	0x3e4a2e60	0.19744253
155	0x3dc83d08	0.09777266
156	0x3d11b4d0	0.035572827
157	0xbdc64d84	-0.09682754
158	0xbc3cfee0	-0.011535376
159	0x3e299a7a	0.16562834

fc2.bias f4 [10]
0	0xbe77ca58	-0.24198282
1	0x3c050c20	0.008120567
2	0x3e7e43d4	0.24830562
3	0x3de0d438	0.109779775
4	0x3c847fc0	0.016174197
5	0x3c855100	0.016273975
6	0x3e5a5c2a	0.2132422
7	0xbc8a9160	-0.016915023
8	0xbe1f4e74	-0.15557271
9	0x3e2411ba	0.16022387
