parameters/MNIST/original-model.pth (torch, 55112 bytes, 4 tensors)

fc1.weight f4 [64, 196]
0	0x3b85f86e	0.004088453
1	0xbd45feb3	-0.048338603
2	0x3d626cfc	0.055279717
3	0x3c8e502e	0.017372217
4	0xbd84dc80	-0.064873695
5	0xbc85e6b7	-0.016345365
6	0xbd206ad5	-0.039164383
7	0x3d2602de	0.040530078
8	0xbd2c8317	-0.042117205
9	0xbd3745ea	-0.04474441
10	0x3d6b62ec	0.057467386
11	0x3d900902	0.07032968
12	0xbbc078dc	-0.0058737826
13	0x3d0cf3e7	0.03441229
14	0xbbcd0a6e	-0.006257347
15	0xbc89422a	-0.016755182
16	0x3d2b6911	0.041848246
17	0xbd29678a	-0.04135851
18	0x3b424f4a	0.002964931
19	0xbd8ff388	-0.07028872
20	0xbc000bd3	-0.007815319
21	0xbd86c0f0	-0.06579769
22	0x3d24509a	0.04011593
23	0x3d1bfbe0	0.038082004
24	0x3d33d08e	0.043900065
25	0x3d633ec1	0.05547977
26	0x3d5527c1	0.052039865
27	0xbc91d117	-0.017799897
28	0x3d1719e7	0.036889937
29	0x3d916d26	0.071008965
30	0x3ce79a45	0.028271804
31	0xbd6d7683	-0.05797435
32	0xbd7eb34c	-0.06218271
33	0x3d067ea5	0.03283562
34	0xbcb7c585	-0.022433052
35	0xbc52fd65	-0.012877797
36	0xbcfd9661	-0.030955495
37	0x3d7a9cf1	0.061184827
38	0x3d5a4b8a	0.053294696
39	0x3ca1a9a5	0.019734213
40	0xba5301b7	-0.0008049267
41	0xbd00d96c	-0.03145735
42	0xbd5fdf75	-0.054656465
43	0xbcd8f09c	-0.026481919
44	0x3cfbe02e	0.030746546
45	0x3d10c98a	0.035348453
46	0xbcba6c61	-0.022756757
47	0xbd15b3c5	-0.036548395
48	0xbd89fcc8	-0.06737667
49	0xbd57998c	-0.052636668
50	0xbc6bd9ca	-0.014395187
51	0xbd7bf2f5	-0.061511
52	0xba6085b8	-0.00085648475
53	0x3ca0cc13	0.01962856
54	0x3d250f27	0.040297654
55	0xbb81f6ee	-0.003966204
56	0xbd760638	-0.060064524
57	0x3cdc7c21	0.026914658
58	0xbb6fd3dc	-0.0036594784
59	0x3c05e7a5	0.008172904
60	0x3d649bda	0.055812694
61	0x3cd7d6ce	0.026347544
62	0x3d0b08ea	0.033944048
63	0x3ba1d993	0.004939267
64	0xbd35215c	-0.044221267
65	0xbcb729a5	-0.022358725
66	0xbc2f1f9c	-0.010688689
67	0xbd461b51	-0.048365895
68	0xbd8d4aca	-0.068990305
69	0xbc76744a	-0.015042374
70	0xbcdd9ff3	-0.027053809
71	0xba8c41b7	-0.0010700737
72	0xbd7064b8	-0.058689803
73	0x3d8319bd	0.064013936
74	0xba39ff6e	-0.0007095252
75	0xbd6acd1e	-0.05732452
76	0x3d6c7baa	0.057735123
77	0x3bd63313	0.0065368502
78	0xbd8f9c40	-0.07012224
79	0xbd1844e7	-0.037175085
80	0x3d47d62c	0.048788235
81	0xbd71386a	-0.05889169
82	0xbc78431c	-0.015152719
83	0xbd5f0eca	-0.054457463
84	0x3ce7f2b3	0.02831397
85	0xbd8756fa	-0.06608386
86	0xbd3f944e	-0.046772294
87	0x3a050000	0.00050735474
88	0xbd24be37	-0.040220466
89	0xbd39092a	-0.045174755
90	0x3d23c72a	0.03998486
91	0x3d810cfa	0.06301303
92	0x3c947aa5	0.018124888
93	0x3cce8b3c	0.025212876
94	0x3d02b35a	0.031909324
95	0x3d8e752b	0.06955942
96	0x3c88fb2a	0.016721327
97	0xbd6b088c	-0.057381198
98	0x3d13cac5	0.036082048
99	0xbc4789ae	-0.0121788215
100	0xbd8ac955	-0.06776682
101	0xbd41463c	-0.04718612
102	0xbd5d8d68	-0.054089934
103	0x3d5bc2cc	0.05365257
104	0x3b800bdc	0.0039076637
105	0xbc9de73c	-0.0192753
106	0xbb983a37	-0.0046456116
107	0x3d11bd27	0.03558078
108	0xbd66dd81	-0.056363586
109	0x3c9d06f7	0.01916836
110	0x3d913de4	0.07091883
111	0xbbc4d481	-0.0060067778
112	0x3d235f8c	0.039886042
113	0xbc717913	-0.014738339
114	0xbc35ede5	-0.011104082
115	0x3d7ceef8	0.061751336
116	0xbd10d5f7	-0.035360303
117	0x3ba0e8a5	0.004910546
118	0x3d5e0b0a	0.054209746
119	0x3c85886a	0.016300399
120	0xbd8f6bb3	-0.07002964
121	0xbd646571	-0.055760805
122	0xbd55a843	-0.05216242
123	0xbcabe065	-0.020981023
124	0xbd4a685e	-0.04941594
125	0x3d54748a	0.051868953
126	0xbc4044e5	-0.011735176
127	0x3c756793	0.014978307
128	0xbd2c954e	-0.042134576
129	0xbd3eeea1	-0.046614293
130	0xbd1e65e3	-0.038671385
131	0xbceeecae	-0.029165592
132	0x3bbaf1ca	0.005705093
133	0xbd59f54c	-0.05321245
134	0x3d0b9d60	0.03408563
135	0xbd833724	-0.064070016
136	0xbd7c97a3	-0.06166805
137	0x3c71a1c1	0.014748038
138	0xbc1da8ee	-0.0096227955
139	0xbd3be9e5	-0.045877356
140	0xbcf633ae	-0.03005394
141	0x3d556251	0.052095715
142	0xbd1afd83	-0.037839424
143	0x3d8a7566	0.06760673
144	0xbbf7a7dc	-0.007557852
145	0xbd7ce7e8	-0.0617446
146	0xbc964200	-0.018342018
147	0x3d12ae27	0.035810616
148	0xbbe37c01	-0.0069422727
149	0xbd5c2bf5	-0.05375286
150	0x3d907caa	0.07055028
151	0x3c8bdb20	0.01707226
152	0x3c447c65	0.011992549
153	0x3cc67381	0.024224998
154	0xbbda3eb7	-0.006660308
155	0xbd465cae	-0.04842823
156	0xbcb9a2e5	-0.022660682
157	0x3d34b43c	0.044117197
158	0xbd7a882e	-0.061165027
159	0x3cfdc4c5	0.030977616
160	0x3d7a929a	0.061174966
161	0xbcb85e2a	-0.022505838
162	0x3cdb3721	0.026759686
163	0xba47e525	-0.0007625393
164	0x3cdbc0ea	0.026825387
165	0xbd7e142e	-0.062030964
166	0x3d6a59b5	0.057214458
167	0x3ccaf5d7	0.024775429
168	0xbd46477a	-0.04840801
169	0x3d1656dc	0.03670393
170	0x3ce64c6e	0.028112616
171	0xbd8a5bf4	-0.0675582
172	0x3d8e53dc	0.06949589
173	0x3d1db91e	0.03850662
174	0x3cfda6d3	0.030963337
175	0xbc8938ce	-0.01675072
176	0x3d641a05	0.055688877
177	0xbd6a56c8	-0.057211667
178	0x3d8360c0	0.06414938
179	0x3d44dd7e	0.048062794
180	0x3d83d37b	0.06436821
181	0xbc91ea2a	-0.017811853
182	0xbd024c1e	-0.031810872
183	0x3d30d4f7	0.04317185
184	0x3cfa4fce	0.030555632
185	0xbc03a31c	-0.008034494
186	0xbd7fa1d8	-0.062410206
187	0xb9397493	-0.00017686402
188	0x3cab1b0a	0.020886917
189	0x3d7f05d3	0.062261414
190	0x3c92e9d3	0.017933762
191	0xbcde9a65	-0.02717323
192	0x3d1a0883	0.037605774
193	0xbd7b49a5	-0.06134953
194	0x3d85e43f	0.06537675
195	0xbd299cee	-0.041409425
196	0x3d81dea6	0.06341295
197	0x3d54f5ea	0.051992334
198	0xbca9c505	-0.020723829
199	0xbcb7e49c	-0.022447877
200	0x3d25c28c	0.040468737
201	0x3d484265	0.048891444
202	0xbd4b7853	-0.049675297
203	0x3c6ddd01	0.0145180235
204	0x3d67fac1	0.056635622
205	0xbd415361	-0.047198657
206	0xbd3e209e	-0.046417825
207	0xbd285ad0	-0.04110223
208	0xbd18bb15	-0.03728779
209	0x3a8e3400	0.0010849237
210	0xbd785f5c	-0.060637817
211	0x3c96b917	0.018398805
212	0xbd25b1f7	-0.040452924
213	0x3d640d65	0.055676837
214	0xbd10bae5	-0.035334487
215	0x3d711681	0.058859352
216	0xbd41cb61	-0.047313098
217	0xbd71c995	-0.059030134
218	0xbd6d7a0a	-0.057977714
219	0x3cbcc921	0.023045124
220	0x3cdfa3e1	0.027299823
221	0xbd408e2e	-0.047010593
222	0xbc2d556e	-0.01057945
223	0x3d3e3a17	0.046442118
224	0xbce555ae	-0.027994957
225	0x3cfc7c25	0.030820915
226	0xbd8e6bfc	-0.0695419
227	0xbd571a2e	-0.0525152
228	0x3d897f72	0.067137614
229	0x3d83a36d	0.06427655
230	0xbc2108ca	-0.009828756
231	0x3d9074dc	0.07053539
232	0xbc83f3e5	-0.016107509
233	0xbcda9877	-0.026684029
234	0xbd2ad307	-0.041705158
235	0x3a8bea4a	0.0010674682
236	0xbd45f2c7	-0.048327234
237	0xbc775b0a	-0.015097389
238	0x3cbe28c5	0.0232128
239	0x39f09c93	0.00045893024
240	0xbd624118	-0.05523786
241	0xbd096fa0	-0.03355372
242	0x3b1d174a	0.002397018
243	0xbd30eaea	-0.04319278
244	0xbd4de587	-0.050267722
245	0xbd3e27ac	-0.046424553
246	0x3ca81f17	0.020522637
247	0xbd774528	-0.060368687
248	0x3cf07aca	0.029355425
249	0x3ba9ab5c	0.0051778983
250	0xbb957613	-0.0045611947
251	0xbd0aac60	-0.033855796
252	0xbd52ae81	-0.05143595
253	0x3d2bb78e	0.0419231
254	0x3d67b665	0.05657043
255	0xbcce2a77	-0.025166733

fc1.bias f4 [64]
0	0xbd450bc3	-0.04810692
1	0xbd40aa8e	-0.047037654
2	0x3c577401	0.013150216
3	0xba5a9db7	-0.00083395414
4	0x3c8829c0	0.01662147
5	0xbd4c9d23	-0.049954545
6	0xbd3abbe3	-0.04558934
7	0xbd0a6383	-0.033786308
8	0xbd2995ea	-0.041402735
9	0xbd66a0fe	-0.056305878
10	0xbcbe1c8a	-0.023206968
11	0x3c36b70a	0.011152038
12	0x3c23fa25	0.01000837
13	0xbd1f3a5e	-0.038874023
14	0xbd75711c	-0.059922323
15	0xbd86e408	-0.06586462
16	0xbd08bad5	-0.033381302
17	0xbd04497e	-0.03229665
18	0xbd4eaeee	-0.050459795
19	0x3cb6843c	0.022279851
20	0xbced686e	-0.02898046
21	0x3d8346e2	0.06410004
22	0xbc588fd3	-0.013217884
23	0x3d866abb	0.06563326
24	0xbd5753ae	-0.052570038
25	0xbd61caa8	-0.05512491
26	0x3d0142c0	0.0315578
27	0xbd7eb4b8	-0.062184066
28	0x3ace7601	0.0015751721
29	0x3c66755c	0.014066067
30	0x3d7207aa	0.05908934
31	0xbd83f70b	-0.06443604
32	0x3d2da6ba	0.04239533
33	0x3c9fded7	0.019515438
34	0x3c766bee	0.015040381
35	0xbd2f5a0a	-0.042810477
36	0x3d76b981	0.060235504
37	0x3c79be5c	0.015243139
38	0xbc8a120a	-0.016854305
39	0xbd650fd8	-0.055923313
40	0x3d484a9c	0.048899278
41	0x3d842343	0.06452038
42	0xbbf8905c	-0.0075855684
43	0xbd0b8d40	-0.034070253
44	0x3d822bab	0.06355985
45	0xbd641d55	-0.055692036
46	0xbd187b1e	-0.03722679
47	0x3bea1bb8	0.0071444176
48	0xbca6c725	-0.020358631
49	0xbc720253	-0.014771062
50	0xbccde741	-0.025134685
51	0xbd421023	-0.04737867
52	0xbcb6cac1	-0.022313477
53	0x3cb9b357	0.022668524
54	0xbd0d3e53	-0.034483265
55	0x3d319c5c	0.043362007
56	0x3d86be75	0.065792955
57	0x3b863125	0.004095214
58	0xbc0f70ae	-0.008754892
59	0x3d2f91ba	0.042863585
60	0x3d82ecc8	0.06392819
61	0x3cf098c5	0.029369721
62	0x3d02b660	0.031912208
63	0xbc659edc	-0.014014926

fc2.weight f4 [10, 64]
0	0xbdd7556a	-0.10514338
1	0x3d48c420	0.049015164
2	0x3dfba406	0.12287144
3	0x3cbce528	0.023058489
4	0x3dac4b58	0.08412808
5	0x3c70ed90	0.014705077
6	0x3dfdfe16	0.12401979
7	0xbdf129a6	-0.11775522
8	0x3c428a50	0.011873797
9	0xbc9af628	-0.018916205
10	0x3dd730f8	0.10507387
11	0xbc470a20	-0.01214841
12	0xbda8f7e2	-0.08250405
13	0x3d328c6c	0.043590948
14	0xbd30d798	-0.043174356
15	0x3dd3a73c	0.10334632
16	0x3cfe5338	0.031045541
17	0x3ca7b4f8	0.020472035
18	0xbce71b38	-0.028211221
19	0x3d7a25c8	0.061071187
20	0xbbd40b40	-0.0064710677
21	0x3da2fef0	0.07958782
22	0xbd82e776	-0.06391804
23	0xbc96da48	-0.018414631
24	0x3d45c1d8	0.048280567
25	0xbdefb128	-0.11703712
26	0xbd7d7018	-0.06187448
27	0x3dde420c	0.10852441
28	0x3d39499c	0.045236215
29	0x3dacf14c	0.08444461
30	0x3cfb6548	0.030687943
31	0xbda6b012	-0.081390515
32	0xbdbdc514	-0.09266105
33	0x3d9b47d6	0.07582061
34	0x3dc1cb7c	0.0946264
35	0xbd191154	-0.03737004
36	0x3d0ae8e0	0.033913493
37	0xbc7bce10	-0.015368953
38	0x3df5a8a2	0.11995055
39	0x3ca82fa0	0.020530522
40	0x3c023a20	0.007948428
41	0xbdbf5936	-0.093431875
42	0x3b9e9860	0.004839942
43	0x3d0a7a28	0.033807904
44	0x3b69d100	0.0035677552
45	0xbdc8c148	-0.098024905
46	0x3d8dc43e	0.06922196
47	0xbd89877c	-0.06715295
48	0x3d2b139c	0.041766748
49	0xbd8c679a	-0.06855698
50	0xbd70dbdc	-0.058803424
51	0xbdce6bae	-0.10079132
52	0xbd396478	-0.04526183
53	0xbddae854	-0.10688844
54	0x3d948cd2	0.07253422
55	0xbde3eba0	-0.11128926
56	0xbde45960	-0.111498594
57	0xbdcc535e	-0.099768385
58	0xbd89adfe	-0.067226395
59	0xbdb08a74	-0.08620158
60	0xbd2dd7fc	-0.042442307
61	0x3cbbce50	0.022925526
62	0x3c566a00	0.013086796
63	0xbdee5dfc	-0.1163902
64	0x3d0a04ec	0.0336961
65	0xbd809136	-0.06277697
66	0x3d770b8c	0.060313746
67	0x3df056ea	0.117353275
68	0x3d9cdb8a	0.07659061
69	0x3dc52242	0.09625675
70	0x3d4c8740	0.049933672
71	0xbced4010	-0.028961211
72	0x3c4bc410	0.012436882
73	0xbdfc5aaa	-0.1232198
74	0x3da81828	0.082077324
75	0xbc455310	-0.012043729
76	0xbdae9342	-0.08524181
77	0x3db13ffc	0.08654782
78	0x3c9d7c00	0.019224167
79	0xbdbb5976	-0.09147923
80	0xbdd9a8d8	-0.106279075
81	0x3d7bff14	0.06152256
82	0xbda244ee	-0.079233035
83	0xbcf2d2a8	-0.029641464
84	0x3d14463c	0.036199793
85	0xbd9dfc78	-0.0771417
86	0x3da4db6a	0.080496624
87	0xbd61cca4	-0.0551268
88	0xbb8edca0	-0.0043597966
89	0xbd8591fc	-0.06521985
90	0xbbf03500	-0.007330537
91	0x3dc8c4ce	0.098031625
92	0xbc8cc418	-0.017183349
93	0x3cf7fe18	0.030272529
94	0xbde202dc	-0.11035702
95	0xbdd7d178	-0.10538
96	0xbc802bb0	-0.015645832
97	0xbd916888	-0.07100016
98	0x3dbab7a2	0.091170564
99	0xbdd99cc2	-0.10625602
100	0xbda70eb6	-0.08157103
101	0x3cf680a0	0.03009063
102	0xbdde4dbe	-0.10854672
103	0xbda6adee	-0.08138643
104	0x3c4230c0	0.011852443
105	0xbde97778	-0.1139974
106	0x3dfa0ca8	0.12209445
107	0x3dbc200a	0.091857985
108	0x3dad1d48	0.084528506
109	0xbd1fdcd4	-0.039028957
110	0xbcda7538	-0.026667222
111	0x3c9bc108	0.019012943
112	0x3ddc4ce2	0.10756852
113	0x3d76d47c	0.060261235
114	0x3d5c16f0	0.053732812
115	0xbdb65fa0	-0.08904958
116	0x3d112fa0	0.03544581
117	0xbded48b8	-0.115861356
118	0x3d9fea70	0.07808387
119	0xbcd1a0c0	-0.025589347
120	0xbc9977b8	-0.018733844
121	0xbdfaa10a	-0.12237747
122	0xbd4b191c	-0.049584493
123	0xbd9a3616	-0.07529847
124	0xbdb09046	-0.08621268
125	0xbde972a4	-0.11398819
126	0x3cb262a0	0.021775544
127	0x3df86684	0.12128928
128	0x3b8a80c0	0.004226774
129	0x3d50190c	0.050805137
130	0xbcc4f7b0	-0.024043888
131	0xbd8e0ce2	-0.06936051
132	0x3df10de0	0.117702246
133	0xbd744fbc	-0.059646353
134	0x3dc234a4	0.09482697
135	0x3d44586c	0.04793589
136	0x3da4a45c	0.080391616
137	0x3dbd50c2	0.09243919
138	0x3d150da0	0.036389947
139	0x3d57b058	0.05265841
140	0x3dfe23dc	0.124091834
141	0x3dae3d44	0.08507779
142	0x3cadfe18	0.021239325
143	0x3d9f8b6e	0.07790266
144	0xbd9543b0	-0.07288301
145	0xbc9b9f38	-0.01899682
146	0xbddd4bc4	-0.10805467
147	0xbdf0d764	-0.117598325
148	0x3a686800	0.0008865595
149	0xbd023edc	-0.03179823
150	0xbc14f500	-0.009091616
151	0x3db2c2d8	0.0872857
152	0x3dd6e91a	0.10493679
153	0xbd85ec78	-0.065392435
154	0x3dd30c80	0.103051186
155	0xbcd91020	-0.026496947
156	0x3cd54a18	0.026036307
157	0x3cc5ea28	0.024159506
158	0xbd2f5bf8	-0.042812318
159	0x3c4bb910	0.012434259
160	0xbc5c5f60	-0.013450474
161	0x3d816e64	0.063198835
162	0xbcd3a318	-0.025834605
163	0xbdbd8bea	-0.09255202
164	0x3d6bb408	0.057544738
165	0x3dfc4464	0.12317732
166	0x3aba0580	0.0014192313
167	0x3d08cb60	0.03339708
168	0x3d270944	0.04078032
169	0xbdcd09d4	-0.1001164
170	0xbdff4b80	-0.12465572
171	0x3d0771b4	0.03306742
172	0xbdffa39e	-0.124823794
173	0xbda8619c	-0.082217425
174	0xbdc16618	-0.09443301
175	0x3d566494	0.052342013
176	0x3d188440	0.0372355
177	0xbb7c5380	-0.0038501918
178	0x3c1e6d50	0.009669617
179	0x3dea348c	0.11435804
180	0x3d2929e4	0.041299716
181	0x3d84380a	0.06456001
182	0xbd460710	-0.04834658
183	0x3d0c6268	0.034273535
184	0x3cd81d08	0.02638103
185	0xbd5d22ac	-0.053988144
186	0xbd0e778c	-0.034781978
187	0xbb73be40	-0.0037192255
188	0x3cbba3b0	0.0229052
189	0x3db7f3ce	0.08982049
190	0xbd29aa00	-0.04142189
191	0x3c51fda0	0.012816817
192	0x3bca01c0	0.0061647594
193	0x3dda101c	0.10647604
194	0xbd0a76bc	-0.03380464
195	0xbdb8c506	-0.09021954
196	0xbce3ee28	-0.027823523
197	0x3d5a32e8	0.053271204
198	0x3dd20e8e	0.10256682
199	0x3da1139e	0.0786507
200	0x3dbb2d1a	0.09139462
201	0x3d595b94	0.05306585
202	0xbd93cb44	-0.07216504
203	0xbd451740	-0.048117876
204	0x3daeecea	0.085412815
205	0x3db0ded8	0.08636254
206	0xbd944dcc	-0.07241401
207	0xbd699ad8	-0.057032436
208	0x3dd6fb26	0.104971215
209	0xbd400810	-0.04688269
210	0xbc591df0	-0.013251767
211	0xbcbe5140	-0.023232102
212	0xbcc68c68	-0.024236873
213	0xbd97890a	-0.07399185
214	0x3b8d5e20	0.004314199
215	0xbcf0afe8	-0.029380754
216	0x3dc72cb8	0.09725326
217	0x3d6a9754	0.057273224
218	0x3df6aa2a	0.12044175
219	0xbcf687e0	-0.030094087
220	0xbdb99558	-0.09061688
221	0x3c82bf90	0.015960485
222	0x3dff4ff6	0.12466423
223	0x3d8563aa	0.0651315
224	0xbd632f54	-0.055465057
225	0xbd84a77e	-0.06477259
226	0x3d83d222	0.06436564
227	0xbd6d5058	-0.05793795
228	0x3d9bd936	0.07609789
229	0x3db7ac40	0.08968401
230	0xbdfe5166	-0.12417869
231	0xbd62a59c	-0.05533372
232	0xb9d78200	-0.00041104853
233	0x3dad3ab8	0.08458465
234	0x3ce70330	0.028199762
235	0x3dc15ec4	0.09441903
236	0xbd1ba2a4	-0.037996903
237	0xbda2169e	-0.0791447
238	0x3deeb6fe	0.11655997
239	0xbd8c9c84	-0.068657905
240	0x3dee137e	0.116248116
241	0x3d631350	0.05543834
242	0x3d0b9c4c	0.034084603
243	0xbd980f38	-0.07424778
244	0x3d4734f4	0.048634484
245	0xbcaa7498	-0.02080755
246	0xbc587250	-0.013210848
247	0xbca6ef20	-0.020377696
248	0x3d3c8608	0.04602626
249	0xbd911050	-0.070831895
250	0x3defda90	0.11711609
251	0x3d982416	0.07428758
252	0xbd7a9a68	-0.06118241
253	0x3da9ac90	0.08284867
254	0x3d46e738	0.04856035
255	0xbd704e98	-0.058668703

fc2.bias f4 [10]
0	0x3dead9da	0.11467333
1	0x3d921a10	0.07133877
2	0x3d198684	0.0374818
3	0xbdd820b8	-0.105531156
4	0x3d777048	0.060409814
5	0xbdab6414	-0.08368698
6	0xbd8a7bd2	-0.06761898
7	0x3c274af0	0.010210738
8	0xbdb64536	-0.0889992
9	0xbcc04320	-0.023469508
