parameters/MNIST/original-model.pth (torch, 22094 bytes, 5 tensors)

conv1.weight f4 [1, 1, 7, 7]
0.008176906 -0.09667721 0.11055943 0.034744434 -0.12974739 -0.03269073 -0.078328766 0.081060156
-0.08423441 -0.08948882 0.11493477 0.14065936 -0.011747565 0.06882458 -0.012514694 -0.033510365
0.08369649 -0.08271702 0.005929862 -0.14057744 -0.015630638 -0.13159537 0.08023186 0.07616401
0.08780013 0.11095954 0.10407973 -0.035599794 0.07377987 0.14201793 0.056543607 -0.1159487
-0.12436542 0.06567124 -0.044866104 -0.025755594 -0.06191099 0.122369654 0.10658939 0.039468426
-0.0016098534 -0.0629147 -0.10931293 -0.052963838 0.06149309 0.070696905 -0.045513514 -0.07309679
-0.13475335
00000000: 6ef8 053c b3fe c5bd fc6c e23d 2e50 0e3d
00000010: 80dc 04be b7e6 05bd d56a a0bd de02 a63d
00000020: 1783 acbd ea45 b7bd ec62 eb3d 0209 103e
00000030: dc78 40bc e7f3 8c3d 6e0a 4dbc 2a42 09bd
00000040: 1169 ab3d 8a67 a9bd 4a4f c23b 88f3 0fbe
00000050: d30b 80bc f0c0 06be 9a50 a43d e0fb 9b3d
00000060: 8ed0 b33d c13e e33d c127 d53d 17d1 11bd
00000070: e719 973d 266d 113e 459a 673d 8376 edbd
00000080: 4cb3 febd a57e 863d 85c5 37bd 65fd d2bc
00000090: 6196 7dbd f19c fa3d 8a4b da3d a5a9 213d
000000a0: b701 d3ba 6cd9 80bd 75df dfbd 9cf0 58bd
000000b0: 2ee0 7b3d 8ac9 903d 616c 3abd c5b3 95bd
000000c0: c8fc 09be

fc1.weight f4 [64, 64]
-0.025191575 -0.107644245 -0.0014988482 0.034349978 0.07052089 -0.0069408566 -0.10511291 0.04710065
-0.006404087 0.014302582 0.09767221 0.0461082 0.05940208 0.008643717 -0.07738721 -0.039127767
-0.018705204 -0.08464031 -0.12073302 -0.026324153 -0.047344163 -0.0018726289 -0.10270715 0.11202438
-0.0012416691 -0.10031791 0.10103646 0.011439487 -0.12271392 -0.0650564 0.08537941 -0.103060454
-0.026517257 -0.095300555 0.049549446 -0.11564675 -0.08185151 0.0008878708 -0.07038581 -0.079055816
0.0699735 0.110272795 0.031718552 0.044122532 0.05584131 0.12172897 0.02926232 -0.10041709
0.06314358 -0.021312937 -0.118591934 -0.08257571 -0.09465738 0.09389199 0.006838411 -0.033731773
-0.00812982 0.062266365 -0.09863627 0.03354463 0.12410794 -0.01051186 0.06980057 -0.025792092
-0.019432142 0.10806483 -0.06188053 0.008593455 0.09486705 0.028525695 -0.12255186 -0.0975814
-0.09128423 -0.03671679 -0.08647789 0.09077066 -0.020536557 0.026212037 -0.073735505 -0.081575006
-0.06767492 -0.051039785 0.009983912 -0.09312178 0.059649855 -0.11212252 -0.10791908 0.025809065
-0.016839892 -0.08028537 -0.052594393 0.091167495 -0.06621899 0.11831178 -0.013226241 -0.10805304
-0.03209853 0.06266858 -0.012148976 -0.0940675 0.123462975 0.029876456 0.02098696 0.042393744
-0.011655539 -0.0847494 -0.039656192 0.07720509 -0.107038796 0.054210827 0.107056186 -0.039385214
0.046829447 -0.0013344437 0.046944425 -0.108554184 0.1001253 0.043357 -0.08471401 0.06423187
0.049197078 -0.11822684 0.121617794 0.06738658 0.054185838 -0.029313758 0.09745553 -0.10012041
0.112261415 0.08410989 0.11264436 -0.03117074 -0.055669025 0.075550735 0.053472355 -0.014060363
-0.10921785 -0.00030951202 0.0365521 0.10895747 0.03138408 -0.04755315 0.0658101 -0.107361674
0.11440931 -0.07246649 0.11097266 0.09098658 -0.0362667 -0.039283782 0.07082029 0.085560024
-0.086931765 0.02540654 0.09911233 -0.08259764 -0.08123119 -0.0719289 -0.06525363 0.0018986166
-0.106116176 0.032197908 -0.070792615 0.09743446 -0.06183535 0.10300386 -0.082797915 -0.10330273
-0.10146099 0.040328965 0.047774687 -0.082268536 -0.018514037 0.081273705 -0.048991174 0.0539366
-0.12169832 -0.0919016 0.11749081 0.11248396 -0.017200321 0.12343693 -0.02818814 -0.04669705
-0.072984025 0.0018680692 -0.08457266 -0.02642043 0.0406224 0.0008031279 -0.09666625 -0.05871901
0.004194781 -0.07558736 -0.08796851 -0.08124296 0.035914615 -0.105645195 0.05137199 0.009061322
-0.00798209 -0.059247643 -0.09001291 0.07336542 0.09899825 -0.044041783 -0.08688162 -0.1080437
-0.022850126 0.123445645 0.08522774 0.06335376 -0.021125719 0.110153094 0.114278674 0.079800785
-0.011375487 -0.07114324 -0.11154316 0.065543726 -0.034465164 -0.0822112 -0.10156442 0.102639526
-0.07468568 -0.05353059 0.098096594 -0.07340732 -0.09621188 -0.055242434 -0.018729657 -0.06989148
0.06798801 0.0031102896 0.0032264143 0.022415072 0.059603527 0.082323 -0.05719298 0.08790025
0.083468795 0.08018793 -0.038888708 -0.01568918 -0.07347727 0.009514838 -0.0067512095 0.09083557
0.005899161 0.09925568 0.099842 0.073161274 -0.112666294 -0.09275584 0.10808705 0.06308755
00000000: 905e cebc 9674 dcbd 0075 c4ba 90b2 0c3d
00000010: 426d 903d 2070 e3bb 7045 d7bd 9cec 403d
00000020: 60d9 d1bb 6055 6a3c 5e08 c83d f4db 3c3d
00000030: 984f 733d 609e 0d3c 307d 9ebd 7044 20bd
00000040: a83b 99bc e657 adbd e042 f7bd c0a5 d7bc
00000050: f4eb 41bd 0073 f5ba 2058 d2bd 0a6d e53d
00000060: 80bf a2ba 7a73 cdbd 34ec ce3d b06c 3b3c
00000070: 7051 fbbd 4a3c 85bd 66db ae3d 5c11 d3bd
00000080: b83a d9bc f02c c3bd 5cf4 4a3d 34d8 ecbd
00000090: c4a1 a7bd 00c0 683a 7026 90bd 04e8 a1bd
000000a0: 444e 8f3d b4d6 e13d 50eb 013d d4b9 343d
000000b0: dcb9 643d 0a4d f93d 88b7 ef3c 7aa7 cdbd
000000c0: 6c51 813d 7898 aebc 54e0 f2bd 741d a9bd
000000d0: badb c1bd 724a c03d c014 e03b 542a 0abd
000000e0: f032 05bc 040b 7f3d d001 cabd 1866 093d
000000f0: 4e2c fe3d f039 2cbc 9af3 8e3d f049 d3bc
00000100: 2830 9fbc 1851 dd3d 7076 7dbd 90cb 0c3c
00000110: a849 c23d b8ae e93c 78fc fabd c2d8 c7bd
00000120: 3af3 babd 5864 16bd 521b b1bd f8e5 b93d
00000130: 483c a8bc a0ba d63c a402 97bd cc10 a7bd
00000140: 2699 8abd 180f 51bd 9093 233c a2b6 bebd
00000150: 6853 743d 7ea0 e5bd ae04 ddbd 886d d33c
00000160: d0f3 89bc a86c a4bd 386d 57bd 06b6 ba3d
00000170: d29d 87bd 724d f23d e0b2 58bc ea4a ddbd
00000180: c079 03bd 6258 803d 800c 47bc 76a6 c0bd
00000190: 28da fc3d 78bf f43c d8ec ab3c 10a5 2d3d
000001a0: e0f6 3ebc 1891 adbd 886e 22bd b41d 9e3d
000001b0: 2837 dbbd 2c0c 5e3d 4640 db3d 6452 21bd
000001c0: 3cd0 3f3d 80e8 aeba cc48 403d a851 debd
000001d0: 7e0e cd3d 1c97 313d 8a7e adbd 008c 833d
000001e0: e082 493d ea20 f2bd c012 f93d fa01 8a3d
000001f0: f8f1 5d3d 6823 f0bc c496 c73d ee0b cdbd
00000200: 50e9 e53d ce41 ac3d 16b2 e63d c859 ffbc
00000210: 3405 64bd 58ba 9a3d d405 5b3d 705d 66bc
00000220: 9cad dfbd 0046 a2b9 a8b7 153d 1825 df3d
00000230: 988c 003d 18c7 42bd 72c7 863d 70e0 dbbd
00000240: 6e4f ea3d 5069 94bd a245 e33d 2c57 ba3d
00000250: 648c 14bd 08e8 20bd 3a0a 913d 183a af3d
00000260: 4809 b2bd 6021 d03c 68fb ca3d f428 a9bd
00000270: 8a5c a6bd 764f 93bd b2a3 85bd 00db f83a
00000280: 7053 d9bd f4e1 033d b8fb 90bd b88b c73d
00000290: 1047 7dbd b0f3 d23d f491 a9bd 6290 d3bd
000002a0: c8ca cfbd fc2f 253d 64af 433d 687c a8bd
000002b0: c0aa 97bc d472 a63d f8aa 48bd a0ec 5c3d
000002c0: f83c f9bd e836 bcbd 069f f03d fe5d e63d
000002d0: b0e7 8cbc 80cc fc3d d0ea e6bc 6845 3fbd
000002e0: a678 95bd 00da f43a 6e34 adbd a86f d8bc
000002f0: ac63 263d 0089 523a f4f8 c5bd 5883 70bd
00000300: 6074 893b 8ccd 9abd d628 b4bd b662 a6bd
00000310: 341b 133d 825c d8bd 706b 523d f075 143c
00000320: 50c7 02bc a8ad 72bd b058 b8bd 9c40 963d
00000330: 98bf ca3d 2865 34bd feee b1bd 0446 ddbd
00000340: 3030 bbbc 12d1 fc3d e28b ae3d 9ebf 813d
00000350: d80f adbc f297 e13d f00a ea3d 986e a33d
00000360: 4060 3abc 8cb3 91bd be70 e4bd ca3b 863d
00000370: 582b 0dbd 585e a8bd 0201 d0bd ac34 d23d
00000380: cef4 98bd e442 5bbd dee6 c83d 9456 96bd
00000390: bc0a c5bd e445 62bd f06e 99bc 4423 8fbd
000003a0: 4c3d 8b3d 00d6 4b3b 4072 533b d09f b73c
000003b0: d422 743d f698 a83d 3043 6abd 0c05 b43d
000003c0: b0f1 aa3d 9239 a43d c449 1fbd 9886 80bc
000003d0: 407b 96bd 20e4 1b3c 4039 ddbb 0008 ba3d
000003e0: c04d c13b 9046 cb3d f679 cc3d 94d5 953d
000003f0: 96bd e6bd c6f6 bdbd be5c dd3d 0c34 813d

fc1.bias f4 [64]
0.10467479 0.078620434 -0.09055652 -0.105442286 0.044409364 0.057120904 0.029850915 -0.061570227
-0.0056417286 -0.119196564 -0.05399759 0.043946594 -0.01456295 0.013505846 0.07393798 0.08854075
-0.12230922 -0.07214163 0.08028577 -0.051086098 0.029623002 0.02055344 0.0081561655 0.038186952
0.08671743 -0.0866715 0.02087231 0.018464088 -0.06988391 -0.09150389 0.119792 0.04939848
-0.09943849 0.11611684 0.10772604 -0.037283033 -0.09824954 -0.075271204 0.12330222 -0.048279747
0.06539515 -0.055834994 -0.0981376 -0.0989272 0.06775898 0.041447163 0.0042586476 0.12229951
-0.07996501 -0.11521058 -0.071043566 0.09523599 0.05638218 -0.09170565 0.032167032 0.12355316
0.11955768 0.08156778 0.057956055 -0.011075884 -0.11556959 -0.020081371 0.10829057 -0.08438149
00000000: bc5f d63d c003 a13d b275 b9bd 20f2 d7bd
00000010: 98e6 353d 9cf7 693d e889 f43c 1031 7cbd
00000020: 40de b8bb 541d f4bd 942c 5dbd 5801 343d
00000030: 7099 6ebc a047 5d3c cc6c 973d da54 b53d
00000040: 427d fabd febe 93bd de6c a43d a83f 51bd
00000050: f0ab f23c b05f a83c 70a1 053c ec69 1c3d
00000060: e898 b13d d480 b1bd 68fc aa3c 0042 973c
00000070: 4c1f 8fbd 6466 bbbd 8255 f53d 1056 4a3d
00000080: 68a6 cbbd aace ed3d 789f dc3d 18b6 18bd
00000090: 0e37 c9bd ca27 9abd e085 fc3d fcc0 45bd
000000a0: e4ed 853d 3cb3 64bd 5efc c8bd 589a cabd
000000b0: 38c5 8a3d 80c4 293d 208c 8b3b 2a78 fa3d
000000c0: b2c4 a3bd 86f3 ebbd 4a7f 91bd 160b c33d
000000d0: 00f1 663d 2cd0 bbbd 94c1 033d 7009 fd3d
000000e0: a8da f43d 020d a73d 5463 6d3d a077 35bc
000000f0: c0af ecbd b081 a4bc 72c7 dd3d 34d0 acbd

fc2.weight f4 [10, 64]
0.10881248 0.116454154 -0.111280054 -0.06743702 0.09488921 0.1093044 -0.010551736 0.08065343
0.0771974 -0.013734072 -0.089635074 0.06605989 0.03398335 -0.0041675866 0.094618544 -0.12084639
-0.06827216 0.10673629 0.0550773 -0.046027794 -0.04612921 -0.09277871 -0.06335692 0.11445722
0.08319944 0.11072895 0.11823535 -0.11092816 -0.10944821 -0.07787366 0.10540934 0.07725294
-0.073027804 -0.0062470883 0.012314647 0.1045489 0.03997776 -0.06884335 -0.02113308 0.009953424
-0.096902594 0.10045777 -0.08288242 0.060480535 0.10010654 0.06406033 -0.099138245 0.02806352
-0.009695098 -0.002192393 -0.11432761 0.122073665 -0.07495476 -0.107136905 -0.0934684 0.055527985
-0.115865484 0.04517685 -0.10906996 0.016691655 0.009063393 -0.039507702 -0.11029823 0.031008631
0.11668444 0.07453486 -0.04427974 0.11167686 -0.04668756 -0.12058009 0.012083009 -0.015190765
0.071722284 0.02809313 0.0019821078 -0.11026813 -0.11668716 -0.055310547 -0.11050585 -0.07653552
-0.077452436 -0.03198798 0.051430732 0.11821413 -0.0040319264 0.08740762 0.03869757 -0.042352602
-0.099405825 0.07482347 0.09507601 0.108857915 -0.11913827 -0.119932204 -0.088204056 -0.04745397
0.0040976703 -0.03344679 0.09823769 0.013648957 0.12073876 -0.08255136 -0.0002542585 0.11677222
0.098109856 0.010487318 0.11518799 -0.050341383 0.06807326 -0.040710315 0.059135973 -0.11942427
-0.118140385 -8.0525875e-05 -0.045827493 0.025191143 -0.034548342 -0.10361059 -0.03939879 -0.002691552
-0.029975817 -0.122484714 0.10028677 -0.110685065 0.037334517 0.092546344 -0.10878301 -0.002525583
-0.04421307 -0.061800256 -0.0011879355 0.034310028 0.038965702 -0.0032441914 -0.022857666 -0.043017715
-0.0961142 -0.059879243 0.09814994 0.002692297 0.00795418 0.10920352 -0.121540844 0.086412445
-0.047022685 -0.04060927 0.07788071 0.058639392 -0.06467134 0.051208317 0.12495385 -0.06171392
0.031099498 -0.11631061 0.025329307 0.09867115 0.013553679 -0.01454936 0.051185012 0.039646238
0.053292528 -0.10567717 0.037058145 -0.008071363 -0.017445117 0.075730994 -0.053123504 -0.0890864
0.06872223 -0.027960435 0.05933252 -0.024453402 0.07530883 0.045555785 -0.10138066 -0.118906885
0.024578959 -0.08814767 -0.05656901 0.09323931 0.12119129 -0.053431526 -0.06846829 -0.049238995
-0.05397655 -0.040938184 -0.07780892 -0.04587722 -0.027001664 -0.03736323 0.07134698 -0.06032422
0.026193991 0.030071303 0.10836418 -0.05116421 -0.070321724 0.08319068 0.022797585 -0.079312295
-0.03240916 -0.0841963 0.090382084 -0.0881459 0.11234011 0.099097416 0.09063633 0.11821744
0.018945843 -0.09414454 0.09255166 -0.0645134 -0.06787723 -0.041776046 0.08291225 -0.07572557
-0.1223207 -0.055219054 -0.09644516 0.069634676 -0.06937584 0.05294627 -0.018859714 -0.032730624
-0.106688544 -0.06219764 -0.039273366 -0.11383203 0.042556018 -0.04312046 0.00864017 0.08432455
-0.0703184 0.05017495 -0.034037918 -0.034947574 -0.07196885 0.06176302 0.038686067 -0.037636846
0.020316184 -0.018897727 -0.035933137 0.11566226 0.023336172 -0.07116623 0.11577296 0.06921886
-0.09918772 0.121116325 -0.06432241 -0.057949677 -0.119927585 0.034621462 0.11637208 0.05534403
00000000: 14d9 de3d 847f ee3d cce6 e3bd 6c1c 8abd
00000010: 4655 c23d fcda df3d 30e1 2cbc a02d a53d
00000020: ac19 9e3d e004 61bc 9892 b7bd 684a 873d
00000030: 2032 0b3d 4090 88bb 5ec7 c13d 507e f7bd
00000040: 46d2 8bbd 8e98 da3d bc98 613d a487 3cbd
00000050: fcf1 3cbd c402 bebd 46c1 81bd 8c68 ea3d
00000060: 7864 aa3d dcc5 e23d 6025 f23d 4e2e e3bd
00000070: 6226 e0bd 3a7c 9fbd dae0 d73d ca36 9e3d
00000080: 9a8f 95bd 60b4 ccbb 60c3 493c bc1d d63d
00000090: b8bf 233d befd 8cbd 481f adbc b013 233c
000000a0: de74 c6bd cebc cd3d 42be a9bd 70ba 773d
000000b0: a804 cd3d 1032 833d fe08 cbbd 78e5 e53c
000000c0: 30d8 1ebc 40ae 0fbb 9824 eabd c201 fa3d
000000d0: e281 99bd 986a dbbd 5c6c bfbd 5071 633d
000000e0: e24a edbd 5c0b 393d 1260 dfbd f0bc 883c
000000f0: a07e 143c d4d2 21bd 0ae4 e1bd d005 fe3c
00000100: 40f8 ee3d bca5 983d ac5e 35bd d6b6 e43d
00000110: 743b 3fbd b2f2 f6bd d0f7 453c b0e2 78bc
00000120: 22e3 923d 9023 e63c 40e6 013b 42d4 e1bd
00000130: aef9 eebd 508d 62bd e450 e2bd a8be 9cbd
00000140: 629f 9ebd d405 03bd 08a9 523d 401a f23d
00000150: 401e 84bb c402 b33d 5881 1e3d ec79 2dbd
00000160: 4895 cbbd 0c3d 993d 36b7 c23d e6f0 de3d
00000170: c4fe f3bd 049f f5bd 54a4 b4bd 185f 42bd
00000180: c045 863b 80ff 08bd d830 c93d e09f 5f3c
00000190: e245 f73d b010 a9bd 004e 85b9 4626 ef3d
000001a0: d2ed c83d 00d3 2b3c aee7 eb3d c432 4ebd
000001b0: fe69 8b3d dcbf 26bd 9038 723d b694 f4bd
000001c0: 96f3 f1bd 00e0 a8b8 9cb5 3bbd a85d ce3c
000001d0: 9082 0dbd ca31 d4bd a060 21bd c064 30bb
000001e0: d88f f5bc 44d9 fabd 2663 cd3d daae e2bd
000001f0: 14ec 183d f088 bd3d a0c9 debd 4084 25bb
00000200: c418 35bd 4422 7dbd 80b4 9bba ac88 0c3d
00000210: 809a 1f3d 809c 54bb 0040 bbbc 5833 30bd
00000220: 86d7 c4bd f043 75bd d602 c93d 4071 303b
00000230: 4052 023c 18a6 df3d 68ea f8bd 02f9 b03d
00000240: dc9a 40bd e855 26bd ec7f 9f3d dc2f 703d
00000250: 6872 84bd d0bf 513d cee7 ff3d bcc7 7cbd
00000260: 60c4 fe3c 4234 eebd 687f cf3c 1a14 ca3d
00000270: 4010 5e3c 7060 6ebc 60a7 513d 1864 223d
00000280: 4449 5a3d 466d d8bd 48ca 173d c03d 04bc
00000290: 10e9 8ebc da18 9b3d 0898 59bd ee72 b6bd
000002a0: 3ebe 8c3d 480d e5bc a806 733d 8052 c8bc
000002b0: 843b 9a3d b498 3a3d aaa0 cfbd 7485 f3bd
000002c0: d059 c93c c486 b4bd e8b4 67bd 40f4 be3d
000002d0: 2433 f83d 04db 5abd 1a39 8cbd d4ae 49bd
000002e0: 8416 5dbd ccae 27bd 485a 9fbd c0e9 3bbd
000002f0: 9832 ddbc 300a 19bd 5e1e 923d 8816 77bd
00000300: c894 d63c 1858 f63c 0aee dd3d 9091 51bd
00000310: d604 90bd e05f aa3d 00c2 ba3c 7c6e a2bd
00000320: 78bf 04bd 1c6f acbd 3e1a b93d d685 b4bd
00000330: 9212 e63d 96f3 ca3d 8a9f b93d fc1b f23d
00000340: 5034 9b3c dace c0bd ba8b bd3d 9a1f 84bd
00000350: 3803 8bbd 5c1d 2bbd e6cd a93d 0216 9bbd
00000360: 4683 fabd 602d 62bd 0a85 c5bd a09c 8e3d
00000370: ec14 8ebd 30de 583d b07f 9abc 8c10 06bd
00000380: 867f dabd f4c2 7ebd 1cdd 20bd c420 e9bd
00000390: 384f 2e3d 149f 30bd 808f 0d3c 5ab2 ac3d
000003a0: 1803 90bd 4084 4d3d 586b 0bbd 3025 0fbd
000003b0: 6864 93bd 38fb 7c3d 4875 1e3d 1829 1abd
000003c0: 206e a63c 68cf 9abc a02e 13bd 56e0 ec3d
000003d0: 802b bf3c 9abf 91bd 601a ed3d 9ec2 8d3d
000003e0: ee22 cbbd d60b f83d 78bb 83bd a45c 6dbd
000003f0: 989c f5bd 3ccf 0d3d 7c54 ee3d 6cb0 623d

fc2.bias f4 [10]
0.122675985 -0.08882885 -0.06953989 0.017342031 -0.093046814 -0.09935747 0.09525967 0.046566084
0.10265921 -0.07190953
00000000: 8c3d fb3d e6eb b5bd ee6a 8ebd e010 8e3c
00000010: 548f bebd ee7b cbbd 8017 c33d 14bc 3e3d
00000020: fe3e d23d 4e45 93bd
