parameters/MNIST/original-model.pth (torch, 71822 bytes, 6 tensors)

conv1.weight f4 [4, 1, 7, 7]
0	0x3c05f86e	0.008176906
1	0xbdc5feb3	-0.09667721
2	0x3de26cfc	0.11055943
3	0x3d0e502e	0.034744434
4	0xbe04dc80	-0.12974739
5	0xbd05e6b7	-0.03269073
6	0xbda06ad5	-0.078328766
7	0x3da602de	0.081060156
8	0xbdac8317	-0.08423441
9	0xbdb745ea	-0.08948882
10	0x3deb62ec	0.11493477
11	0x3e100902	0.14065936
12	0xbc4078dc	-0.011747565
13	0x3d8cf3e7	0.06882458
14	0xbc4d0a6e	-0.012514694
15	0xbd09422a	-0.033510365
16	0x3dab6911	0.08369649
17	0xbda9678a	-0.08271702
18	0x3bc24f4a	0.005929862
19	0xbe0ff388	-0.14057744
20	0xbc800bd3	-0.015630638
21	0xbe06c0f0	-0.13159537
22	0x3da4509a	0.08023186
23	0x3d9bfbe0	0.07616401
24	0x3db3d08e	0.08780013
25	0x3de33ec1	0.11095954
26	0x3dd527c1	0.10407973
27	0xbd11d117	-0.035599794
28	0x3d9719e7	0.07377987
29	0x3e116d26	0.14201793
30	0x3d679a45	0.056543607
31	0xbded7683	-0.1159487
32	0xbdfeb34c	-0.12436542
33	0x3d867ea5	0.06567124
34	0xbd37c585	-0.044866104
35	0xbcd2fd65	-0.025755594
36	0xbd7d9661	-0.06191099
37	0x3dfa9cf1	0.122369654
38	0x3dda4b8a	0.10658939
39	0x3d21a9a5	0.039468426
40	0xbad301b7	-0.0016098534
41	0xbd80d96c	-0.0629147
42	0xbddfdf75	-0.10931293
43	0xbd58f09c	-0.052963838
44	0x3d7be02e	0.06149309
45	0x3d90c98a	0.070696905
46	0xbd3a6c61	-0.045513514
47	0xbd95b3c5	-0.07309679
48	0xbe09fcc8	-0.13475335
49	0xbdd7998c	-0.105273336
50	0xbcebd9ca	-0.028790373
51	0xbdfbf2f5	-0.123022
52	0xbae085b8	-0.0017129695
53	0x3d20cc13	0.03925712
54	0x3da50f27	0.08059531
55	0xbc01f6ee	-0.007932408
56	0xbdf60638	-0.12012905
57	0x3d5c7c21	0.053829316
58	0xbbefd3dc	-0.007318957
59	0x3c85e7a5	0.016345808
60	0x3de49bda	0.11162539
61	0x3d57d6ce	0.052695088
62	0x3d8b08ea	0.067888096
63	0x3c21d993	0.009878534
64	0xbdb5215c	-0.088442534
65	0xbd3729a5	-0.04471745
66	0xbcaf1f9c	-0.021377377
67	0xbdc61b51	-0.09673179
68	0xbe0d4aca	-0.13798061
69	0xbcf6744a	-0.030084748
70	0xbd5d9ff3	-0.054107618
71	0xbb0c41b7	-0.0021401474
72	0xbdf064b8	-0.117379606
73	0x3e0319bd	0.12802787
74	0xbab9ff6e	-0.0014190504
75	0xbdeacd1e	-0.11464904
76	0x3dec7baa	0.115470245
77	0x3c563313	0.0130737005
78	0xbe0f9c40	-0.14024448
79	0xbd9844e7	-0.07435017
80	0x3dc7d62c	0.09757647
81	0xbdf1386a	-0.11778338
82	0xbcf8431c	-0.030305438
83	0xbddf0eca	-0.10891493
84	0x3d67f2b3	0.05662794
85	0xbe0756fa	-0.13216773
86	0xbdbf944e	-0.09354459
87	0x3a850000	0.0010147095
88	0xbda4be37	-0.08044093
89	0xbdb9092a	-0.09034951
90	0x3da3c72a	0.07996972
91	0x3e010cfa	0.12602606
92	0x3d147aa5	0.036249775
93	0x3d4e8b3c	0.050425753
94	0x3d82b35a	0.06381865
95	0x3e0e752b	0.13911884
96	0x3d08fb2a	0.033442654
97	0xbdeb088c	-0.114762396
98	0x3d93cac5	0.072164096
99	0xbcc789ae	-0.024357643
100	0xbe0ac955	-0.13553365
101	0xbdc1463c	-0.09437224
102	0xbddd8d68	-0.10817987
103	0x3ddbc2cc	0.10730514
104	0x3c000bdc	0.0078153275
105	0xbd1de73c	-0.0385506
106	0xbc183a37	-0.009291223
107	0x3d91bd27	0.07116156
108	0xbde6dd81	-0.11272717
109	0x3d1d06f7	0.03833672
110	0x3e113de4	0.14183766
111	0xbc44d481	-0.0120135555
112	0x3da35f8c	0.079772085
113	0xbcf17913	-0.029476678
114	0xbcb5ede5	-0.022208164
115	0x3dfceef8	0.12350267
116	0xbd90d5f7	-0.070720606
117	0x3c20e8a5	0.009821092
118	0x3dde0b0a	0.10841949
119	0x3d05886a	0.032600798
120	0xbe0f6bb3	-0.14005928
121	0xbde46571	-0.11152161
122	0xbdd5a843	-0.10432484
123	0xbd2be065	-0.041962046
124	0xbdca685e	-0.09883188
125	0x3dd4748a	0.103737906
126	0xbcc044e5	-0.023470351
127	0x3cf56793	0.029956615
128	0xbdac954e	-0.08426915
129	0xbdbeeea1	-0.093228586
130	0xbd9e65e3	-0.07734277
131	0xbd6eecae	-0.058331184
132	0x3c3af1ca	0.011410186
133	0xbdd9f54c	-0.1064249
134	0x3d8b9d60	0.06817126
135	0xbe033724	-0.12814003
136	0xbdfc97a3	-0.1233361
137	0x3cf1a1c1	0.029496076
138	0xbc9da8ee	-0.019245591
139	0xbdbbe9e5	-0.09175471
140	0xbd7633ae	-0.06010788
141	0x3dd56251	0.10419143
142	0xbd9afd83	-0.07567885
143	0x3e0a7566	0.13521346
144	0xbc77a7dc	-0.015115704
145	0xbdfce7e8	-0.1234892
146	0xbd164200	-0.036684036
147	0x3d92ae27	0.07162123
148	0xbc637c01	-0.013884545
149	0xbddc2bf5	-0.10750572
150	0x3e107caa	0.14110056
151	0x3d0bdb20	0.03414452
152	0x3cc47c65	0.023985097
153	0x3d467381	0.048449997
154	0xbc5a3eb7	-0.013320616
155	0xbdc65cae	-0.09685646
156	0xbd39a2e5	-0.045321364
157	0x3db4b43c	0.088234395
158	0xbdfa882e	-0.122330055
159	0x3d7dc4c5	0.061955232
160	0x3dfa929a	0.12234993
161	0xbd385e2a	-0.045011677
162	0x3d5b3721	0.053519372
163	0xbac7e525	-0.0015250786
164	0x3d5bc0ea	0.053650774
165	0xbdfe142e	-0.12406193
166	0x3dea59b5	0.114428915
167	0x3d4af5d7	0.049550857
168	0xbdc6477a	-0.09681602
169	0x3d9656dc	0.07340786
170	0x3d664c6e	0.056225233
171	0xbe0a5bf4	-0.1351164
172	0x3e0e53dc	0.13899177
173	0x3d9db91e	0.07701324
174	0x3d7da6d3	0.061926674
175	0xbd0938ce	-0.03350144
176	0x3de41a05	0.11137775
177	0xbdea56c8	-0.114423335
178	0x3e0360c0	0.12829876
179	0x3dc4dd7e	0.09612559
180	0x3e03d37b	0.12873642
181	0xbd11ea2a	-0.035623707
182	0xbd824c1e	-0.063621745
183	0x3db0d4f7	0.0863437
184	0x3d7a4fce	0.061111264
185	0xbc83a31c	-0.016068988
186	0xbdffa1d8	-0.12482041
187	0xb9b97493	-0.00035372804
188	0x3d2b1b0a	0.041773833
189	0x3dff05d3	0.12452283
190	0x3d12e9d3	0.035867523
191	0xbd5e9a65	-0.05434646
192	0x3d9a0883	0.07521155
193	0xbdfb49a5	-0.12269906
194	0x3e05e43f	0.1307535
195	0xbda99cee	-0.08281885

conv1.bias f4 [4]
0	0x3e01dea6	0.1268259
1	0x3dd4f5ea	0.10398467
2	0xbd29c505	-0.041447658
3	0xbd37e49c	-0.044895753

fc1.weight f4 [64, 256]
0	0x3d110a3a	0.035410143
1	0x3d2f3a18	0.042780012
2	0xbd320948	-0.043465883
3	0x3c502160	0.01270327
4	0x3d4afb68	0.049556166
5	0xbd2928f4	-0.04129882
6	0xbd265c8a	-0.040615596
7	0xbd134f76	-0.03596445
8	0xbd05a3b2	-0.032626815
9	0x3a78db00	0.0009493083
10	0xbd595370	-0.053058088
11	0x3c83e1f4	0.016098954
12	0xbd10fbb8	-0.035396308
13	0x3d478bb8	0.04871723
14	0xbcfd4710	-0.030917674
15	0x3d52f3b0	0.05150193
16	0xbd2991f4	-0.041398957
17	0xbd539062	-0.051651366
18	0xbd4fcac8	-0.050730497
19	0x3ca52ffc	0.020164482
20	0x3cc3af64	0.023887344
21	0xbd287c68	-0.041134268
22	0xbc17aac0	-0.009257019
23	0x3d2672d4	0.040636852
24	0xbcc8aaf8	-0.024495587
25	0x3cdceca0	0.0269683
26	0xbd793cf8	-0.06084916
27	0xbd3c36e8	-0.0459508
28	0x3d709f06	0.058745407
29	0x3d665dfe	0.05624198
30	0xbc0ce7b0	-0.0086001605
31	0x3d7ccc80	0.061718464
32	0xbc66ead0	-0.01409407
33	0xbcbf4568	-0.023348525
34	0xbd1578a6	-0.036492012
35	0x3a74da00	0.0009340346
36	0xbd2d346e	-0.04228633
37	0xbc586fa8	-0.013210215
38	0x3ca663ac	0.0203112
39	0x39d28900	0.00040156394
40	0xbd45f8f4	-0.048333123
41	0xbcf08358	-0.029359505
42	0x3b097460	0.0020973906
43	0xbd1acd8c	-0.03779368
44	0xbd3428d6	-0.043984257
45	0xbd2662b6	-0.04062148
46	0x3c931b34	0.017957307
47	0xbd585c82	-0.052822597
48	0x3cd26b70	0.025685996
49	0x3b9475f0	0.004530661
50	0xbb82c750	-0.003991045
51	0xbcf2ada8	-0.029623821
52	0xbd3858b0	-0.045006454
53	0x3d16409c	0.03668271
54	0x3d4abf98	0.049499124
55	0xbcb46528	-0.022020891
56	0xbd31eefe	-0.04344081
57	0xbd5d4604	-0.05402185
58	0xbc3b3030	-0.011425063
59	0x3d7cd112	0.061722822
60	0x3d2e8be2	0.04261387
61	0x3d01bf9e	0.03167688
62	0xbc2d0fd8	-0.0105628595
63	0x3d6197f2	0.055076547
64	0x3d6a0af0	0.057139337
65	0x3d236e98	0.039900392
66	0xbbba6040	-0.0056877434
67	0xbd11b38c	-0.03557162
68	0xbd6470be	-0.05577158
69	0x3d063bca	0.032771863
70	0xbc8d2b58	-0.017232582
71	0xbd285e58	-0.0411056
72	0xbd500102	-0.05078221
73	0x3d5234ac	0.051319763
74	0xbd18f4ce	-0.03734284
75	0xbcdb42e4	-0.026765294
76	0x3d48e6de	0.049048297
77	0xbd165694	-0.03670366
78	0xbd450abc	-0.04810594
79	0xbce245e4	-0.027621217
80	0xbc196ef0	-0.0093648285
81	0xbd0f2344	-0.03494574
82	0x3d0b3d4c	0.033994004
83	0x3acbd600	0.0015551448
84	0x3ad37240	0.0016132072
85	0x3c379fd0	0.011207536
86	0x3cf422d4	0.029801764
87	0x3d2898f6	0.0411615
88	0xbcea4330	-0.02859649
89	0x3d34050c	0.043950126
90	0x3d2af1b0	0.041734397
91	0x3d243992	0.040093966
92	0xbc9f49c4	-0.019444354
93	0xbc008698	-0.00784459
94	0xbd167b40	-0.036738634
95	0x3b9be420	0.004757419
96	0xbb5d3940	-0.0033756047
97	0x3d3a0800	0.045417786
98	0x3b414dc0	0.0029495806
99	0x3d4b4690	0.04962784
100	0x3d4c79f6	0.049921
101	0x3d15d594	0.036580637
102	0xbd66bd96	-0.056333147
103	0xbd3df6c6	-0.04637792
104	0x3d5d5cbe	0.054043524
105	0x3d01340c	0.031543776
106	0x3d0eccba	0.03486321
107	0xbc5efb20	-0.013609678
108	0x3c9f1354	0.019418396
109	0xbc800794	-0.015628614
110	0x3b8b8d70	0.004258804
111	0x39315000	0.00016909838
112	0xbd0d331e	-0.034472577
113	0xbc34d5e8	-0.011037327
114	0x3c21c670	0.009873971
115	0xbd488332	-0.048953243
116	0xbd2061ce	-0.039155774
117	0x3cf26c38	0.029592618
118	0x3d047a48	0.03234318
119	0xbcd5ccc0	-0.026098609
120	0xbcba1884	-0.022716768
121	0x3c940da0	0.018072903
122	0x3bce7680	0.0063007474
123	0x3d484144	0.048890367
124	0xbd46a770	-0.048499525
125	0x3cb47018	0.022026107
126	0xbd3632ba	-0.04448197
127	0x39df6100	0.00042606145
128	0x3c0d9e08	0.008643635
129	0x3d33f9ea	0.04393951
130	0xbd68eb16	-0.05686482
131	0xbd41208e	-0.047150187
132	0xbd3af6e6	-0.045645617
133	0x3c258200	0.010101795
134	0x3d60141c	0.054706678
135	0x3cabff60	0.020995796
136	0xbc3ab018	-0.011394523
137	0xbd4ce000	-0.05001831
138	0xbcc25f20	-0.023727
139	0x3cd81808	0.026378646
140	0xbd4ec128	-0.050477177
141	0x3d0abe70	0.03387302
142	0xbbb78020	-0.0055999905
143	0x3c818ba0	0.015813649
144	0x3cb23bc8	0.021757022
145	0xbc322d78	-0.010875098
146	0xbc772208	-0.015083797
147	0x3a2d4600	0.0006609857
148	0x3d5e5bcc	0.054286763
149	0x3b8df950	0.004332699
150	0xbd055dd6	-0.032560192
151	0xbcc15e24	-0.02360446
152	0xbc88cc24	-0.016698904
153	0x3d63effe	0.055648796
154	0xbc95343c	-0.018213384
155	0xbb81b1f0	-0.0039579794
156	0x3a03fc80	0.0005034879
157	0xbd727e30	-0.059202373
158	0x3d27856e	0.040898733
159	0x3d067d82	0.032834537
160	0x3d043d2c	0.0322849
161	0x3beb0760	0.00717251
162	0xbc530140	-0.012878716
163	0xbd73e84e	-0.059547715
164	0x3cd5328c	0.02602508
165	0x3cf1593c	0.029461496
166	0xbd0f3980	-0.034966946
167	0xbc6dde20	-0.014518291
168	0xbcf83dd4	-0.03030292
169	0x3cda37c8	0.026637927
170	0xbb40ddc0	-0.0029429048
171	0x3d2478bc	0.040154204
172	0x3c87d5bc	0.016581409
173	0xbd451c36	-0.048122607
174	0x3d6c5504	0.057698265
175	0x3ca3da08	0.020001426
176	0xbd4b3940	-0.049615145
177	0xbd1889ae	-0.037240677
178	0xbc7adee0	-0.015311927
179	0xbd7dd066	-0.061966322
180	0x3d28d29c	0.041216478
181	0xbcc5e4a0	-0.024156868
182	0x3d2a69ee	0.04160493
183	0x3c8bece4	0.017080732
184	0x3d4ba484	0.04971744
185	0x3d4b773c	0.049674258
186	0xbb0ab580	-0.0021165311
187	0x3c3467a0	0.011011034
188	0x3d4eac80	0.050457478
189	0xbc96c2a0	-0.018403351
190	0x3d038a50	0.032114327
191	0xbd1bc3da	-0.038028575
192	0x3caddfec	0.021224938
193	0xbd563060	-0.052292228
194	0xbd7f05cc	-0.062261388
195	0xbc2b8bb0	-0.010470316
196	0x3d25083a	0.04029105
197	0xbd17ef32	-0.03709335
198	0x3c7ffcd8	0.0156242475
199	0xbd54871c	-0.051886663
200	0xbc8a2ac0	-0.016866088
201	0x3d4f19ee	0.050561838
202	0xbd1674d2	-0.036732502
203	0x3ce79220	0.02826792
204	0xbd614648	-0.054998666
205	0x3d05aa3c	0.03263305
206	0xbcee8288	-0.029114977
207	0x3c74e618	0.014947437
208	0xbbdeed40	-0.0068031847
209	0xbc08d0f0	-0.008350596
210	0xbd2e24ec	-0.04251568
211	0x3bd84bd0	0.0066008344
212	0x3d4310b0	0.047623336
213	0xbd687be2	-0.05675877
214	0x3b6362e0	0.0034696385
215	0x3c1fbe88	0.009750016
216	0x3d714c2a	0.058910526
217	0xbd7bc176	-0.061463796
218	0xbc0671f0	-0.008205876
219	0x3cf68db0	0.030096859
220	0x3cb5eb0c	0.022206806
221	0xbc5c94e8	-0.013463236
222	0x3bd5fa60	0.006530091
223	0x3d57e438	0.05270788
224	0x3d2d271c	0.042273626
225	0xbc9f2e40	-0.019431233
226	0xbc8bad94	-0.017050542
227	0xbcfb2d78	-0.03066133
228	0x3c44e308	0.012017019
229	0xbd45e23e	-0.048311464
230	0xbc8e63f0	-0.017381638
231	0xbd45bb1e	-0.048274152
232	0xbd14b6a4	-0.036306992
233	0xbcdfec6c	-0.027334414
234	0x3c11a348	0.008889027
235	0xbcb7b4bc	-0.022425048
236	0xbb9b79d0	-0.004744746
237	0xbca0d550	-0.019632965
238	0xbc64dc18	-0.01396849
239	0xbbf09a00	-0.007342577
240	0xbbcb4a60	-0.0062039346
241	0xbb8abed0	-0.0042341724
242	0x3c2f3878	0.010694616
243	0xbd1a5574	-0.03767915
244	0xbcb67cfc	-0.022276394
245	0x3c390290	0.011292115
246	0xbd53aaba	-0.05167649
247	0x3d3e75fc	0.046499237
248	0x3cf7b3a0	0.030237019
249	0xbc363480	-0.011120915
250	0x3d5983e2	0.05310429
251	0xbc456bf0	-0.01204966
252	0xbc8bfa04	-0.01708699
253	0x3d57d724	0.05269541
254	0xbccb2978	-0.024800047
255	0x3c52b3a0	0.012860209

fc1.bias f4 [64]
0	0xbd103e4e	-0.03521567
1	0xbcabaa28	-0.02095516
2	0xbcab6c30	-0.020925611
3	0xba5c7700	-0.00084100664
4	0xbc93de08	-0.018050209
5	0x3c8a3c24	0.01687438
6	0xbd2fdb52	-0.04293377
7	0xbcce7230	-0.025200933
8	0xbd0dd560	-0.03462732
9	0x3d537c40	0.051632166
10	0x3c1fdbe0	0.009757012
11	0xbb677a40	-0.003532067
12	0x3c108aa8	0.008822121
13	0xbcffa3c4	-0.03120602
14	0x3c4f1bb8	0.012640886
15	0x3cfed21c	0.031106047
16	0x3d57dd0c	0.05270104
17	0xbd1c10f6	-0.038102113
18	0x3c4f79c8	0.012663312
19	0x3d736b96	0.059428774
20	0xbd346362	-0.04404009
21	0x3c2c0058	0.010498129
22	0x3cb27f00	0.021789074
23	0x3d7461ca	0.05966357
24	0xbcf193e8	-0.029489473
25	0x3bac83e0	0.005264744
26	0x3d43d374	0.04780908
27	0xb9567800	-0.00020453334
28	0xbd470890	-0.04859215
29	0xbd5bdef4	-0.05367942
30	0x3d449cde	0.048001163
31	0x3c3e3fd8	0.011611901
32	0xbc886738	-0.016650781
33	0x3bdfbec0	0.006828159
34	0xbcbfa248	-0.023392811
35	0x39b69500	0.0003482476
36	0xbcab32d0	-0.020898253
37	0xbd7421c2	-0.059602506
38	0xbbf9d120	-0.0076238066
39	0x3d1567a0	0.036475778
40	0xbd19c466	-0.037540816
41	0xbd7ba27a	-0.061434247
42	0xbb3806c0	-0.0028080195
43	0xbc049e70	-0.008094415
44	0x3d0b4c1c	0.03400813
45	0x3d0fa244	0.035066858
46	0xbcef7258	-0.029229328
47	0xbba69060	-0.005083129
48	0xbac729c0	-0.0015194938
49	0x3ca49d40	0.020094514
50	0x3c19b160	0.009380668
51	0x3d6dad38	0.058026522
52	0x3c6e3ab8	0.014540367
53	0xbd36d020	-0.044632077
54	0x3d44ec12	0.048076697
55	0xbcaf1dcc	-0.021376513
56	0x3d4967aa	0.049171127
57	0xbcbc6d30	-0.023001283
58	0x3d487910	0.04894358
59	0x3c61f4d8	0.013791285
60	0xbc9079a8	-0.017636135
61	0x3cb0ffcc	0.021606348
62	0xbcaa312c	-0.0207754
63	0xbd4b115a	-0.049577095

fc2.weight f4 [10, 64]
0	0x3d482cd0	0.04887086
1	0x3de70ca6	0.112817094
2	0xbdcbc1c0	-0.09949064
3	0xbd28b064	-0.041183844
4	0xbdc663c8	-0.096870005
5	0xbaaf4200	-0.001337111
6	0x3debd8d2	0.115159646
7	0xbd05a780	-0.032630444
8	0x3d88c86e	0.06678854
9	0xbb954700	-0.004555583
10	0x3cc9a0f0	0.024612874
11	0xbcf80800	-0.030277252
12	0x3d5508dc	0.052010402
13	0xbd3bea30	-0.045877635
14	0x3c344290	0.011002198
15	0x3deafe10	0.1147424
16	0xbdb3f2d6	-0.08786552
17	0x3de3e23a	0.11127134
18	0x3ddfdabc	0.10930392
19	0x3ded75d2	0.11594738
20	0xbd4a1dc0	-0.049344778
21	0xbcb4d4c8	-0.022074118
22	0x3d86432e	0.06555782
23	0xbdba1eee	-0.090879306
24	0xbd0e5ebc	-0.034758314
25	0x3dbc4266	0.09192352
26	0x3d5b81a0	0.053590417
27	0xbda174ee	-0.07883631
28	0x3b95e860	0.0045748204
29	0x3b60ef80	0.003432244
30	0xba808180	-0.0009804219
31	0x3d66ae50	0.05631858
32	0x3b9dbd20	0.004813805
33	0x3d3d4f80	0.046218395
34	0xbdd183d6	-0.10230224
35	0xbdbaff9c	-0.09130785
36	0x3d1851a4	0.037187234
37	0xbdf81e80	-0.121151924
38	0xbd09706c	-0.03355448
39	0xbd274604	-0.040838256
40	0x3df56c90	0.11983597
41	0x3dd1522c	0.10220751
42	0xbd7a8174	-0.061158612
43	0xbdc97c86	-0.09838204
44	0x3df2de96	0.11858861
45	0xbde0845a	-0.10962744
46	0xbd805f66	-0.06268196
47	0x3db17dd6	0.086665794
48	0xbb975080	-0.0046177506
49	0xbd186024	-0.03720106
50	0xbcee0d50	-0.029059082
51	0xbcf6d690	-0.030131608
52	0xbd02f504	-0.031971946
53	0x3cc1bdd8	0.023650095
54	0xbdc0f42a	-0.094215706
55	0x3ddad43e	0.10685013
56	0xbd336fec	-0.04380791
57	0xbdf066c2	-0.117383495
58	0xbce09b68	-0.027417853
59	0x3d2b4d8c	0.041822
60	0x3cea40e8	0.028595403
61	0x3da51cfa	0.080621675
62	0x3d0e2334	0.03470154
63	0x3d8e208c	0.069398016
64	0x3d5759d4	0.0525759
65	0x3d12eba4	0.035869256
66	0x3cad1ac8	0.021130934
67	0x3d1b1d58	0.03786978
68	0xbd7be8dc	-0.06150137
69	0x3cac2620	0.021014273
70	0x3dfe2140	0.12408686
71	0x3dbaea54	0.09126726
72	0x3d63f77c	0.05565594
73	0x3dbcc1b6	0.09216635
74	0xbda7c792	-0.08192362
75	0xbc65c6d0	-0.014024451
76	0x3deb9768	0.11503488
77	0xbc1865b0	-0.009301588
78	0x3d6968b0	0.056984603
79	0xbd2043e8	-0.03912726
80	0xbc2321d0	-0.009956792
81	0xbb99eaa0	-0.004697159
82	0xbc7b12e0	-0.015324324
83	0x3d86ee0c	0.065883726
84	0x3c86ba88	0.016446367
85	0xbda5bf88	-0.08093172
86	0xbda54486	-0.080697104
87	0x3d84a4cc	0.06476745
88	0xbd1eb368	-0.038745314
89	0xbd9db42e	-0.07700382
90	0xbc62d2e0	-0.013844222
91	0xbcbed218	-0.02329354
92	0xbd62c158	-0.05536017
93	0xbc327830	-0.010892913
94	0x3d60f474	0.05492063
95	0xbd0f4004	-0.03497316
96	0x3d44b7d8	0.04802689
97	0x3d455144	0.048173204
98	0x3d48c070	0.049011648
99	0x3cfbb248	0.03072466
100	0x3bc7fca0	0.0061031133
101	0xbdb768a8	-0.089555085
102	0x3c8173e8	0.015802339
103	0xbdf4790e	-0.11937152
104	0xbd775cd4	-0.060391262
105	0xbdd79888	-0.1052714
106	0xbdb44574	-0.0880231
107	0x3d3a8200	0.045534134
108	0x3df65afe	0.12029074
109	0x3d7a0360	0.061038375
110	0x3d4a8ed0	0.049452603
111	0xbd85eace	-0.06538926
112	0x3da41af6	0.08012955
113	0x3c046070	0.008079633
114	0x3cc00ae0	0.023442686
115	0xbd21e710	-0.039527
116	0x3d0429a4	0.032266274
117	0x3c6da740	0.014505208
118	0xbdd47c38	-0.10375255
119	0x3dabc976	0.08388035
120	0xbdbae13a	-0.0912499
121	0xbdf473da	-0.119361594
122	0x3da1540c	0.07877359
123	0x3bf95e40	0.0076101124
124	0xbdd3b268	-0.10336763
125	0x3da1afac	0.07894835
126	0xbd52d424	-0.051471844
127	0x3df0609e	0.11737178
128	0x3dcad5e4	0.09904078
129	0x3c3116d0	0.010808662
130	0xbd721df8	-0.05911061
131	0xbd9c3ffe	-0.07629393
132	0xbdb0f680	-0.08640766
133	0x39609c00	0.00021420419
134	0x3cab0ca8	0.020880058
135	0x3d921f9a	0.07134934
136	0xbdd6d046	-0.10488944
137	0xbc187e60	-0.009307474
138	0xbdb9f24a	-0.09079416
139	0xbdb80d10	-0.089868665
140	0x3d770598	0.06030807
141	0xbca6f2d0	-0.020379454
142	0x3db8f3e2	0.09030892
143	0x3dfd70b0	0.12375009
144	0xbd3efd48	-0.046628267
145	0xbde31fd4	-0.11090055
146	0x3de95920	0.11393952
147	0x3d3a73c0	0.045520544
148	0xbd38fdc0	-0.04516387
149	0xbd53524c	-0.051592156
150	0x3db4cada	0.08827753
151	0x3ce25288	0.027627245
152	0x3bfc20a0	0.007694319
153	0x3dc1b27c	0.09457871
154	0xbd823f44	-0.06359723
155	0x3d416bcc	0.047221944
156	0x3ce9c8c0	0.028538108
157	0x3d272a90	0.040812075
158	0xbda27290	-0.07932007
159	0x3d68aca8	0.056805283
160	0x3dc6d2a6	0.09708147
161	0xbdacaf18	-0.08431834
162	0xbda3881e	-0.07984947
163	0x3c295200	0.010334492
164	0x3dfc729c	0.123265475
165	0x3d85c3d2	0.065314904
166	0x3dc81fd2	0.09771694
167	0xbb0f16c0	-0.0021833628
168	0xbdef8756	-0.11695735
169	0xbd1363e8	-0.03598395
170	0xbda7b47a	-0.0818872
171	0x3d84a97c	0.06477639
172	0x3cc12498	0.02357702
173	0x3c294890	0.010332242
174	0x3d620cb4	0.055187896
175	0xbc516870	-0.0127812475
176	0x3c6b98c0	0.01437968
177	0xbda5582e	-0.080734596
178	0x3db3ab24	0.08772877
179	0xbd9a5282	-0.07535268
180	0x3d956276	0.072941706
181	0xbd557f54	-0.052123383
182	0xbddb9bca	-0.10723074
183	0x3dd8b822	0.105819955
184	0x3d0da744	0.034583345
185	0xbd29b560	-0.04143274
186	0xbd57d3bc	-0.05269216
187	0xbd237050	-0.03990203
188	0x3caf27f0	0.021381348
189	0xba87aa80	-0.0010350496
190	0xbde2d2dc	-0.110753745
191	0xbd8cf2fe	-0.068822846
192	0xbd1eca4c	-0.038767144
193	0x3cb00d60	0.021490753
194	0xbd852b0a	-0.0650235
195	0x3da27fa6	0.07934503
196	0x3dc1f61a	0.09470768
197	0xbd3c6e08	-0.04600337
198	0xbd829f28	-0.06378013
199	0x3c6cb510	0.014447466
200	0x3dd170f0	0.10226619
201	0x3da44a02	0.08021928
202	0xbc313b30	-0.010817334
203	0x3d7d4548	0.06183365
204	0x3deb4aa0	0.11488843
205	0xbdf0aaac	-0.11751303
206	0xbddc7e94	-0.1076633
207	0xbdbbce02	-0.09170152
208	0xbda2bb0e	-0.07945834
209	0xbd012a20	-0.031534314
210	0xbca7f240	-0.020501256
211	0x3dad1652	0.08451523
212	0x3d755aac	0.059900925
213	0xbc2b8e20	-0.010470897
214	0x3dafcfdc	0.08584568
215	0xbd94961c	-0.072551936
216	0x3dfc4a22	0.12318827
217	0x3cbfae28	0.023398474
218	0x3de6a0dc	0.1126115
219	0xbdf68b9e	-0.120383486
220	0x3dea9254	0.11453691
221	0xbde30a2a	-0.11085923
222	0x3cbcc838	0.02304469
223	0xbcd81688	-0.026377931
224	0x3de39d3a	0.11113973
225	0xbd8bc684	-0.06824973
226	0xbc37d0a0	-0.011219174
227	0x3d991722	0.07475115
228	0x3d492a40	0.04911256
229	0xbd80c9ac	-0.06288466
230	0x3ddae8aa	0.106889084
231	0x3d90952e	0.07059704
232	0xbdc233f8	-0.094825685
233	0x3db0f516	0.086404964
234	0xbdff3b12	-0.12462439
235	0x3daa4b8a	0.08315189
236	0xbd05b5dc	-0.032644138
237	0xbdc59fa4	-0.0964959
238	0xbd759650	-0.059957802
239	0xbd9ca4c4	-0.07648614
240	0x3dda22b2	0.10651149
241	0xbd14c538	-0.036320895
242	0xbc6f7690	-0.01461567
243	0x3dd42956	0.10359447
244	0x3cae5208	0.02127935
245	0x3c7f4080	0.015579343
246	0x3cdfce48	0.027320042
247	0xbdbc83fa	-0.0920486
248	0xbdc2127a	-0.094761804
249	0x3dc54e20	0.09634042
250	0xbdb17a1e	-0.0866587
251	0xbd9761c0	-0.07391691
252	0xbde5dea0	-0.11224103
253	0x3dca2566	0.098704144
254	0x3c9eed70	0.019400328
255	0x3c6ee280	0.014580369

fc2.bias f4 [10]
0	0x3d70a858	0.058754295
1	0x3df7249a	0.12067528
2	0xbd81d8bc	-0.06340167
3	0x3de973de	0.11399053
4	0xbc620250	-0.013794497
5	0x3c61d210	0.013782993
6	0x3d1c0ed8	0.038100094
7	0x3d103c8c	0.035213992
8	0x3c835788	0.01603295
9	0x3cf632b8	0.030053481
