parameters/MNIST/original-model.pth (torch, 9358 bytes, 5 tensors)

conv1.weight f4 [1, 1, 4, 4]
0	0x3c6a72c0	0.014309585
1	0xbe2d3edc	-0.1691851
2	0x3e461f5c	0.193479
3	0x3d790c50	0.060802758
4	0xbe6881e0	-0.22705793
5	0xbd6a53c0	-0.057208776
6	0xbe0c5d7a	-0.13707533
7	0x3e114282	0.14185527
8	0xbe16f2b4	-0.14741021
9	0xbe205d2c	-0.15660542
10	0x3e4df68e	0.20113584
11	0x3e7c0fc2	0.24615386
12	0xbca869c0	-0.020558238
13	0x3df6aad4	0.12044302
14	0xbcb36920	-0.021900713
15	0xbd7033c8	-0.058643132

fc1.weight f4 [28, 49]
0	0xbda9678a	-0.08271702
1	0x3bc24f4a	0.005929862
2	0xbe0ff388	-0.14057744
3	0xbc800bd3	-0.015630638
4	0xbe06c0f0	-0.13159537
5	0x3da4509a	0.08023186
6	0x3d9bfbe0	0.07616401
7	0x3db3d08e	0.08780013
8	0x3de33ec1	0.11095954
9	0x3dd527c1	0.10407973
10	0xbd11d117	-0.035599794
11	0x3d9719e7	0.07377987
12	0x3e116d26	0.14201793
13	0x3d679a45	0.056543607
14	0xbded7683	-0.1159487
15	0xbdfeb34c	-0.12436542
16	0x3d867ea5	0.06567124
17	0xbd37c585	-0.044866104
18	0xbcd2fd65	-0.025755594
19	0xbd7d9661	-0.06191099
20	0x3dfa9cf1	0.122369654
21	0x3dda4b8a	0.10658939
22	0x3d21a9a5	0.039468426
23	0xbad301b7	-0.0016098534
24	0xbd80d96c	-0.0629147
25	0xbddfdf75	-0.10931293
26	0xbd58f09c	-0.052963838
27	0x3d7be02e	0.06149309
28	0x3d90c98a	0.070696905
29	0xbd3a6c61	-0.045513514
30	0xbd95b3c5	-0.07309679
31	0xbe09fcc8	-0.13475335
32	0xbdd7998c	-0.105273336
33	0xbcebd9ca	-0.028790373
34	0xbdfbf2f5	-0.123022
35	0xbae085b8	-0.0017129695
36	0x3d20cc13	0.03925712
37	0x3da50f27	0.08059531
38	0xbc01f6ee	-0.007932408
39	0xbdf60638	-0.12012905
40	0x3d5c7c21	0.053829316
41	0xbbefd3dc	-0.007318957
42	0x3c85e7a5	0.016345808
43	0x3de49bda	0.11162539
44	0x3d57d6ce	0.052695088
45	0x3d8b08ea	0.067888096
46	0x3c21d993	0.009878534
47	0xbdb5215c	-0.088442534
48	0xbd3729a5	-0.04471745
49	0xbcaf1f9c	-0.021377377
50	0xbdc61b51	-0.09673179
51	0xbe0d4aca	-0.13798061
52	0xbcf6744a	-0.030084748
53	0xbd5d9ff3	-0.054107618
54	0xbb0c41b7	-0.0021401474
55	0xbdf064b8	-0.117379606
56	0x3e0319bd	0.12802787
57	0xbab9ff6e	-0.0014190504
58	0xbdeacd1e	-0.11464904
59	0x3dec7baa	0.115470245
60	0x3c563313	0.0130737005
61	0xbe0f9c40	-0.14024448
62	0xbd9844e7	-0.07435017
63	0x3dc7d62c	0.09757647
64	0xbdf1386a	-0.11778338
65	0xbcf8431c	-0.030305438
66	0xbddf0eca	-0.10891493
67	0x3d67f2b3	0.05662794
68	0xbe0756fa	-0.13216773
69	0xbdbf944e	-0.09354459
70	0x3a850000	0.0010147095
71	0xbda4be37	-0.08044093
72	0xbdb9092a	-0.09034951
73	0x3da3c72a	0.07996972
74	0x3e010cfa	0.12602606
75	0x3d147aa5	0.036249775
76	0x3d4e8b3c	0.050425753
77	0x3d82b35a	0.06381865
78	0x3e0e752b	0.13911884
79	0x3d08fb2a	0.033442654
80	0xbdeb088c	-0.114762396
81	0x3d93cac5	0.072164096
82	0xbcc789ae	-0.024357643
83	0xbe0ac955	-0.13553365
84	0xbdc1463c	-0.09437224
85	0xbddd8d68	-0.10817987
86	0x3ddbc2cc	0.10730514
87	0x3c000bdc	0.0078153275
88	0xbd1de73c	-0.0385506
89	0xbc183a37	-0.009291223
90	0x3d91bd27	0.07116156
91	0xbde6dd81	-0.11272717
92	0x3d1d06f7	0.03833672
93	0x3e113de4	0.14183766
94	0xbc44d481	-0.0120135555
95	0x3da35f8c	0.079772085
96	0xbcf17913	-0.029476678
97	0xbcb5ede5	-0.022208164
98	0x3dfceef8	0.12350267
99	0xbd90d5f7	-0.070720606
100	0x3c20e8a5	0.009821092
101	0x3dde0b0a	0.10841949
102	0x3d05886a	0.032600798
103	0xbe0f6bb3	-0.14005928
104	0xbde46571	-0.11152161
105	0xbdd5a843	-0.10432484
106	0xbd2be065	-0.041962046
107	0xbdca685e	-0.09883188
108	0x3dd4748a	0.103737906
109	0xbcc044e5	-0.023470351
110	0x3cf56793	0.029956615
111	0xbdac954e	-0.08426915
112	0xbdbeeea1	-0.093228586
113	0xbd9e65e3	-0.07734277
114	0xbd6eecae	-0.058331184
115	0x3c3af1ca	0.011410186
116	0xbdd9f54c	-0.1064249
117	0x3d8b9d60	0.06817126
118	0xbe033724	-0.12814003
119	0xbdfc97a3	-0.1233361
120	0x3cf1a1c1	0.029496076
121	0xbc9da8ee	-0.019245591
122	0xbdbbe9e5	-0.09175471
123	0xbd7633ae	-0.06010788
124	0x3dd56251	0.10419143
125	0xbd9afd83	-0.07567885
126	0x3e0a7566	0.13521346
127	0xbc77a7dc	-0.015115704
128	0xbdfce7e8	-0.1234892
129	0xbd164200	-0.036684036
130	0x3d92ae27	0.07162123
131	0xbc637c01	-0.013884545
132	0xbddc2bf5	-0.10750572
133	0x3e107caa	0.14110056
134	0x3d0bdb20	0.03414452
135	0x3cc47c65	0.023985097
136	0x3d467381	0.048449997
137	0xbc5a3eb7	-0.013320616
138	0xbdc65cae	-0.09685646
139	0xbd39a2e5	-0.045321364
140	0x3db4b43c	0.088234395
141	0xbdfa882e	-0.122330055
142	0x3d7dc4c5	0.061955232
143	0x3dfa929a	0.12234993
144	0xbd385e2a	-0.045011677
145	0x3d5b3721	0.053519372
146	0xbac7e525	-0.0015250786
147	0x3d5bc0ea	0.053650774
148	0xbdfe142e	-0.12406193
149	0x3dea59b5	0.114428915
150	0x3d4af5d7	0.049550857
151	0xbdc6477a	-0.09681602
152	0x3d9656dc	0.07340786
153	0x3d664c6e	0.056225233
154	0xbe0a5bf4	-0.1351164
155	0x3e0e53dc	0.13899177
156	0x3d9db91e	0.07701324
157	0x3d7da6d3	0.061926674
158	0xbd0938ce	-0.03350144
159	0x3de41a05	0.11137775
160	0xbdea56c8	-0.114423335
161	0x3e0360c0	0.12829876
162	0x3dc4dd7e	0.09612559
163	0x3e03d37b	0.12873642
164	0xbd11ea2a	-0.035623707
165	0xbd824c1e	-0.063621745
166	0x3db0d4f7	0.0863437
167	0x3d7a4fce	0.061111264
168	0xbc83a31c	-0.016068988
169	0xbdffa1d8	-0.12482041
170	0xb9b97493	-0.00035372804
171	0x3d2b1b0a	0.041773833
172	0x3dff05d3	0.12452283
173	0x3d12e9d3	0.035867523
174	0xbd5e9a65	-0.05434646
175	0x3d9a0883	0.07521155
176	0xbdfb49a5	-0.12269906
177	0x3e05e43f	0.1307535
178	0xbda99cee	-0.08281885
179	0x3e01dea6	0.1268259
180	0x3dd4f5ea	0.10398467
181	0xbd29c505	-0.041447658
182	0xbd37e49c	-0.044895753
183	0x3da5c28c	0.080937475
184	0x3dc84265	0.09778289
185	0xbdcb7853	-0.099350594
186	0x3ceddd01	0.029036047
187	0x3de7fac1	0.113271244
188	0xbdc15361	-0.094397314
189	0xbdbe209e	-0.09283565
190	0xbda85ad0	-0.08220446
191	0xbd98bb15	-0.07457558
192	0x3b0e3400	0.0021698475
193	0xbdf85f5c	-0.12127563
194	0x3d16b917	0.03679761
195	0xbda5b1f7	-0.08090585
196	0x3de40d65	0.11135367
197	0xbd90bae5	-0.07066897
198	0x3df11681	0.117718704
199	0xbdc1cb61	-0.094626196
200	0xbdf1c995	-0.11806027
201	0xbded7a0a	-0.11595543
202	0x3d3cc921	0.04609025
203	0x3d5fa3e1	0.054599646
204	0xbdc08e2e	-0.094021186
205	0xbcad556e	-0.0211589
206	0x3dbe3a17	0.092884235
207	0xbd6555ae	-0.055989914
208	0x3d7c7c25	0.06164183
209	0xbe0e6bfc	-0.1390838
210	0xbdd71a2e	-0.1050304
211	0x3e097f72	0.13427523
212	0x3e03a36d	0.1285531
213	0xbca108ca	-0.019657511
214	0x3e1074dc	0.14107078
215	0xbd03f3e5	-0.032215018
216	0xbd5a9877	-0.053368058
217	0xbdaad307	-0.083410315
218	0x3b0bea4a	0.0021349364
219	0xbdc5f2c7	-0.09665447
220	0xbcf75b0a	-0.030194778
221	0x3d3e28c5	0.0464256
222	0x3a709c93	0.0009178605
223	0xbde24118	-0.11047572
224	0xbd896fa0	-0.06710744
225	0x3b9d174a	0.004794036
226	0xbdb0eaea	-0.08638556
227	0xbdcde587	-0.100535445
228	0xbdbe27ac	-0.092849106
229	0x3d281f17	0.041045275
230	0xbdf74528	-0.120737374
231	0x3d707aca	0.05871085
232	0x3c29ab5c	0.010355797
233	0xbc157613	-0.009122389
234	0xbd8aac60	-0.06771159
235	0xbdd2ae81	-0.1028719
236	0x3dabb78e	0.0838462
237	0x3de7b665	0.11314086
238	0xbd4e2a77	-0.050333466
239	0xbdcb5a47	-0.099293284
240	0xbdfce24e	-0.12347852
241	0xbcd5edee	-0.02611443
242	0x3e107778	0.14108074
243	0x3dc77b4c	0.09740314
244	0x3d9448b5	0.0724043
245	0xbcc5c8f7	-0.024143679
246	0x3e00e91d	0.12588926
247	0x3e05bd1c	0.13060421
248	0x3dbac78a	0.0912009
249	0xbc55004a	-0.013000557
250	0xbda6840e	-0.08130656
251	0xbe028992	-0.12747791
252	0x3d9968e7	0.07490712
253	0xbd21561c	-0.03938876
254	0xbdc06bd3	-0.09395566
255	0xbdedb803	-0.11607363

fc1.bias f4 [28]
0	0xbdfe5441	-0.12418414
1	0x3d1c0497	0.038090315
2	0x3cb3cb81	0.021947624
3	0xbdc38ae5	-0.095479764
4	0x3bb24325	0.005440133
5	0x3c2146ee	0.009843571
6	0x3c3da337	0.011574558
7	0x3e021a55	0.12705357
8	0x3d8cc593	0.06873622
9	0x3dd4e417	0.10395067
10	0x3d69630e	0.05697923
11	0xbc08a14a	-0.008339236
12	0x3c313613	0.010816115
13	0x3d5c9245	0.05385043
14	0xbd128cea	-0.035778917
15	0x3d6a2f4a	0.057174005
16	0x3e121ec5	0.1426955
17	0x3dcc786e	0.09983908
18	0x3d4dca85	0.050241966
19	0xbdb4877c	-0.08814904
20	0xbd37f105	-0.04490759
21	0xbd903fb7	-0.07043403
22	0x3d294bf7	0.04133221
23	0x3dfc0921	0.12306429
24	0xbdd5a9f1	-0.104328044
25	0xbd151e85	-0.03640606
26	0xbd99214a	-0.074770525
27	0xbd092c3c	-0.03348945

fc2.weight f4 [10, 28]
0	0xbe2f2c9b	-0.1710686
1	0xbe06c85c	-0.13162369
2	0x3e3d4884	0.18484694
3	0xbdddb7d5	-0.10826079
4	0x3e2ec7ff	0.1706848
5	0xbe3f77d3	-0.18698053
6	0xbd919881	-0.07109166
7	0xbe150248	-0.14551651
8	0x3e22f7c4	0.15914828
9	0xbd7efcdf	-0.062252875
10	0x3e134e54	0.14385349
11	0xbdbdaf23	-0.0926192
12	0x3e37fe0d	0.17968006
13	0x3e1c7707	0.1527978
14	0x3c830ed2	0.015998278
15	0x3e09d59e	0.13460395
16	0x3e0c0a96	0.13675913
17	0xbdb34439	-0.08753247
18	0xbcc19a26	-0.023633074
19	0x3e10468f	0.14089416
20	0xbe372617	-0.17885624
21	0xbd347614	-0.04405792
22	0x3e10d482	0.14143565
23	0xbe249f71	-0.16076447
24	0x3cd05471	0.02543089
25	0xbc448630	-0.011994883
26	0xbdd40a04	-0.10353473
27	0x3e1763f6	0.14784226
28	0x3e394b56	0.18095145
29	0x3d238109	0.03991798
30	0xbe1986fd	-0.149929
31	0xbdf095c5	-0.11747316
32	0x3d5b8da2	0.05360187
33	0xbe0a88e5	-0.13528784
34	0x3e085c67	0.13316499
35	0x3d1abe1a	0.03777895
36	0xbda1359c	-0.07871553
37	0xbdebd5c1	-0.1151538
38	0x3e176f56	0.14788565
39	0x3e0f9189	0.14020361
40	0x3ccfe55e	0.025377925
41	0x3bcf4338	0.006325152
42	0x3d152de8	0.036420733
43	0xbe2889f0	-0.16458869
44	0xbdb7790e	-0.08958636
45	0x3d40c89e	0.047066323
46	0x3b41fe43	0.0029601015
47	0xbe14edb9	-0.14543809
48	0xbcd29f17	-0.025710626
49	0x3dbb1463	0.09134748
50	0x3cd48049	0.025940077
51	0xbd5962a9	-0.053072605
52	0xbe3e8358	-0.18604791
53	0xbe069388	-0.13142216
54	0x3be22e44	0.006902488
55	0xbc05889e	-0.008150248
56	0xbde2f4e3	-0.11081865
57	0xbd91a7c4	-0.07112077
58	0xbd955f90	-0.07293618
59	0xbdedd869	-0.116135426
60	0x3db5642c	0.08856997
61	0xbd311fdb	-0.04324327
62	0x3e2862a6	0.16443881
63	0x3d84b011	0.064788945
64	0x3df9b050	0.12191832
65	0xbe29ed39	-0.165944
66	0xbe3552d3	-0.17707376
67	0x3e00d37f	0.1258068
68	0x3deab0f6	0.11459534
69	0xbe34360b	-0.17598741
70	0x3e30dd03	0.1727181
71	0x3d9b90e6	0.075959966
72	0x3e0ba1b3	0.13635902
73	0x3dae7a6f	0.08519446
74	0x3dc06429	0.09394104
75	0xbd895bfc	-0.06706998
76	0x3e0067ed	0.12539645
77	0xbdf105a6	-0.117686555
78	0x3a90d712	0.0011050424
79	0xbe30fb78	-0.17283428
80	0xbe2d4830	-0.16922069
81	0xbd8e5c29	-0.06951172
82	0xbe2ebf97	-0.17065273
83	0x3e2969da	0.16544285
84	0x3cba121b	0.022713711
85	0x3e16240c	0.14662188
86	0xbd98d148	-0.07461792
87	0x3e334d7b	0.17510025
88	0xbe0f3b79	-0.13987531
89	0x3d5dda4a	0.054163255
90	0xbe2e5d5b	-0.170278
91	0x3ddb28c6	0.10701136
92	0xbe0b0bfc	-0.1357879
93	0xbc738b69	-0.014864781
94	0x3e0263ea	0.12733427
95	0x3d602e38	0.054731578
96	0xbde69295	-0.11258427
97	0xbe10e2a8	-0.14148962
98	0x3bdbaf69	0.00670426
99	0xbe0fc8c6	-0.14041433
100	0x3d2fdcd6	0.042935215
101	0x3d1c7907	0.03820136
102	0xbdcfb135	-0.101412214
103	0xbe2bba8b	-0.16770379
104	0xbe259bf0	-0.16172767
105	0x3df3ef1a	0.119108394
106	0xbdfa49d3	-0.12221112
107	0xbdc6b49c	-0.09702417
108	0xbe2e1e07	-0.17003642
109	0x3e165245	0.14679821
110	0xbd263ce9	-0.040585432
111	0x3e0ab15a	0.13544217
112	0x3e3e1138	0.18561256
113	0xbcce46bd	-0.025180215
114	0x3d7bc770	0.061469495
115	0xbcbb1fb0	-0.022842258
116	0xbe068c37	-0.13139425
117	0xbe24b6c3	-0.16085343
118	0xbd4a08c1	-0.049324755
119	0x3cd65912	0.026165519
120	0x3de8802e	0.11352573
121	0x3da3ac14	0.07991806
122	0xbd49f75e	-0.049308173
123	0xbdbd74a6	-0.092507645
124	0x3bd00094	0.006347725
125	0x3d2e6830	0.04257983
126	0xbe01ec3c	-0.12687773
127	0x3e416723	0.18887
128	0xbdd5d752	-0.1044146
129	0xbe025e77	-0.12731348
130	0xbe311398	-0.1729263
131	0xbda85354	-0.082190186
132	0xbe2917e4	-0.1651302
133	0xbe2445ae	-0.16042206
134	0x3e3bac3d	0.18327422
135	0x3e15f67f	0.14644812
136	0xbdc8290e	-0.097734556
137	0x3e3998d8	0.18124712
138	0x3e2ada1a	0.16684762
139	0xbda93e3e	-0.08263825
140	0x3e1fe36d	0.156141
141	0x3d9f4adc	0.0777795
142	0xbdf1eaa0	-0.11812329
143	0x3e22e599	0.15907897
144	0xbe25cf56	-0.16192374
145	0x3d2345e3	0.03986157
146	0xbd98be44	-0.07458165
147	0x3e2e0be3	0.16996722
148	0xbd77368f	-0.060354766
149	0x3e063e56	0.13109717
150	0x3e06f5ba	0.13179675
151	0x3e40f202	0.18842319
152	0xbdd98266	-0.10620575
153	0xbc5d369b	-0.0135017885
154	0xbe1aff39	-0.15136422
155	0x3e0100d1	0.12597968
156	0x3d371bf5	0.044704396
157	0x3e0aca59	0.13553752
158	0x3d069c94	0.03286417
159	0x3e2491e9	0.16071285
160	0x3e12230c	0.14271182
161	0x3dd31800	0.10307312
162	0x3e1e2617	0.15444218
163	0x3d9c7347	0.07639175
164	0xbcaeae95	-0.021323482
165	0xbe19b223	-0.1500936
166	0xbe1f97ba	-0.15585223
167	0x3ca32482	0.01991487
168	0x3ddc8f13	0.10769477
169	0xbdd77d12	-0.10521902
170	0x3dc9d202	0.09854509
171	0x3e2c63dd	0.1683497
172	0xbe08681d	-0.13320966
173	0x3d402a03	0.046915065
174	0xbdca6812	-0.09883131
175	0x3e40b488	0.18818867
176	0x3d7b5569	0.06136075
177	0xbc54ce92	-0.012988703
178	0x3dd1777c	0.10227868
179	0xbe0c83c5	-0.13722141
180	0x3bb95703	0.0056561246
181	0xbe346a09	-0.17618574
182	0xbcca5c91	-0.024702342
183	0xbe34b5b8	-0.17647445
184	0xbd0216af	-0.031759914
185	0x3e063974	0.13107854
186	0xba2aafb7	-0.0006511169
187	0x3dc48a22	0.09596659
188	0xbdc94938	-0.098284185
189	0xbc93d534	-0.018046
190	0x3c046719	0.008081221
191	0x3cbdf9f7	0.023190482
192	0xbc9094c9	-0.017649071
193	0x3d8df371	0.069311984
194	0xbdf47fc4	-0.11938432
195	0x3da9c6c6	0.08289866
196	0x3c957f68	0.018249229
197	0xbe070043	-0.13183694
198	0xbd8df316	-0.069311306
199	0x3d0f7540	0.035023928
200	0x3da4699a	0.080279544
201	0xbe35c264	-0.17749935
202	0xbe0529cc	-0.13004225
203	0x3de16a3c	0.11006591
204	0xbdbb255c	-0.09137985
205	0xbd0f7735	-0.035025794
206	0x3debb82a	0.11509736
207	0xbe32e268	-0.1746918
208	0xbd7e925c	-0.062151298
209	0xbd8ac5f1	-0.067760356
210	0x3e0ab98b	0.13547342
211	0xbcbfc721	-0.023410382
212	0x3da0dab5	0.07854215
213	0xbdc9aa1f	-0.09846901
214	0xbe0956b7	-0.13411985
215	0x3ceadc6a	0.028669555
216	0xbac61f0d	-0.0015115455
217	0x3986000e	0.00025558512
218	0xbd996495	-0.074898876
219	0xbde836f6	-0.11338608
220	0x3d8c9c2e	0.068657264
221	0x3d96adc4	0.07357362
222	0xbe0ffe26	-0.14061794
223	0x3debf419	0.11521167
224	0xbda1beeb	-0.07897743
225	0x3a4f89b6	0.0007916944
226	0xbe3c21a0	-0.18372202
227	0xbd89f236	-0.06735651
228	0x3da40a13	0.08009734
229	0xbce11124	-0.027473994
230	0xbe04843c	-0.12941068
231	0xbd2adeb4	-0.041716293
232	0xbe2498e5	-0.1607395
233	0xbe142b76	-0.14469704
234	0xbd7537c4	-0.059867635
235	0x3d9b18e8	0.0757311
236	0x3da056e2	0.078290716
237	0x3c5c08e5	0.013429855
238	0x3e30914c	0.17242926
239	0xbd8a8491	-0.06763566
240	0xbdfa569e	-0.12223552
241	0x3e2a82ae	0.16651413
242	0x3e1b65d1	0.15175559
243	0xbe162ddf	-0.14665936
244	0x3e2158ad	0.15756483
245	0xbdd2d0ac	-0.10293707
246	0x3dc92d12	0.098230496
247	0xb975b962	-0.00023434081
248	0xbd8904c8	-0.06690365
249	0x3b2eb4ea	0.0026658126
250	0xbdf777dd	-0.12083409
251	0x3b8daaa3	0.00432332
252	0xbcc24a84	-0.023717172
253	0x3dfaa725	0.122389115
254	0xbdec1825	-0.11528043
255	0x3e3951ec	0.18097657

fc2.bias f4 [10]
0	0xbda7c405	-0.08191685
1	0x3e40292e	0.18765709
2	0xbe1cf059	-0.1532606
3	0xbd6c935f	-0.05775773
4	0x3dd59cfc	0.10430333
5	0xbd2828f9	-0.0410547
6	0xbd80dd57	-0.06292217
7	0x3e3e937a	0.18610945
8	0xbe1fd76b	-0.15609519
9	0x3db9c36b	0.09070476
