parameters/MNIST/trained-model.pth (torch, 4612 bytes, 5 tensors)

conv1.weight f4 [1, 1, 7, 7]
0	0x3d55c345	0.052188177
1	0xbd3ad2bb	-0.045611124
2	0x3e3dca3a	0.18534175
3	0x3df11f2a	0.11773522
4	0xbd41b61d	-0.047292817
5	0x3d696b28	0.056986958
6	0x34a44000	3.0593947e-07
7	0x3dfc42d0	0.12317431
8	0xbce48084	-0.027893312
9	0xbc4d7d44	-0.012542073
10	0x3e46c63e	0.19411561
11	0x3e5f9034	0.21832353
12	0x3d87114d	0.06595097
13	0x3e17c734	0.14822084
14	0x3d0a540e	0.033771567
15	0x3cccaf58	0.024985954
16	0x3e21849d	0.15773244
17	0xbc44debb	-0.012015994
18	0x3d880483	0.066414855
19	0xbd9b0967	-0.07570153
20	0x3d444346	0.04791572
21	0xbdaa64b3	-0.08319988
22	0x3e118ec4	0.14214617
23	0x3e1542f5	0.14576323
24	0x3e1d3f96	0.15356287
25	0x3e2f1d5a	0.1710104
26	0x3e2d5235	0.1692589
27	0x3cd4b7f8	0.02596663
28	0x3dfc24cf	0.12311708
29	0x3e51065f	0.20412587
30	0x3dff3d2a	0.12462838
31	0xbd243020	-0.040084958
32	0xbd720343	-0.059085142
33	0x3e074516	0.13209948
34	0x3cf28b07	0.029607309
35	0x3ce8933a	0.028390516
36	0x3b8f8de0	0.0043809265
37	0x3e4e5b96	0.20152125
38	0x3e3bbcc1	0.18333723
39	0x3dd0bccc	0.1019226
40	0x3d885e16	0.066585705
41	0x3c12a2a6	0.008949911
42	0xbd64ce04	-0.055860534
43	0x3cb68114	0.022278346
44	0x3e07ed04	0.13274008
45	0x3e0b240a	0.13587967
46	0x3c973a6f	0.01846048
47	0xbba35495	-0.004984448
48	0xbd8576f0	-0.06516826

fc1.weight f4 [16, 16]
0	0xbdd7f1de	-0.105441794
1	0xbe7b61f7	-0.2454909
2	0xbd9f2d9f	-0.077723734
3	0x3ca92609	0.02064802
4	0x3e00df0e	0.12585089
5	0xbd929158	-0.07156628
6	0xbe80c323	-0.25148878
7	0x3d2f7bdc	0.04284273
8	0xbd54d008	-0.051956207
9	0xbccf44e2	-0.0253014
10	0x3dcd90a5	0.100373544
11	0x3d4cc5e9	0.04999343
12	0x3dc31947	0.09526306
13	0xbb9b70f3	-0.004743689
14	0xbe4c1529	-0.19929947
15	0xbe012a2b	-0.12613742
16	0xbd8f2cf2	-0.069909945
17	0xbe5be9bc	-0.21475881
18	0xbe9d7646	-0.30754298
19	0xbd8e71ff	-0.06955337
20	0xbdedc510	-0.11609852
21	0xbc27d34f	-0.010243251
22	0xbe6b5ed0	-0.22985387
23	0x3e3bf5dc	0.18355507
24	0xbd07c566	-0.03314724
25	0xbe52a0e3	-0.20569186
26	0x3e2dbffb	0.16967766
27	0xbc83231f	-0.016007958
28	0xbe893583	-0.2679864
29	0xbe24a2a4	-0.16077667
30	0x3e022c5f	0.12712239
31	0xbe7806cb	-0.24221341
32	0xbd8a716a	-0.06759913
33	0xbe5bb217	-0.21454655
34	0x3dbd3704	0.09239009
35	0xbe61e8d5	-0.22061475
36	0xbe0e8335	-0.13917239
37	0xbccbe4d8	-0.024889395
38	0xbe1cc9fe	-0.15311429
39	0xbe3ba6f3	-0.18325405
40	0x3e054bc3	0.13017182
41	0x3e560af8	0.20902622
42	0x3d929147	0.07156616
43	0x3db6dc2d	0.08928714
44	0x3dbb20a5	0.09137086
45	0x3e565b67	0.20933305
46	0x3d9b0ca8	0.07570773
47	0xbe532a51	-0.20621611
48	0x3e014297	0.12623058
49	0xbd384a1d	-0.044992555
50	0xbe66392a	-0.22482744
51	0xbe0974ba	-0.13423434
52	0xbe39de1d	-0.18151136
53	0x3e20fd62	0.15721658
54	0x3d807a94	0.0627338
55	0xbd6246ef	-0.05524343
56	0xbc803bed	-0.015653575
57	0x3e065300	0.131176
58	0xbe20c330	-0.15699458
59	0x3dbb9087	0.09158426
60	0x3e7d7ff4	0.24755841
61	0xbc515464	-0.012776468
62	0x3e023326	0.12714824
63	0xbd8d0a42	-0.06886722
64	0xbdd02785	-0.10163788
65	0x3e22af19	0.15887107
66	0xbe3380b5	-0.17529567
67	0xbd1ae28e	-0.037813716
68	0x3dfb4798	0.12269515
69	0x3d9d1e5b	0.076718055
70	0xbe9abbc9	-0.30221394
71	0xbe70f759	-0.23531856
72	0xbe6d96a1	-0.23201992
73	0xbdb59d6f	-0.08867919
74	0xbe8099ff	-0.2511749
75	0x3e0425ca	0.1290504
76	0xbdb5481a	-0.08851643
77	0x3c12476a	0.008928159
78	0xbe5b8b3c	-0.21439832
79	0xbe57e427	-0.21083127
80	0xbe3c5557	-0.1839193
81	0xbe1336a8	-0.14376318
82	0xbcb13121	-0.021629872
83	0xbe4a0580	-0.1972866
84	0x3e003f23	0.12524085
85	0xbe5fcf7e	-0.21856496
86	0xbe6bade6	-0.23015556
87	0x3d717818	0.05895242
88	0xbd5c4f9c	-0.05378686
89	0xbe4df44f	-0.20112728
90	0xbe1ce39c	-0.15321201
91	0x3e0da385	0.13831909
92	0xbe2cf7d4	-0.16891414
93	0x3e50677f	0.2035198
94	0xbd084dfd	-0.0332775
95	0xbe726098	-0.2366966
96	0xbdd812be	-0.1055045
97	0x3db09c61	0.08623577
98	0xbd874282	-0.06604482
99	0xbe6744be	-0.22584817
100	0x3e559096	0.20855936
101	0x3cf8c318	0.030366465
102	0x3d65fe85	0.056150932
103	0x3d5796b3	0.052633952
104	0xbd832807	-0.06404119
105	0xbe567da7	-0.2094637
106	0xbe1a337d	-0.15058704
107	0x3df593a1	0.119910486
108	0xbe75d404	-0.24006659
109	0x3e03b492	0.12861851
110	0x3e50c5c5	0.20387943
111	0xbdff4372	-0.12464036
112	0x3d82bf09	0.06384093
113	0xbcb47daf	-0.022032587
114	0x3dc7464d	0.09730206
115	0xbe6a0dba	-0.22856799
116	0x3e2aca01	0.16678621
117	0x3d8935a7	0.066996865
118	0xbe414af8	-0.18876255
119	0x3dd6ce9e	0.10488628
120	0x3d8720be	0.06598042
121	0xbe859c05	-0.26095596
122	0x3e64c919	0.22342338
123	0x3e032385	0.12806518
124	0x3dab9bc9	0.08379323
125	0xbdb91117	-0.09036463
126	0x3e3a7935	0.182103
127	0xbe62dd10	-0.22154641
128	0x3e7d3848	0.24728501
129	0x3e2e7c5e	0.1703963
130	0x3e3a759e	0.1820893
131	0xbd8bed9d	-0.068324305
132	0xbdec7ec4	-0.11547616
133	0x3e26280c	0.16226214
134	0x3e29540f	0.16535972
135	0xbd491e42	-0.04910112
136	0xbe7ac29a	-0.24488297
137	0xbc678de8	-0.014132954
138	0x3d9ad730	0.07560575
139	0x3e51343c	0.20430082
140	0x3d854539	0.06507344
141	0xbdb011de	-0.08597158
142	0x3e2c2237	0.16809927
143	0xbe4fda21	-0.20298053
144	0x3e6121fc	0.2198562
145	0xbe25ee4d	-0.16204186
146	0x3e3a3f7f	0.18188284
147	0x3e1eb6c1	0.15499403
148	0xbde49537	-0.11161273
149	0xbdd9573e	-0.10612343
150	0x3dfb59f9	0.1227302
151	0x3e127518	0.1430248
152	0xbe386536	-0.18007359
153	0x3bb60dd9	0.00555585
154	0x3e22cd0a	0.15898529
155	0xbe2a1040	-0.16607761
156	0xbe59a0f9	-0.21252812
157	0xbe2f81f3	-0.17139415
158	0xbe1a535c	-0.15070862
159	0xbcce64a7	-0.02519448
160	0xbe8548f9	-0.26032236
161	0x3d0b852e	0.034062557
162	0xbe114dde	-0.1418986
163	0x3df69bc9	0.120414324
164	0xbe16ee3e	-0.1473932
165	0x3e5f4b60	0.21806097
166	0xbe616d64	-0.22014385
167	0xbe585ed7	-0.21129929
168	0xbe66cbdd	-0.22538705
169	0x3ca3e5b0	0.020006984
170	0x3d0f9604	0.035055175
171	0xbe53f442	-0.20698646
172	0xbd7fe806	-0.062477134
173	0x3df45d51	0.11931861
174	0xbe38670e	-0.18008062
175	0x3d6d3e32	0.057920642
176	0xbe7015db	-0.23445837
177	0xbe3d9df1	-0.18517281
178	0x3e5d5c43	0.21617226
179	0x3e76b1b4	0.24091226
180	0xbce25df4	-0.027632691
181	0x3e8d61a0	0.27613544
182	0x3bea9183	0.0071584596
183	0xbd6cabf4	-0.057781175
184	0xbe038fe1	-0.12847854
185	0xbba25fb0	-0.0049552545
186	0xbe45253d	-0.19252487
187	0xbd5e3aa6	-0.05425515
188	0x3d8d4785	0.06898407
189	0x3d71f9f7	0.059076276
190	0xbe343534	-0.1759842
191	0xbe000bd1	-0.12504508
192	0xbbe49814	-0.006976137
193	0xbe32dbfb	-0.17466728
194	0xbe256e0e	-0.16155264
195	0xbe36eadb	-0.17863028
196	0x3d9f4842	0.07777454
197	0xbe5e17c0	-0.21688747
198	0x3deac5fc	0.11463544
199	0x3c10be99	0.0088345045
200	0xbc8a4968	-0.016880706
201	0xbde1ac25	-0.11019162
202	0xbe37a6ef	-0.17934774
203	0x3e20e739	0.15713204
204	0x3e3ab865	0.18234403
205	0xbdbf6510	-0.09345448
206	0xbe37df9c	-0.17956394
207	0xbe6239c3	-0.22092347
208	0xbc3d3c5e	-0.011550037
209	0x3e8c5f4e	0.27416462
210	0x3e674f40	0.22588825
211	0x3e45e801	0.19326784
212	0x3b69fb4e	0.0035702768
213	0x3e88e152	0.26734406
214	0x3e783314	0.24238235
215	0x3e639674	0.22225362
216	0xb92e60e8	-0.00016630033
217	0xbddb7b6f	-0.107169025
218	0xbe18f93a	-0.14938822
219	0x3e29cfea	0.16583219
220	0xbd213c70	-0.03936428
221	0xbe17e8b6	-0.14834866
222	0xbe25a5cc	-0.16176528
223	0x3e7d295a	0.24722806
224	0xbe2d65cf	-0.16933368
225	0xbdfbda7c	-0.12297532
226	0x3e306895	0.17227395
227	0xbe05ccfd	-0.13066478
228	0xbe2f04ba	-0.17091647
229	0xbe06e8a7	-0.13174687
230	0xbdb50e5f	-0.08840632
231	0xbe0cc423	-0.13746695
232	0x3e1e8605	0.15480812
233	0x3c198fc2	0.009372653
234	0x3c741f94	0.014900107
235	0x3c71c750	0.014756992
236	0x3e051fd9	0.1300043
237	0x3dc19155	0.09451548
238	0xbe0c323d	-0.1369104
239	0x3e2a3c25	0.16624506
240	0x3e55bbcc	0.2087242
241	0x3e46ddd5	0.1942056
242	0xbd8c0ee8	-0.06838781
243	0x3cdc3540	0.02688086
244	0xbddd3c0d	-0.108024694
245	0x3c224d4e	0.009906126
246	0x3d594aeb	0.053049963
247	0x3e4f0dcb	0.20220105
248	0x3d425cea	0.04745189
249	0x3e3d6942	0.18497184
250	0x3e847e5d	0.25877658
251	0x3e54c073	0.20776539
252	0xbe43c7c7	-0.19119178
253	0xbe2cf152	-0.16888931
254	0x3e982080	0.29712296
255	0x3e2ce582	0.16884425

fc1.bias f4 [16]
0	0x3dae5c99	0.08513755
1	0xbda6f896	-0.08152883
2	0x3d658c9a	0.05604229
3	0xbd7ebc86	-0.06219151
4	0xbd1ae250	-0.037813485
5	0xbca3efa0	-0.020011723
6	0xbe3cb175	-0.1842707
7	0xbd869ce6	-0.06572895
8	0x3d3dbd04	0.046322837
9	0xbe74143b	-0.23835842
10	0xbe52043a	-0.20509425
11	0x3de4f811	0.111801274
12	0x3e093771	0.13400055
13	0xbd681493	-0.056660246
14	0xbdc2e1dc	-0.095157355
15	0x3de8ed75	0.11373416

fc2.weight f4 [10, 16]
0	0x3ba9ccbf	0.0051818783
1	0x3e4b8d34	0.19878083
2	0xbe4fb527	-0.20283948
3	0x3d83224f	0.06403028
4	0xbe6d3bbd	-0.2316732
5	0xbd9bcc72	-0.07607354
6	0xbc4ed22e	-0.012623353
7	0x3dd4b272	0.10385598
8	0xbe7352e7	-0.23762093
9	0xbe48bfd4	-0.19604427
10	0xbe483482	-0.1955128
11	0x3d76340e	0.060108237
12	0x3e5700eb	0.20996444
13	0x3d87c4ab	0.06629308
14	0xbda71bab	-0.08159574
15	0xbe884fde	-0.26623434
16	0xbdb50a5b	-0.08839866
17	0x3dfc7583	0.12327101
18	0xbe474211	-0.19458796
19	0x3e1792b9	0.14802064
20	0xbd0a608d	-0.033783484
21	0x3d4e4f87	0.050368812
22	0x3dd4ca9e	0.10390209
23	0xbb6f5f6d	-0.0036525384
24	0xbd8fcb28	-0.07021171
25	0x3cf89d09	0.030348318
26	0x3e82b9e4	0.25532448
27	0x3cff84a0	0.03119117
28	0xbdf2c53f	-0.11854028
29	0xbda044bc	-0.0782561
30	0xbd0a6a3d	-0.033792723
31	0x3e7b5026	0.24542293
32	0xbdc4e229	-0.09613449
33	0xbd8c53eb	-0.068519436
34	0xbc81b064	-0.01583118
35	0xbe65a2ef	-0.22425435
36	0x3e1e8190	0.15479112
37	0x3e0b03a1	0.13575603
38	0x3e0e2a94	0.1388343
39	0xbcbc288e	-0.022968557
40	0xbd9d3445	-0.07675985
41	0xbe86d9a2	-0.26337916
42	0x3da65f34	0.08123627
43	0x3daeb9cf	0.08531534
44	0xbe2f41b6	-0.1711491
45	0xbd8cc832	-0.06874122
46	0xbe23e87c	-0.16006655
47	0x3df4ecf7	0.1195926
48	0x3c248f8b	0.010043989
49	0x3e453018	0.19256628
50	0x3d592e8d	0.05302291
51	0xbe277890	-0.16354585
52	0x3e8f9dc5	0.28050056
53	0x3ddc67ec	0.10762009
54	0xbe6a8424	-0.2290197
55	0xbe2198e1	-0.15780975
56	0xbc4dfa0d	-0.012571824
57	0xbe66e647	-0.22548781
58	0x3e55fbaf	0.20896791
59	0xbdd3682b	-0.10322603
60	0x3e2cc687	0.16872607
61	0x3d9bc5b7	0.076060705
62	0x3e571d76	0.21007332
63	0x3e6a26b7	0.22866331
64	0xbc45a105	-0.012062316
65	0xbca5436d	-0.020173753
66	0x3e4d45cf	0.20046161
67	0xbd935a3c	-0.07194945
68	0x3d9885f1	0.07447422
69	0xbe4bf539	-0.19917764
70	0x3dcb2b8e	0.09920417
71	0xbe8b14d6	-0.27164334
72	0xbe9a7d02	-0.30173498
73	0xbd2dc9d5	-0.04242881
74	0x3e1d45aa	0.15358606
75	0xbe296400	-0.16542053
76	0x3d696952	0.056985207
77	0xbe4b6eb4	-0.19866449
78	0xbd8d5e66	-0.06902771
79	0x3e51f65e	0.20504138
80	0xbe24210e	-0.16028234
81	0x3daf8f12	0.0857221
82	0xbe53b962	-0.20676187
83	0x3e07bc1f	0.13255356
84	0xbe420854	-0.1894849
85	0xbc11d275	-0.0089002745
86	0xbcba0286	-0.022706281
87	0xbc852cc8	-0.016256705
88	0xbe4bcf5d	-0.19903322
89	0x3d02a56f	0.03189605
90	0x3e306104	0.17224509
91	0xbe73f8f5	-0.23825438
92	0x3cbbb565	0.022913644
93	0x3ccf3bae	0.025297012
94	0x3e62fa16	0.22165713
95	0xbe87c225	-0.26515308
96	0xbd6f9bf5	-0.05849834
97	0x3da04ff5	0.078277506
98	0x3dbc5af3	0.09197035
99	0xbdb99ba3	-0.090628885
100	0xbce7117d	-0.028206581
101	0x3e458e51	0.1929257
102	0x3e34524c	0.17609519
103	0xbe1b51b4	-0.15167886
104	0xbdf2f671	-0.11863411
105	0xbe0a8cc1	-0.13530256
106	0xbb5ef59b	-0.0034020904
107	0xbe582d7a	-0.21111098
108	0xbd870d37	-0.065943174
109	0xbe5ca1af	-0.21546052
110	0xbe3d09fe	-0.18460843
111	0xbdf10ebc	-0.117703885
112	0xbabb5814	-0.0014293217
113	0xbdeb28af	-0.11482369
114	0xbdd08909	-0.101823874
115	0xbe19fc72	-0.15037706
116	0xbdba7f1e	-0.09106277
117	0xbd0bf6bb	-0.034170847
118	0xbdbd93df	-0.0925672
119	0xbdc19044	-0.094513446
120	0x3d081773	0.033225488
121	0xbe3c7d56	-0.18407187
122	0xbe133ece	-0.14379427
123	0x3cf574ac	0.02996286
124	0xbe80d874	-0.2516514
125	0x3e15f2c5	0.1464339
126	0x3de3b161	0.11117817
127	0xbdd47772	-0.10374345
128	0x3e3bc01a	0.18335
129	0xbd2e6a21	-0.04258168
130	0xbd8342c8	-0.06409222
131	0x3e1d9903	0.153904
132	0xbe0ad714	-0.13558608
133	0x3c20030c	0.009766351
134	0xbe25f200	-0.16205597
135	0x3e5f0bf5	0.21781905
136	0xbd903812	-0.070419446
137	0xbe7ec7a6	-0.24880847
138	0x3e1efea8	0.15526831
139	0x3e0cf740	0.13766193
140	0xbe5c4bd4	-0.21513301
141	0x3e28bf91	0.16479327
142	0x3dfccb08	0.12343413
143	0xbe999adb	-0.30000958
144	0x3e12da8e	0.14341184
145	0xbe0b4816	-0.13601717
146	0x3e02e452	0.1278241
147	0xbe34d1c2	-0.17658141
148	0xbe4508c3	-0.19241624
149	0xbe20a4cc	-0.15687865
150	0xbe820a0c	-0.2539829
151	0xbd82c824	-0.0638583
152	0x3e6bd3c2	0.23029998
153	0xbd689056	-0.056778274
154	0x3e3e73c0	0.18598843
155	0x3d979c2f	0.074028365
156	0x3c949d85	0.018141517
157	0xbe03d1cc	-0.12873
158	0x3b86d1c6	0.0041143624
159	0x3e10c346	0.14136991

fc2.bias f4 [10]
0	0xbe811b62	-0.25216204
1	0x3d36bf2e	0.044615917
2	0x3e6f673f	0.23379229
3	0x3df57e26	0.119869515
4	0x3c95c9bb	0.01828467
5	0x3cb13967	0.021633817
6	0x3e4b350c	0.19844455
7	0xbd422351	-0.04739696
8	0xbe395682	-0.18099406
9	0x3e1c5d30	0.15269923
