parameters/MNIST/trained-model.pth (torch, 8580 bytes, 6 tensors)

conv1.weight f4 [2, 1, 7, 7]
0	0x3df887c2	0.12135269
1	0xbaf647f9	-0.001878976
2	0x3e39f084	0.18158156
3	0x3d81672f	0.06318509
4	0xbe472ad4	-0.19449931
5	0xbe218fd1	-0.15777518
6	0xbe5d342f	-0.21601938
7	0x3e3d8fcd	0.18511887
8	0x3b676e01	0.003531337
9	0xbce46253	-0.027878916
10	0x3e0455ac	0.12923306
11	0x3da1a307	0.07892423
12	0xbe089284	-0.13337141
13	0xbd859398	-0.06522292
14	0x3da24499	0.0792324
15	0x3d2a05b7	0.041509356
16	0x3e0ee0eb	0.13952987
17	0xbd842bf7	-0.06453698
18	0xbd57a2d6	-0.052645527
19	0xbe8316f3	-0.25603446
20	0xbe06d518	-0.13167226
21	0xbcc51c7a	-0.02406143
22	0x3e35bd95	0.17748101
23	0x3e29d8ec	0.16586655
24	0x3e0f2b06	0.13981256
25	0x3dab424e	0.08362256
26	0x3c9ce672	0.019152854
27	0xbe10b82d	-0.14132757
28	0x3e30a243	0.17249398
29	0x3e672d6f	0.22575925
30	0x3e0abdfb	0.13549034
31	0xbd9523f0	-0.07282245
32	0xbe13fef1	-0.14452721
33	0xbc51a2ca	-0.01279516
34	0xbe1a6aea	-0.15079847
35	0x3d57af9a	0.0526577
36	0xbb92afc1	-0.004476518
37	0x3e3c9593	0.18416433
38	0x3e10c0fb	0.14136116
39	0x3bca4013	0.006172189
40	0xbd81f3c6	-0.06345324
41	0xbe11901b	-0.14215128
42	0xbd2566c5	-0.04038121
43	0x3c53c6b7	0.012925795
44	0x3e05c425	0.13063104
45	0x3de9311b	0.11386319
46	0xbd3e715e	-0.046494834
47	0xbdcb559f	-0.0992844
48	0xbe4bf811	-0.19918849
49	0xbe3579ad	-0.17722197
50	0xbde5765d	-0.11204217
51	0xbe5f0763	-0.21780162
52	0xbdbb466f	-0.091442935
53	0xbd01d6b2	-0.03169889
54	0x3b9963a9	0.00468107
55	0xbd9a0fef	-0.0752257
56	0xbe462eb8	-0.1935376
57	0xbd44fc0e	-0.04809194
58	0xbdecad30	-0.115564704
59	0xbda6930b	-0.08133515
60	0x3cdcd8cb	0.026958844
61	0xbc9b3b12	-0.018949065
62	0xbc6438e6	-0.013929581
63	0xbd91d3c8	-0.07120472
64	0xbe421876	-0.18954644
65	0xbe1c3465	-0.15254362
66	0xbdf3bf36	-0.11901705
67	0xbe3b7a27	-0.18308316
68	0xbe571686	-0.21004686
69	0xbdcf78b5	-0.10130445
70	0xbe110207	-0.1416093
71	0xbddf3635	-0.10899011
72	0xbe68815f	-0.22705601
73	0x3cd900c0	0.026489615
74	0xbdc8a0a5	-0.097962655
75	0xbe43ebd2	-0.19132927
76	0x3d189bde	0.03725802
77	0xbdb2e9c6	-0.08735995
78	0xbe89d4bc	-0.26920116
79	0xbe4dba8e	-0.20090696
80	0xbc8f2e74	-0.017478205
81	0xbe6d8c04	-0.23197943
82	0xbdfbec5e	-0.12300943
83	0xbe5155d1	-0.20442893
84	0xbd5d8aa5	-0.0540873
85	0xbe886c06	-0.26644915
86	0xbe6d418d	-0.23169537
87	0xbdec8284	-0.115483314
88	0xbe4e4284	-0.20142561
89	0xbe419bcf	-0.18907093
90	0xbbb76d92	-0.0055977786
91	0x3ca733b0	0.020410389
92	0xbdc2422d	-0.09485278
93	0xbd9da96a	-0.07698329
94	0xbd3a08e8	-0.04541865
95	0x3ca8acd1	0.020590218
96	0xbd723099	-0.059128378
97	0xbe56089b	-0.2090172

conv1.bias f4 [2]
0	0x3e116950	0.1420033
1	0xbe06268a	-0.13100639

fc1.weight f4 [32, 32]
0	0xbe2cbaf9	-0.168682
1	0xbe0b266e	-0.13588879
2	0xbe38c259	-0.18042888
3	0x3de66742	0.112501636
4	0x3d720673	0.05908818
5	0xbdb65e56	-0.08904712
6	0xbdb0b114	-0.08627525
7	0x3df85b49	0.12126786
8	0xbe078ab4	-0.13236505
9	0x3b76abc5	0.0037639004
10	0x3de704be	0.112802014
11	0xbbcaabdf	-0.0061850394
12	0x3d9677ba	0.07347055
13	0xbda00229	-0.07812912
14	0xbd9cd6a4	-0.07658127
15	0x3e1d79a0	0.15378428
16	0xbdf0a10c	-0.11749467
17	0xbd307ce1	-0.043087844
18	0x3dc9c8e7	0.09852772
19	0x3ce0b992	0.027432237
20	0xbe131566	-0.14363632
21	0xbe2448a8	-0.16043341
22	0xbe1fd4af	-0.15608476
23	0xbbfa1ae1	-0.0076325987
24	0xbda3eea3	-0.08004501
25	0x3df42e3a	0.119228795
26	0xbd65f7ed	-0.056144644
27	0x3d086c25	0.03330626
28	0xbe0b923b	-0.13630001
29	0xbe27738c	-0.16352671
30	0xbe1d46fc	-0.1535911
31	0xbda1d48b	-0.079018675
32	0x3d5bdb83	0.05367614
33	0xbd98ce40	-0.07461214
34	0x3e0b141c	0.1358189
35	0xbe1a431a	-0.1506466
36	0xbdbf5f44	-0.09344342
37	0x3d660ea7	0.056166317
38	0xbc5e4c40	-0.013567984
39	0xbd4e3dfd	-0.050352085
40	0xbbe140d9	-0.0068741855
41	0x3e3d6d15	0.18498643
42	0xbdf5523e	-0.11978577
43	0x3e705254	0.23468906
44	0xbbd0362a	-0.006354113
45	0xbdce6e59	-0.10079641
46	0x3c428bfe	0.011874197
47	0x3e1c7050	0.15277219
48	0x3da5b9ef	0.08092105
49	0xbd504039	-0.050842497
50	0x3e76b86a	0.24093786
51	0x3cd22e50	0.02565685
52	0x3e1f22f9	0.15540685
53	0x3e0156f3	0.12630825
54	0x3d42ad79	0.047528718
55	0xbd550fcc	-0.05201702
56	0x3a333ffe	0.00068378437
57	0x3e1579b5	0.14597209
58	0xbe17d9e7	-0.14829217
59	0x3e1a991e	0.15097472
60	0x3e2ff748	0.17184174
61	0xbc6832a9	-0.014172235
62	0x3e1cd397	0.1531509
63	0x3deae737	0.11469882
64	0x3d6742c2	0.05646015
65	0xbe5145cb	-0.2043678
66	0x3d73bf8b	0.05950884
67	0x3dc1f069	0.09469683
68	0xbdeb1c4b	-0.11480006
69	0x3d14b926	0.036309384
70	0x3c77437e	0.015091775
71	0xbe2ea81b	-0.17056315
72	0x3e191a62	0.1495147
73	0x3d84133c	0.06448981
74	0x3da4e75c	0.08051941
75	0xbddc0053	-0.10742249
76	0x3e0d7758	0.13815057
77	0xbe29585d	-0.16537614
78	0x3dec3b49	0.11534745
79	0x3d590c94	0.05299051
80	0x3df1c34f	0.1180483
81	0xbe004af1	-0.12528588
82	0xbe10ffdb	-0.14160101
83	0x3dfc82a3	0.123296045
84	0x3e1bf379	0.15229596
85	0xbc825b8a	-0.01591279
86	0xbe4c7847	-0.19967757
87	0x3a7e2584	0.00096949213
88	0x3c88bf80	0.016692877
89	0x3e3b00a2	0.1826196
90	0xbb9946b5	-0.0046776184
91	0xbe0b63b7	-0.13612257
92	0x3d847ca7	0.06469088
93	0xbe4e0983	-0.20120816
94	0x3da26d40	0.07930994
95	0xbe17c6b5	-0.14821894
96	0x3e55938e	0.20857069
97	0x3e308439	0.17237939
98	0xbd1f4431	-0.03888339
99	0x3ccb37f0	0.024806947
100	0x3e42265c	0.18959945
101	0x3e0652bc	0.13117498
102	0xbd9d1c22	-0.076713815
103	0x3d628f86	0.055312656
104	0x3dd580e8	0.104249775
105	0xbdbec04c	-0.093140215
106	0xbd4e663b	-0.050390463
107	0xbdbe0e1a	-0.092800334
108	0xbdadfb0c	-0.08495149
109	0x3d6f483f	0.05841851
110	0xbda29797	-0.0793907
111	0x3e003475	0.12520011
112	0xbd1ffea3	-0.0390612
113	0x3e492a22	0.19644979
114	0xbd0ee828	-0.03488937
115	0x3e81760d	0.25285378
116	0xbdae5070	-0.08511436
117	0xbd61f068	-0.05516091
118	0xbd4ae948	-0.04953888
119	0x3dbb4dcb	0.09145697
120	0x3d8c10df	0.068391554
121	0xbd687dcc	-0.056760594
122	0x3ceb2f5e	0.02870911
123	0x3db8b1aa	0.09018262
124	0xba593563	-0.00082858483
125	0x3e212a60	0.15738821
126	0xbdf0d1a4	-0.11758736
127	0xbdc50f7b	-0.09622093
128	0x3e31bc55	0.17356999
129	0x3e1bbb9b	0.15208285
130	0x3d055dbe	0.032560103
131	0x3ddc77c8	0.10765034
132	0xbcfc7e8d	-0.030822063
133	0x3c433efa	0.01191687
134	0xbb13a8d8	-0.0022531059
135	0xbd922a8f	-0.07137024
136	0xbda04fcd	-0.07827721
137	0x3d306ee6	0.04307451
138	0x3e0008a6	0.12503299
139	0x3d6d8d5c	0.05799614
140	0xbdb30e67	-0.087429814
141	0xbbad626f	-0.005291275
142	0x3d65c0ea	0.05609218
143	0xbda86104	-0.08221629
144	0xbe125221	-0.14289142
145	0xbd61a871	-0.05509228
146	0x3d94c211	0.07263578
147	0xbe702d1d	-0.2345471
148	0xbd054451	-0.032535855
149	0xbd2ce6d2	-0.042212315
150	0x3d037838	0.03209707
151	0xbdffa974	-0.124834925
152	0xbdd954cb	-0.10611876
153	0x3db2080a	0.086929396
154	0x3e393d6e	0.1808984
155	0xbb84a160	-0.0040475577
156	0xbdfb30f7	-0.12265199
157	0xbdfbf757	-0.12303036
158	0x3c813254	0.015771069
159	0x3e303c28	0.17210448
160	0x3d977510	0.07395375
161	0x3e04e070	0.12976241
162	0x3cfed66e	0.031108107
163	0x3dd240f9	0.10266299
164	0x3dd28676	0.10279553
165	0x3dc92b1c	0.098226756
166	0xbcb47f27	-0.022033287
167	0xbdf4fd8a	-0.11962421
168	0xbe1c2d42	-0.1525164
169	0x3d7dfc37	0.06200811
170	0xbdff6553	-0.12470498
171	0xbd2a731c	-0.041613683
172	0xbe33dff0	-0.17565894
173	0x3e0f3dfa	0.13988486
174	0xbdd187cf	-0.102309816
175	0xbcf934cd	-0.030420685
176	0x3e47705f	0.1947646
177	0xbc7e2ca7	-0.015513576
178	0xbda7d113	-0.081941746
179	0xbde91ca3	-0.11382415
180	0xbdb6f27f	-0.08932971
181	0xbdc81199	-0.097689815
182	0x3e019926	0.12656078
183	0xbc6add06	-0.014334923
184	0x3d6c9d52	0.05776722
185	0x3b12bc73	0.0022390157
186	0x3def69a7	0.116900735
187	0x3e4dd5f8	0.20101154
188	0xbce563c1	-0.028001668
189	0x3e2516f9	0.16122045
190	0x3e1f82cf	0.15577243
191	0x3e2f5ce9	0.17125286
192	0xbdea3bf3	-0.11437216
193	0xbdf17dbc	-0.1179156
194	0xbdeaab63	-0.11458471
195	0xbd743778	-0.05962321
196	0xbc2aab5c	-0.010416832
197	0x3e37e2f3	0.17957668
198	0x3d392753	0.045203518
199	0x3d67022a	0.05639855
200	0x3dcaf6af	0.099103324
201	0x3d2c86cf	0.04212075
202	0xbe0edaca	-0.13950649
203	0xbe489d67	-0.19591294
204	0x3dd35c1b	0.10320302
205	0x3da4dedd	0.0805032
206	0x3e00e6de	0.12588069
207	0xbdc0e47f	-0.09418582
208	0xbd232d57	-0.03983816
209	0xbddb6313	-0.10712256
210	0xbd3f7413	-0.046741556
211	0xbde09bd3	-0.10967221
212	0xbe2cd4a7	-0.16877995
213	0xbc8dc1d7	-0.017304344
214	0x3c97153d	0.018442744
215	0xbe60bd56	-0.21947226
216	0xbe50face	-0.20408174
217	0x3c6fbfff	0.014633178
218	0x3d5c7b08	0.05382827
219	0xbe28f105	-0.16498192
220	0xbe03b33f	-0.12861346
221	0x3c12d14f	0.008961036
222	0xbd06d908	-0.03292182
223	0x3d421cc0	0.0473907
224	0xbd884e75	-0.066555895
225	0x3dc96c96	0.09835164
226	0xbe16f04f	-0.14740108
227	0x3dcb824e	0.09936963
228	0x3cc57fa3	0.024108713
229	0x3e0aa023	0.1353765
230	0xbe09d9d5	-0.13462003
231	0xbd2e6c96	-0.042584024
232	0xbdd4d887	-0.10392862
233	0x3de68acc	0.11256942
234	0x3e4345ac	0.19069546
235	0x3d67e1cc	0.05661182
236	0x3d4b67d7	0.049659576
237	0xbd8c8dff	-0.06863021
238	0xbc9c9a87	-0.019116653
239	0x3e05d868	0.13070834
240	0xbd8d7816	-0.0690767
241	0x3e03e673	0.12880878
242	0x3d4e5d1e	0.050381772
243	0x3e2186a4	0.15774018
244	0x3e06691f	0.13126038
245	0x3abbb6cc	0.0014321445
246	0x3c84e1f1	0.016221019
247	0x3db11378	0.086462915
248	0x3e50e463	0.20399623
249	0x3d5a71bd	0.053331126
250	0xbd8bbd51	-0.068232186
251	0xbd883b13	-0.066518925
252	0x3d4acdaf	0.04951256
253	0x3e65e3c5	0.22450168
254	0x3c8ccaa7	0.017186476
255	0x3d8ee9e9	0.069782086

fc1.bias f4 [32]
0	0x3e051a86	0.12998399
1	0x3da2704b	0.079315744
2	0xbdd9defc	-0.10638234
3	0x3e0c1269	0.13678898
4	0x3db0eeb9	0.08639283
5	0xbbcca1fe	-0.006244897
6	0xbe22ea08	-0.15909588
7	0x3e319d8f	0.1734526
8	0x3d63bc80	0.05559969
9	0x3e0b1600	0.13582611
10	0x3e3977c0	0.18112087
11	0xbde2a3bc	-0.11066386
12	0xbe2fb0fc	-0.17157358
13	0x3e3a9ea3	0.18224578
14	0x3e83cf55	0.2574412
15	0x3ddf7427	0.10910826
16	0xbe200bbe	-0.1562948
17	0xbdbf558c	-0.09342489
18	0xbded94b7	-0.11600631
19	0xbdea56b4	-0.114423186
20	0x3e1d0067	0.15332185
21	0x3e017a66	0.12644348
22	0x3d96fbb7	0.073722295
23	0xbe2d63cc	-0.169326
24	0xbe0a55a3	-0.1350923
25	0x3d9e3c78	0.07726377
26	0x3d62008f	0.055176314
27	0xbcb5d43e	-0.022195932
28	0x3e2cd052	0.16876343
29	0xbe43f61e	-0.19136855
30	0x3e27d9d1	0.16391684
31	0x3dcd713a	0.10031362

fc2.weight f4 [10, 32]
0	0xbac5dbf8	-0.0015095463
1	0x3e59165f	0.2119994
2	0x3d9b3801	0.07579041
3	0xbe000ab8	-0.12504089
4	0xbea65d1d	-0.32492915
5	0xbc272046	-0.010200566
6	0x3d8220b0	0.06353891
7	0x3e2fca11	0.17166926
8	0xbe4ffe38	-0.2031182
9	0xbc2c42e3	-0.010513994
10	0x3dbdcc1b	0.09267446
11	0xbe7d33de	-0.24726817
12	0x3d8bb831	0.06822241
13	0xbe21b2de	-0.15790889
14	0xbde5eec2	-0.1122718
15	0xbdcb149f	-0.099160425
16	0xbd90a680	-0.07063007
17	0xbd8bfc55	-0.06835238
18	0xbe2d1fd9	-0.1690668
19	0xbe55a943	-0.2086535
20	0xbe62e564	-0.22157818
21	0xbd34e441	-0.044162992
22	0xbd4cabf2	-0.049968667
23	0xbe9224ed	-0.28543797
24	0xbb8c7a8f	-0.004287071
25	0xbd8d4b29	-0.06899101
26	0xbdba5752	-0.09098686
27	0x3d0aff2c	0.033934757
28	0xbe57dadc	-0.21079582
29	0x3d4d4a0c	0.050119445
30	0xbe2d642d	-0.16932745
31	0x3e2d612a	0.16931596
32	0x3caa16f5	0.0207629
33	0xbe78f5bd	-0.24312492
34	0x3cc5aaaf	0.02412924
35	0xbd45f3a3	-0.048328053
36	0x3e0efa11	0.1396258
37	0xbe10d91b	-0.14145319
38	0xbe2c50dc	-0.1682772
39	0xbbdfa439	-0.006824997
40	0xbd4349bb	-0.047677737
41	0xbe0f0f07	-0.13970576
42	0x3e1c66bc	0.15273565
43	0x3e59ff7d	0.21288867
44	0x3dc1436f	0.0943669
45	0x3e22475c	0.15847534
46	0x3e368b71	0.1782663
47	0xbd248778	-0.040168256
48	0x3decc1c0	0.115603924
49	0x3e0dcf8c	0.13848704
50	0x3aebeaf8	0.0017999103
51	0xbe3de5f5	-0.18544753
52	0xbe2d630a	-0.16932312
53	0x3ddebaed	0.10875497
54	0xbb2e570c	-0.0026602177
55	0x3deffa6a	0.117176846
56	0x3e0a24af	0.13490556
57	0xbe42fae6	-0.19041023
58	0x3e0961c9	0.13416208
59	0x3e25d6f9	0.16195287
60	0x3c1ed37f	0.009693979
61	0x3e71de50	0.23619962
62	0xbdb66699	-0.08906288
63	0xbe47c2c4	-0.19507891
64	0xbe46b870	-0.19406295
65	0xbd374708	-0.044745475
66	0x3d039fb7	0.032134738
67	0xbe333b2e	-0.17503044
68	0x3e49287f	0.19644354
69	0x3d8a505c	0.067536086
70	0xbddd4bc0	-0.10805464
71	0xbe80d1c9	-0.25160053
72	0xbe03ee2b	-0.12883823
73	0xbd2afdc6	-0.041745923
74	0xbe12b82b	-0.14328067
75	0xbd7e646f	-0.0621075
76	0xbc1408a7	-0.009035266
77	0x3e0228e6	0.12710914
78	0xbe1f1a74	-0.15537435
79	0x3d6710f7	0.056412663
80	0xbe82c17a	-0.25538236
81	0x3da5d348	0.08096939
82	0xbe20c933	-0.15701751
83	0x3e1c12ba	0.15241519
84	0x3ced87c7	0.028995408
85	0x3df2489c	0.118302554
86	0xbd91811e	-0.07104705
87	0x3d809eb5	0.06280271
88	0x3cbb6915	0.022877255
89	0x3d6663ff	0.056247707
90	0xbd44f0ca	-0.048081197
91	0xbe0b015f	-0.13574742
92	0xbe5304c9	-0.20607294
93	0x3cbe8d7e	0.023260828
94	0xbb31bea2	-0.0027121683
95	0xbde50d37	-0.11184161
96	0x3d8064aa	0.062692
97	0xbd05d55b	-0.032674175
98	0x3e5b3fce	0.21411058
99	0xbe09dfc4	-0.13464266
100	0xbe0a3997	-0.13498531
101	0x3e4fc026	0.20288143
102	0xbbf41462	-0.007448719
103	0xba7f7766	-0.000974527
104	0xbd6dad6f	-0.058026727
105	0x3d87266e	0.06599127
106	0xbdf64f91	-0.12026895
107	0x3dc1b870	0.09459007
108	0xbd0cef75	-0.03440805
109	0x3e3c8b38	0.18412483
110	0xbe92f508	-0.2870257
111	0xbdc0c4db	-0.09412547
112	0xbe165064	-0.14679104
113	0xbc6915bd	-0.014226374
114	0xbdc6f4a9	-0.09714634
115	0xbd8657ac	-0.06559691
116	0xbdec7254	-0.11545244
117	0x3d2c0a19	0.042001817
118	0xbe96e465	-0.29471126
119	0x3e06455c	0.13112396
120	0x3c45edf9	0.012080663
121	0xbc8597bc	-0.016307704
122	0xbe895464	-0.26822197
123	0xbe6419a4	-0.22275406
124	0xbd8f80a8	-0.07006961
125	0xbe422cf9	-0.18962468
126	0xbe9caf85	-0.3060266
127	0xbdf4f09e	-0.119599566
128	0xbe68271f	-0.22671174
129	0x3d443e52	0.047910996
130	0xbe9159f4	-0.2838894
131	0xbe2f25b2	-0.17104223
132	0xbe12f999	-0.14353026
133	0xbda475b7	-0.08030265
134	0x3e5b0075	0.21386893
135	0x3e0e2517	0.13881336
136	0xbe50f7db	-0.2040705
137	0xbe43011d	-0.19043393
138	0x3e2cdd0c	0.16881198
139	0xbe2e2b6d	-0.17008753
140	0xbe2594eb	-0.16170089
141	0x3dd1ff71	0.102538
142	0xbda63221	-0.0811503
143	0xbe493168	-0.19647753
144	0xbe31df61	-0.17370369
145	0xbe531f2b	-0.20617358
146	0x3bca8357	0.0061802077
147	0x3e62686f	0.22110151
148	0xbae37e35	-0.0017356338
149	0xbe4b75ac	-0.19869107
150	0x3d892c85	0.066979446
151	0x3e000c4d	0.12504692
152	0x3e3cab96	0.1842483
153	0xbe032f82	-0.12811092
154	0x3e620571	0.22072388
155	0xbc94ba38	-0.018155202
156	0x3d51752f	0.051137146
157	0x3e1e794b	0.15475957
158	0x3ca58a95	0.020207683
159	0x3d31adb4	0.043378547
160	0x3ddaf27d	0.10690782
161	0xbdeb28ae	-0.114823684
162	0xba9d6e84	-0.0012011086
163	0x3db454b7	0.088052206
164	0xbe710423	-0.23536734
165	0xbb07cdba	-0.0020721988
166	0x3e0d4ac4	0.13798052
167	0x3d4ffb7d	0.050776947
168	0x3e4ddc7d	0.20103641
169	0xbc9b7ced	-0.018980468
170	0x3e281fdd	0.16418405
171	0xbc9f8231	-0.01947126
172	0x3e23c7a8	0.15994132
173	0x3d8f7819	0.07005329
174	0xbd8b5dd8	-0.06805009
175	0xbe37f4ec	-0.17964524
176	0xbd07a66e	-0.033117704
177	0x3e00591b	0.12533991
178	0x3ce8b8d2	0.028408442
179	0x3d3af1a5	0.045640606
180	0xbd9cb5d6	-0.0765187
181	0xbe2ca07e	-0.16858098
182	0xbe2cee45	-0.16887768
183	0x3e094b13	0.13407545
184	0xbc16edb4	-0.009211946
185	0xbe2633bd	-0.16230674
186	0x3cf752a1	0.030190768
187	0xbe419782	-0.18905452
188	0x3da689d4	0.081317574
189	0xbd9490a9	-0.07254154
190	0x3c1d87a3	0.009614858
191	0xbdbd0813	-0.09230056
192	0xbe12416f	-0.14282773
193	0xbc64ec82	-0.0139724035
194	0xbbc0a4a0	-0.005879
195	0xbdbe05ec	-0.09278473
196	0xbe033a70	-0.12815261
197	0xbca7a1d5	-0.02046291
198	0xbd1fcb9f	-0.039012548
199	0xbe4b0cd1	-0.19829108
200	0xbda9bffc	-0.08288571
201	0xbd9b5855	-0.075852074
202	0xbda02d10	-0.07821095
203	0x3e01bc3a	0.12669459
204	0xbde004e4	-0.10938433
205	0xbd74537d	-0.059649933
206	0x3e06ca02	0.13162997
207	0x3e484512	0.19557598
208	0x3de8fc8f	0.11376297
209	0x3d0428c5	0.032265443
210	0xbe6ffc78	-0.23436153
211	0x3c3f5c4d	0.011679721
212	0xbe8144ec	-0.25247896
213	0x3df2ae0b	0.11849602
214	0x3e056e9c	0.13030475
215	0xbe181416	-0.14851412
216	0xbb77bec8	-0.0037802923
217	0xbd9ccb33	-0.07655945
218	0x3e086688	0.13320363
219	0x3e3d3c4a	0.1848003
220	0xbd08eead	-0.033430744
221	0xbb8b5aa1	-0.004252747
222	0x3e40b8e5	0.18820532
223	0xbe6dcebc	-0.23223394
224	0xbbc9e35d	-0.006161137
225	0xbd0b71ce	-0.03404408
226	0xbc121bca	-0.008917758
227	0xbe3a5f08	-0.18200314
228	0xbe26552d	-0.1624343
229	0xbe0aa0ea	-0.13537946
230	0xbe076d71	-0.13225342
231	0xbdd24bea	-0.10268386
232	0xbe214f04	-0.15752798
233	0xbe328ec4	-0.17437273
234	0x3c0df9c7	0.008665509
235	0xbe1ca350	-0.15296674
236	0xbe2630d3	-0.16229562
237	0xbd72b99d	-0.059259046
238	0xbe06fe3d	-0.13182922
239	0xbb59654e	-0.0033171955
240	0x3e2447f0	0.16043067
241	0x3d898d63	0.067164205
242	0x3e14a6d7	0.1451677
243	0x3d9cf2ed	0.07663522
244	0xbd78631b	-0.06064139
245	0xbe57c2ff	-0.21070479
246	0x3da8f067	0.08248978
247	0xbd8b0763	-0.06788518
248	0x3d6ce15a	0.0578321
249	0x3d1a3074	0.037643865
250	0x3dc67dcf	0.09691965
251	0xbd557eb0	-0.05212277
252	0xbe42cd1c	-0.19023556
253	0xbe451fe6	-0.1925045
254	0xbe69d6a9	-0.22835793
255	0x3d6403dc	0.055667743

fc2.bias f4 [10]
0	0xbdfd6474	-0.123726755
1	0x3df06891	0.117386945
2	0xbd43e78d	-0.047828246
3	0x3e09927e	0.13434789
4	0x3d8270ce	0.06369172
5	0x3de6113e	0.112337574
6	0xbe2227df	-0.15835522
7	0xbe4650b7	-0.19366728
8	0x3d84d635	0.06486169
9	0x3ddda7cf	0.108230226
