parameters/MNIST/trained-model.pth (torch, 22084 bytes, 5 tensors)

conv1.weight f4 [1, 1, 7, 7]
000000 5c c4 a6 bd 28 bf 40 be d6 ca 00 3d 6d 07 1f bd
       -0.08142921 -0.1882292 0.03144344 -0.03882544
000010 fa 62 4a be 1a 70 b1 bd 26 85 08 be 97 06 7d bc
       -0.19764319 -0.0866396 -0.13332042 -0.015443466
000020 ec 07 33 be 19 3f 22 be f4 1e 95 3d e6 b5 c7 3d
       -0.1748349 -0.15844382 0.072812945 0.09751491
000030 58 d7 92 bd 9c 7d f6 3b 02 77 d2 bd fa af dc bd
       -0.0716998 0.007522298 -0.10276605 -0.10775752
000040 05 61 3d 3d 1b 00 c1 bd 32 0a c9 bc 4a a0 4f be
       0.046235103 -0.09423848 -0.024540994 -0.20275989
000050 f8 09 be bd 2a ff 5e be 39 3d 12 3d db df ab 3d
       -0.09279245 -0.21777025 0.035702918 0.083923064
000060 2c 35 d3 3d ad 6e c2 3d 67 45 21 3d f4 ed 06 be
       0.10312876 0.09493766 0.039372828 -0.1317671
000070 31 c8 e8 3b 98 bc 05 3e f4 0b 97 3d ab 38 ec bd
       0.007103943 0.13060224 0.07375327 -0.11534246
000080 40 91 27 be 55 c1 c9 bc 44 cf 1a be 86 6c cd bd
       -0.16364002 -0.02462832 -0.15118128 -0.10030465
000090 61 30 b9 bd 97 6c d5 3d 87 52 96 3d 2b a2 21 bd
       -0.09042431 0.104211025 0.073399596 -0.039461296
0000a0 21 c0 e5 bd 9b 09 38 be 4d 4d 47 be 3c 8c 04 be
       -0.11218286 -0.17972414 -0.19463082 -0.1294412
0000b0 48 38 a9 bb 2c e8 e4 bb b3 cc 12 be a2 18 40 be
       -0.00516418 -0.006985685 -0.14335899 -0.18759397
0000c0 e5 5d 80 be
       -0.25071636

fc1.weight f4 [64, 64]
000000 b4 59 00 3d 1b 77 52 bd b3 12 0d 3d cf 4e 47 3d
       0.031335548 -0.05138312 0.03444166 0.048659142
000010 5a 4f df 3d 52 4b b1 bb 52 85 8b bd 17 a5 57 3d
       0.10903807 -0.00541059 -0.06812538 0.052647676
000020 82 e1 28 3d 49 08 59 bc 93 11 13 3e 7c b1 dd 3d
       0.041230686 -0.013246604 0.14362173 0.10824868
000030 db 78 0e 3e 89 6e 8b 3c da 61 4b bd 81 b0 82 3a
       0.1391329 0.01702048 -0.049653865 0.0009970815
000040 06 1d 06 3d 17 1d a2 bc 73 7b 9e bd 23 34 2c 3d
       0.032742523 -0.019789262 -0.0773839 0.04204191
000050 eb 42 27 bd 23 41 8f 3d c0 cb ba bd 27 2e 29 3e
       -0.040835302 0.06994846 -0.091208935 0.16521512
000060 cc 7b 02 bc 85 be af bd fc 64 aa 3d 51 c4 b6 3d
       -0.007964086 -0.085812606 0.083200425 0.08924163
000070 88 6d f7 bd 1b 60 24 bb ad 63 a4 3d 43 c1 57 bd
       -0.12081438 -0.0025081697 0.08026824 -0.052674543
000080 7a d3 1c 3a 2f 5c 01 be b9 79 b8 3d f9 e5 7b bd
       0.000598244 -0.12632822 0.09007592 -0.061498616
000090 8b 1b bf bd c2 03 7b 3d 50 73 de bd 4d d0 0f bd
       -0.09331425 0.06128288 -0.10861838 -0.03511076
0000a0 6b 3f 09 3d 1e cf 0e 3e 86 01 69 3d 5b 03 df 3d
       0.033507746 0.13946196 0.05688622 0.10889312
0000b0 5a 6f 8b 3d e6 fe 27 3e c9 41 28 bc db 3b 82 bd
       0.06808348 0.1640583 -0.010269591 -0.06359073
0000c0 49 4f 09 3d 10 7c f8 3c a8 fe b8 bd 6c 5f 11 b9
       0.033522878 0.030332595 -0.09032947 -0.00013863825
0000d0 fc bb be bd 88 75 1b 3e 6f 57 de bc 7b a6 c7 bc
       -0.09313199 0.15181553 -0.027141301 -0.024371376
0000e0 3f 09 8a 3c 74 d1 07 3e 40 78 94 bd a0 c4 f3 3d
       0.016850112 0.13263494 -0.07249498 0.119027376
0000f0 e6 84 39 3e 35 eb 49 3d 98 ad 93 3d 9d 46 19 3d
       0.18117103 0.049296577 0.07210845 0.037420858
000100 f7 f9 35 3c 44 b5 0a 3e ee 0c 2f bd ef 6b 83 3c
       0.01110696 0.1354571 -0.04273694 0.016042678
000110 62 37 00 3e 83 c2 aa 3d 10 f6 e6 bd a2 e8 4c bd
       0.12521127 0.083378814 -0.112774014 -0.050026543
000120 7e a1 77 bd 2d 23 25 bd 59 64 b7 bd ce a0 dc 3d
       -0.060456745 -0.04031675 -0.08954687 0.107728586
000130 33 b8 cb bc 95 10 64 3d 4e 38 cb bd 61 3f 27 bd
       -0.024868106 0.055679876 -0.09922849 -0.040831927
000140 b0 6e 2d bd 5f f6 3d bd 4c b3 b4 3c 76 ed 5b bd
       -0.042341888 -0.046377536 0.022058152 -0.053693257
000150 20 29 42 3d 62 af 80 bd 05 b9 04 be 20 0b 8c 3d
       0.0474025 -0.062834516 -0.12961204 0.068380594
000160 b4 45 e2 3c 9b af 85 bd dc 1b 1c bd 81 b9 98 3d
       0.027621128 -0.06527635 -0.038112506 0.07457257
000170 c7 ae 9d bd 77 84 25 3e ad 9c 1e bd c6 47 9c bd
       -0.07699352 0.16163813 -0.038723636 -0.07630877
000180 d6 f2 a5 bc 64 ff fc 3c 3a 56 bf bc 92 58 f6 bd
       -0.020257395 0.030883498 -0.023356546 -0.12028612
000190 78 b6 31 3e 24 f2 d6 3b 3b 2f 37 3d 09 e0 8d 3d
       0.17354763 0.006559627 0.044722777 0.06927497
0001a0 46 d0 e8 bc 09 49 82 bd 9b 51 29 bd b7 30 92 3d
       -0.028419625 -0.063615866 -0.04133759 0.07138198
0001b0 4d 03 97 bd 1d d8 e4 3c 77 f6 13 3e d8 2f e8 bc
       -0.073736764 0.027935082 0.14449488 -0.028343126
0001c0 52 cf 89 3d 57 62 02 3d 0b 59 69 3d 00 cd f4 bd
       0.06728996 0.031832065 0.056969684 -0.11953163
0001d0 fb dd e1 3d f3 29 7a 3d d6 4a 2c bd bf ec 42 3d
       0.110286675 0.061075162 -0.042063557 0.04758906
0001e0 4a 3c 50 3d d5 b7 ac bd 50 11 16 3e d7 c8 b7 3d
       0.050838746 -0.08433501 0.14655042 0.08973854
0001f0 71 6c ee 3d e6 30 9f 3c 85 32 0e 3e 85 91 b3 bd
       0.11641777 0.019432496 0.13886459 -0.0876799
000200 cb 44 04 3e d3 ff c5 3d 18 53 a1 3d fd 9f 50 bd
       0.12916867 0.09667935 0.07877177 -0.050933827
000210 21 e3 6d bd e7 0f 3a 3d 97 a3 84 3d 48 bf 45 bd
       -0.058077935 0.045425322 0.06476515 -0.048278123
000220 af 92 d1 bd 2e e3 89 bc 24 53 43 3d fe c9 0b 3e
       -0.10233056 -0.01683196 0.04768671 0.13651273
000230 6a 1d 39 3d 1d 4a 3d bd c2 10 8f 3d 28 a0 d3 bd
       0.045194067 -0.046213258 0.06985618 -0.10333282
000240 58 af fd 3d e4 4c 1e bd 93 f8 db 3d a4 6f a1 3d
       0.1238696 -0.038647547 0.10740771 0.07882622
000250 6a de 8d bd 45 c7 9a bc 8d e6 b2 3d 75 be ed 3d
       -0.06927188 -0.018893847 0.0873538 0.116085924
000260 33 1a ab bd 62 d6 35 3c 24 87 b9 3d f9 63 c2 bd
       -0.083546065 0.011098476 0.09058979 -0.094917245
000270 f7 12 4c bd 30 5d f6 bc 06 2e 4d bd 45 c5 13 3d
       -0.049822774 -0.030073732 -0.05009272 0.036076803
000280 0c 94 a4 bd cc 4f 69 3d 65 ff 0d bd a7 f9 e9 3d
       -0.0803605 0.056960866 -0.03466739 0.114245705
000290 80 28 ac bd 7b 41 f8 3d dc d9 c9 bd 00 96 81 bd
       -0.08406162 0.121218644 -0.098560065 -0.06327438
0002a0 3a c8 cc bd 04 a7 8f 3d e9 ba 06 3d c4 a1 d2 bd
       -0.09999128 0.070142776 0.032893095 -0.102847606
0002b0 23 7f 59 bd 66 d5 ba 3d 2e 1a 6c bd 2f b5 a9 3d
       -0.053099763 0.09122734 -0.057642154 0.08286511
0002c0 de 4c 28 be ed ab 89 bd cb 61 0c 3e fb bd e0 3d
       -0.16435573 -0.06722245 0.1370918 0.10973736
0002d0 da 49 40 bc c1 4b e6 3d 29 68 53 bd a1 79 eb bc
       -0.011736358 0.11244918 -0.051613007 -0.02874452
0002e0 fb 7e b1 bd 49 0c 25 3d d6 76 82 bd db 54 4d bd
       -0.08666798 0.04029492 -0.063703224 -0.050129753
0002f0 86 d7 13 3d af 71 3c 3b 82 26 cc bd 73 b4 7b bd
       0.03609421 0.0028754284 -0.09968282 -0.061451387
000300 02 16 c9 3b b8 88 89 bd 93 a0 fb bd b4 2e 9f bd
       0.0061366567 -0.0671553 -0.122864865 -0.0777258
000310 02 90 9f bc 04 3b 27 be 8e 33 ee 3c 18 36 69 bd
       -0.019477848 -0.16331106 0.029077318 -0.056936353
000320 30 04 69 bd 77 60 00 be 5a 39 ca bd f0 ad 8b 3d
       -0.05688876 -0.12536798 -0.0987422 0.06820285
000330 1f 03 8e 3d b4 8e 81 bd 4e ee 21 be 7a 90 15 be
       0.06934189 -0.063260466 -0.15813562 -0.14605895
000340 89 42 9e bd de 36 26 3e c9 93 b5 3d 67 10 18 bb
       -0.07727534 0.16231868 0.088660784 -0.0023203136
000350 da 61 e6 bc 89 e7 e8 3d 4e c0 90 3d f0 c2 6c 3d
       -0.028122831 0.11372287 0.07067929 0.057803094
000360 3c 8e 74 bd 6f a3 b5 bd d7 e3 21 be ce 19 54 3c
       -0.059705958 -0.08869063 -0.1580957 0.012945605
000370 cf 4f 8b bd b5 76 af bd 9b ff 14 be 7e 37 d8 3d
       -0.06802332 -0.085675634 -0.14550631 0.10557459
000380 e4 31 19 be b5 46 99 bd 8b 1a 6d 3d fa 82 f9 bd
       -0.14960438 -0.074841894 0.05788664 -0.12183185
000390 8b 79 06 be 22 1d b1 bd 79 b5 3f bd 76 35 45 bd
       -0.13132302 -0.08648135 -0.046803925 -0.048146687
0003a0 e2 7b 75 3c d7 47 ee 3c 6a d5 3e bd 86 46 cf bc
       0.014983149 0.02908699 -0.046590246 -0.025302183
0003b0 a2 98 04 3d ba 7b 5c 3d 78 71 d2 bd 0a 2e 62 3d
       0.032372124 0.053828932 -0.10275549 0.055219688
0003c0 91 e6 11 3c fb 4c d1 3d 3f 90 c8 bd a6 0b a4 bd
       0.008905069 0.10219761 -0.09793138 -0.08010034
0003d0 50 63 f5 bd c9 28 24 bd 9f aa 86 bd e5 67 09 3d
       -0.11981833 -0.04007796 -0.06575512 0.033546347
0003e0 b0 81 82 bd a1 a7 0b 3e e3 bb b7 3d 24 4d 52 3d
       -0.06372392 0.13638164 0.089713834 0.0513431
0003f0 5f 6e ec bd e4 5e 09 be e1 91 73 3d b8 fb 25 bc
       -0.11544489 -0.13415104 0.059465293 -0.010130815

fc1.bias f4 [64]
000000 c0 59 27 3e d7 b4 b6 3d 04 18 c2 bd 4f 22 33 be
       0.1634283 0.08921211 -0.09477237 -0.17493556
000010 2c 8d 85 3d 0c 06 a8 3d 2c 76 9b 3d 60 14 16 bd
       0.06521067 0.08204278 0.07590899 -0.036640525
000020 6d 79 4c bc a3 a0 25 be ff be 2a bd 75 52 27 3d
       -0.012480122 -0.1617456 -0.041686054 0.04085012
000030 db ba de bc 73 a2 ed 3c 26 b0 85 3d 91 26 ed 3d
       -0.027188709 0.029008126 0.06527738 0.115796216
000040 89 79 0a be 8d da c8 bd da e7 ee 3d ef 2e ab bd
       -0.13522924 -0.0980731 0.11665316 -0.08358561
000050 aa 74 98 3d e8 7e 88 3d fd f4 20 3d a5 69 3b ba
       0.07444127 0.066648304 0.03929614 -0.0007149226
000060 36 6b 74 3d 16 27 0b be 11 cc b0 3d ce 9c 64 3d
       0.059672557 -0.13589129 0.086326726 0.055813603
000070 01 44 a8 bd 02 06 01 be 9a df 26 3e db 65 aa 3d
       -0.08216096 -0.12599948 0.16296235 0.08320209
000080 c9 8d ff bd 64 39 1c 3e a1 ec 2f 3e a3 7d 3a bd
       -0.12478215 0.15256268 0.1718011 -0.045529973
000090 80 6f 0e be 1d a2 3e bd 85 1c bf 3d 02 c7 a9 bd
       -0.13909721 -0.046541322 0.093316115 -0.08289911
0000a0 46 27 c2 3d d0 ab b4 bd ae 48 0c be a6 f5 d7 bd
       0.09480147 -0.08821833 -0.136996 -0.105449006
0000b0 a0 38 f3 3c 10 1c 7e 3d 52 d4 b6 bc 7f 9d e0 3d
       0.029690087 0.06203848 -0.02231804 0.1096754
0000c0 44 55 b5 bd a2 a0 2c be 5e 82 b0 bd e0 47 f4 3d
       -0.08854154 -0.16858152 -0.086186156 0.119277716
0000d0 66 90 58 3d 67 4a eb bd 2f d6 49 3d 87 0e 15 3e
       0.052872084 -0.114888005 0.049276527 0.14556323
0000e0 58 1e 1b 3e 5a 29 9b 3d 2b 7a c9 3d d0 b2 0e bc
       0.15148294 0.075762466 0.09837755 -0.008709624
0000f0 e8 13 2a be 6e 0d a4 3b dc fe cd 3d 7c 58 e9 bd
       -0.16609156 0.0050064838 0.10058376 -0.1139383

fc2.weight f4 [10, 64]
000000 01 9f d6 3d 42 f5 08 3e b7 13 e8 bd f1 ad 17 be
       0.10479546 0.13374808 -0.11331885 -0.14812447
000010 9c d9 9d 3d b9 dd ef 3c 2d 89 7c bb 9b ed 90 3d
       0.07707521 0.02928053 -0.0038533912 0.0707657
000020 36 fd 8f 3d 40 d5 fa bd 0f 34 0b be dc 45 7d 3d
       0.07030718 -0.122477055 -0.13594078 0.0618342
000030 0e fb 38 3d 26 9c 92 bc c3 7f 53 3d 32 ae ef bd
       0.0451613 -0.017896723 0.051635515 -0.11703147
000040 70 f8 d2 bd 4d 40 04 3e bc fb 1c 3d 63 08 dd bd
       -0.10301292 0.12915154 0.03832601 -0.10792615
000050 68 67 dd bd d7 49 2f be b9 20 a6 bd d1 01 df 3d
       -0.10810739 -0.17118011 -0.0811171 0.10889018
000060 5f ff 66 3d cb 0c ca 3d dc d7 0a 3e 6e 11 01 be
       0.056395885 0.09865721 0.13558906 -0.12604305
000070 e2 45 35 be fa 79 42 bd 07 4d ee 3d c7 6f a6 3d
       -0.1770244 -0.047479607 0.116357855 0.081267886
000080 46 92 de bd 39 22 36 bc 39 e2 e9 bc 99 db 3b 3d
       -0.10867743 -0.011116558 -0.028550254 0.04586372
000090 2e 84 ff 3c 52 ef 09 be db 5c 46 bd 23 ba bb 3c
       0.031190958 -0.134702 -0.048428398 0.022915905
0000a0 f4 6b 16 be 62 d7 d2 3d 04 fd de bd 1a 32 a8 3c
       -0.14689618 0.10294987 -0.10888103 0.020531703
0000b0 cd ed 8f 3d a4 eb 38 bc 13 36 ee bd 66 15 9e 3c
       0.07027779 -0.01128665 -0.116314076 0.019297313
0000c0 f2 3e 35 bd 94 f6 7d bd 98 62 26 be 18 7b ca 3d
       -0.044249482 -0.062002733 -0.16248548 0.098867595
0000d0 ec a2 fa bd 1a 83 39 be f1 a3 be bd b7 23 a1 3c
       -0.12238106 -0.18116418 -0.09308613 0.01967035
0000e0 c9 17 3e be f8 05 02 3d 5a 02 db bd b0 80 84 39
       -0.18563761 0.031743973 -0.10693808 0.00025272882
0000f0 06 08 a5 bd 97 8c 44 bd f4 6c f9 bd 8d fc 9e bd
       -0.08058171 -0.04798564 -0.12178984 -0.07763014
000100 9a f2 21 3e 10 89 11 3d 45 a0 c8 bd 51 73 ee 3d
       0.15815201 0.035531104 -0.09796194 0.116430886
000110 1c 90 83 bd 83 24 1f be bb fc 9b 3d f9 5a dc 3c
       -0.06423971 -0.15541272 0.07616564 0.026898848
000120 f9 6a d6 3c 19 21 ed 3b 6c de 67 bc 59 6b db bd
       0.026174055 0.0072366116 -0.014152151 -0.10713834
000130 32 e9 13 be 5f a6 a9 bd 46 8a d2 bd 9f a0 00 be
       -0.14444426 -0.08283686 -0.1028028 -0.12561272
000140 95 dc 90 bd ac 27 68 bb d0 19 b7 3d 4e 3d 2f 3e
       -0.07073323 -0.0035424037 0.0894047 0.1711323
000150 c0 8d 23 3b 09 02 02 3e 07 3f a6 3d c2 12 ab bd
       0.0024956316 0.12696089 0.0811749 -0.08353187
000160 4b f3 f7 bd d0 94 09 3e 34 8b 1c 3e f0 b5 da 3d
       -0.12106951 0.13435674 0.15287477 0.10679233
000170 3d 3b d4 bd 06 dd 31 be 3a 01 d7 bd f5 28 fc bb
       -0.10362861 -0.1736947 -0.10498281 -0.007695312
000180 3c af d8 b9 fe 12 8e bd d0 8b f5 3d 14 21 7a 3d
       -0.0004132929 -0.06937216 0.11989558 0.061066702
000190 42 db 19 3e a6 00 a1 bd 64 23 80 ba f5 65 32 3e
       0.15025046 -0.07861452 -0.0009776172 0.17421706
0001a0 d2 a2 08 3e 0d 06 f2 bc ea f9 d3 3d d3 3b 98 bd
       0.13343361 -0.0295439 0.10350402 -0.074332856
0001b0 5a 5d d9 3d e9 db 2c bc cd 7d 16 3d 6a d4 01 be
       0.106135085 -0.010550478 0.036741067 -0.12678686
0001c0 9e 81 31 be 2c 42 b6 3c 74 94 3e bd 12 24 fe 3c
       -0.17334601 0.02224835 -0.046528295 0.031023059
0001d0 87 26 ff bc 31 d5 e9 bd 4c 19 65 bc b7 1c ee 3c
       -0.031146301 -0.11417616 -0.013983082 0.029066427
0001e0 d2 97 5d bd ad 6f 07 be 92 9d b5 3d 97 10 15 be
       -0.054099865 -0.13226195 0.08867945 -0.1455711
0001f0 2d f5 8d 3d 77 a6 c5 3d b5 d9 93 bd 42 17 fe 3c
       0.06931529 0.09650891 -0.07219259 0.03101695
000200 a3 82 96 bd 89 8b c5 bd ce 40 6e 3c a3 08 50 3d
       -0.07349136 -0.09645755 0.014541818 0.050789487
000210 5e c8 3e 3d 42 04 26 bd d5 66 85 bd c0 07 98 bd
       0.046577804 -0.040531404 -0.06513754 -0.07423353
000220 6a d9 75 bd c8 4f 61 bd da 73 e8 3d 3b 21 ca 3c
       -0.060021795 -0.055007726 0.11350222 0.024674049
000230 e0 9b 21 3d 02 1b 00 3e 95 af 13 be 77 ca f4 3d
       0.039455295 0.12510303 -0.14422448 0.119526796
000240 f6 5b 7a bd c0 76 38 bd df 6b bd 3d b6 3b 93 3c
       -0.061122857 -0.045035124 0.092490904 0.017972808
000250 ab b4 f4 bd 51 27 9f bc 2b a7 ee 3d a6 2e cc bd
       -0.11948522 -0.019427927 0.116529785 -0.09969835
000260 60 81 0f 3d f5 51 14 be ca 6e 00 bd 43 72 96 3d
       0.03503549 -0.14484389 -0.031355657 0.073460124
000270 41 7c 61 bc 64 b6 0c bd 4f 7d 9c 3d 8e a8 76 3d
       -0.013762535 -0.03435363 0.07641088 0.06021934
000280 b2 65 c7 3d 81 cd 26 be aa 60 32 bc 2e 14 fc bc
       0.09736194 -0.16289331 -0.010887304 -0.030771341
000290 46 7b 21 bc b6 f9 c9 3d 7d 2c 3a bd 1e 18 18 be
       -0.009856051 0.09862082 -0.045452584 -0.1485295
0002a0 40 93 94 3c 68 1a 22 bd c6 30 9c 3d a8 a7 d7 bc
       0.01813662 -0.039575964 0.0762649 -0.026325062
0002b0 7d 0c 59 3d 04 65 84 3d 26 21 0b be 95 82 ff bd
       0.052990425 0.0646458 -0.13586864 -0.124760784
0002c0 29 35 84 bc ac be 30 be fb db 8a bd 0e b1 cf 3d
       -0.01613863 -0.17260236 -0.06780239 0.101411924
0002d0 f6 be e2 3d ad e2 38 bd 10 bf 1c be c5 dd 47 bd
       0.11071579 -0.04513805 -0.1530726 -0.04879548
0002e0 5a 87 4e bd dd dc 0e bd 0c ee 06 be d6 26 68 bd
       -0.05042205 -0.0348786 -0.13176745 -0.05667766
0002f0 da 49 c1 bc ac aa 4a bd b4 8b ae 3d f4 e2 b9 bd
       -0.023594785 -0.04947917 0.0852274 -0.09076491
000300 d5 4c f5 3c 38 e3 3c 3d dc 6f ef 3d 09 89 99 bd
       0.029943863 0.04611513 0.11691257 -0.074968405
000310 77 ee 05 be 0e d5 e2 3b c4 23 c8 3c c8 ac f7 bd
       -0.13079248 0.0069223708 0.024431117 -0.12093502
000320 ee d5 ad bd c7 b7 9d bd aa 76 ac 3d c6 b0 b3 bd
       -0.084880695 -0.07701068 0.08421071 -0.08773951
000330 62 cf e9 3d b7 a5 e2 3d d4 c4 cd 3d ba cb fc 3d
       0.11416508 0.11066764 0.100473076 0.12343545
000340 51 70 07 3d fa 4a e1 bd e9 5c b4 3d 35 bf ee bd
       0.033066098 -0.11000629 0.08806784 -0.116575636
000350 24 16 e3 bd 6f 77 90 bd f3 f4 8a 3d 17 4a bf bd
       -0.11088207 -0.0705403 0.067850016 -0.093403034
000360 86 cb f8 bd 32 c8 a6 bd e1 aa 1f be 9f 9c a5 3d
       -0.12148194 -0.08143653 -0.15592529 0.08086514
000370 ae 1a e6 bd be 63 56 3d 54 01 91 bd 9a f5 cf bc
       -0.112355575 0.052341215 -0.070803314 -0.025385667
000380 b7 5e 02 be 20 92 aa bd 0e 94 e7 bd 6f 04 28 be
       -0.12731443 -0.083286524 -0.11307536 -0.16407941
000390 04 6c 4d 3d 7d a7 80 bd f8 aa fb bb bd 80 20 3d
       0.05015184 -0.06281946 -0.007680293 0.039185274
0003a0 9c 10 80 bd a2 14 43 3d 5c 74 35 bd 8d d0 8f bd
       -0.06253168 0.0476271 -0.044300422 -0.070222
0003b0 fa 4d f6 bd 78 79 89 3d 36 5a 8a 3c 43 47 4d bd
       -0.120265916 0.067126215 0.016888719 -0.05011679
0003c0 79 2f 25 3d ad 7d 28 3c 6a a5 82 bd eb 52 03 3e
       0.040328477 0.01028387 -0.063792065 0.128246
0003d0 c6 34 db 3c 33 c8 b8 bd a2 94 04 3e 15 bb b7 3d
       0.026758563 -0.0902256 0.12947324 0.0897123
0003e0 a4 c7 04 be 2b b8 16 3e a6 20 52 bd aa 84 4c bd
       -0.12966782 0.14718692 -0.051300667 -0.049931206
0003f0 a2 38 0a be 84 36 61 3d 8b 74 d1 3d 0e 52 f0 3c
       -0.13498166 0.05498363 0.10227307 0.029336002

fc2.bias f4 [10]
000000 72 ed c8 3d 2f e2 51 bd 11 05 94 bd 5f 27 47 3c
       0.09810914 -0.051241096 -0.07227529 0.012155383
000010 a7 9c af bd 06 8c b6 bd a2 61 b2 3d f1 5a a7 3c
       -0.08574801 -0.08913426 0.08710028 0.020429106
000020 58 ba 8e 3d 96 46 9a bd
       0.06969136 -0.075329944
