parameters/MNIST/trained-model.pth (torch, 4612 bytes, 5 tensors)

conv1.weight f4 [1, 1, 7, 7]
00000000: 7877 233d 113a 50bd 3751 423e abe5 063e
00000010: aaaa 01bd 0d2b 983d 47b4 7f3c ff7f f03d
00000020: ce45 cebc 4f99 0e3a ef89 5d3e b2b5 713e
00000030: 39b2 9c3d fb79 273e adc5 093d 803b 033d
00000040: cbd3 353e c00f 833c c924 aa3d 7751 7cbd
00000050: 2506 853d ef46 9dbd b6cf 203e e466 2b3e
00000060: 2eee 3a3e 0e90 4b3e b5ab 3d3e 2d6c 313d
00000070: cd45 0a3e cbd0 683e 7b02 183e a51f 2cbc
00000080: 383d 02bd 8e70 1a3e b412 563d e9a7 363d
00000090: e61a e03c 22d5 6c3e 86a2 5a3e 9a2f 033e
000000a0: b3fb b73d 47c0 f33c a218 19bd f175 323d
000000b0: 5d5d 1d3e c655 203e e178 273d 3b0c 623c
000000c0: 53a1 41bd
0.039908856 -0.050836626 0.18976294 0.13173549 -0.0316569 0.07430086 0.015606946 0.11743163
-0.02517977 0.0005439715 0.21634649 0.23604468 0.07651181 0.16355126 0.033635784 0.032039165
0.17756574 0.015998721 0.083077975 -0.06160113 0.064953126 -0.07679545 0.15704235 0.16738468
0.18254921 0.19879171 0.18522532 0.043316055 0.1350319 0.22735898 0.14844696 -0.0105055915
-0.031796664 0.15081999 0.05226393 0.044593725 0.027356576 0.23128179 0.2135106 0.12811127
0.08983555 0.02975477 -0.037377007 0.04356951 0.15367647 0.1565772 0.040886763 0.013796861
-0.04727299

fc1.weight f4 [16, 16]
00000000: b157 d5bd 446b 65be e620 c1bd eec0 5b3c
00000010: aebd e63d eabf d7bd d933 92be e6c5 a23c
00000020: ca6a 1dbd 75ee 57bd ee1d bf3d c8d6 9c3d
00000030: 7211 dd3d 44ce e7bc ec8e 60be 8818 fcbd
00000040: d599 c8bd f1f6 82be 70e3 b2be 1aa3 91bd
00000050: abd8 dfbd 4b27 2a3c 02d8 4dbe 3eed 283e
00000060: 3e42 3bbd f77c 35be 1023 473e 1bbe 05bd
00000070: ca1f 8bbe 462b 2bbe 4d25 c93d 57e3 84be
00000080: 4531 80bd f02f 76be 2663 8b3d 95da 63be
00000090: 78b3 e8bd 115b 18bc 0b00 3dbe 5ff8 45be
000000a0: 5c4e 0c3e e8e2 693e b4c8 ae3d fa6d 953d
000000b0: f08d 563d e590 2c3e 05e9 213d 5194 50be
000000c0: 85a9 dd3d db1b 8abd 78b0 72be 5ae1 02be
000000d0: 2eae 3fbe c1e7 073e 09f7 933d cdfa 62bd
000000e0: 0d8d 1dbd f70e 2d3e 64a8 30be 9563 ca3d
000000f0: d244 6c3e 5302 2ebb f95f af3d 8496 a0bd
00000100: c915 00be ddd0 193e d8b1 1cbe bfeb 823b
00000110: 5d18 d43d 7ff2 123e 964b 90be bb59 47be
00000120: 5484 53be 1412 1dbd 08dd 6fbe 9ca9 db3d
00000130: 82e5 9ebd 1aa5 423d f9da 59be b102 6abe
00000140: 8b0c 4cbe b323 46be cbca 33bd 9dc9 1fbe
00000150: fb92 1f3e 7fed 40be a125 46be 91e0 e83d
00000160: ca00 e1bc bec2 4abe d8e0 1bbe a6fe b33d
00000170: 4424 3ebe 262b 6c3e 5426 9dbc 5b38 82be
00000180: aef9 fbbd 319c 0b3d c019 f4bd 9821 72be
00000190: be73 323e 90b8 85bb c154 fc3c 9e26 cf3b
000001a0: 9b76 fdbd 6459 82be ede1 51be d274 683d
000001b0: 21d8 8dbe 7c39 d13d 7e69 393e 8d34 1ebe
000001c0: 9290 023d 1d8f a5bb 6cea 973d 5ab1 7fbe
000001d0: 9c54 0b3e 78e8 233d e1ef 60be e44c 943d
000001e0: 6522 1d3d b004 97be 08e2 643e f118 cb3d
000001f0: 806a 7e3d 428c f0bd e8d5 2f3e b44e 84be
00000200: 474d 723e 3aff 0a3e 3566 183e 41e7 fdbd
00000210: d74b 05be 1093 353e 7bd2 523e 00f3 9ebd
00000220: 1f03 8fbe aa32 fcbc 4f44 973d 2a93 283e
00000230: 9083 e63c 1274 d0bd f690 363e 0b16 55be
00000240: 866e 793e c8ce 3abe df6e 1d3e 4c5c fd3d
00000250: aa99 05be 4399 fdbd 09f6 bf3d a40c fc3d
00000260: 911b 62be f018 d8bc 6b5f ec3d a453 21be
00000270: e510 85be 89c1 40be 9226 1ebe 82a3 c8bb
00000280: 66b5 8ebe 7ff1 11bb edfd 00be ef3f f33d
00000290: 6552 33be f29e 7b3e bbf5 6fbe bf07 32be
000002a0: c15a 57be b895 9f3c f21a 4f3c 5a3d 3fbe
000002b0: b6b7 26bd f886 053e 1661 73be 443f 273d
000002c0: 2a16 53be 44d0 59be ff63 693e ffcf 863e
000002d0: 6114 173c c76c 9e3e 4ca4 593d 9215 babc
000002e0: 61e7 bebd 2fb1 2f3c bd2a 4dbe fd2d 0dbd
000002f0: 3882 7d3d 5234 9e3d 8817 1ebe 5730 c7bd
00000300: 5454 f0bc a48c 47be 47e2 33be 3686 4ebe
00000310: 25f3 823d 5a6d 57be 73a2 063e 5568 84bb
00000320: bda7 0abd bf2c a9bd 8452 20be 0970 163e
00000330: b356 333e 9290 c4bd 5a76 53be 5d1a 71be
00000340: 760d bb3c 1ea0 a53e 79d5 893e 098c 7e3e
00000350: 4ea4 333d 4b15 9a3e 44ae 8e3e 562c 8d3e
00000360: 597e 973c 5006 c7bd fa87 f3bd 1eb4 4c3e
00000370: be71 d23b 0bfd b8bd 704f 0abe 06a1 8d3e
00000380: 4359 46be 1be0 23be 1fe9 2d3e 04d5 37be
00000390: f809 2abe e716 14be 4d9b f6bd 39f0 15be
000003a0: 6c58 503e 5ecf 053d 44d7 173c e5d5 1c3c
000003b0: abfa f13d d7fd 423d 1b32 20be 7ac5 133e
000003c0: 931f 6c3e 42ea 3b3e 8069 e3bd 6f03 293c
000003d0: 945e 9ebd b292 10bd 96ef 393d 9868 313e
000003e0: a14e 603d a8a9 183e b810 803e a701 543e
000003f0: d77c 5ebe edfe 55be 2071 b13e 291d 3f3e
-0.104171164 -0.224042 -0.09430103 0.013412697 0.11266647 -0.105346516 -0.28555182 0.019869756
-0.03843192 -0.052717645 0.093318805 0.07658154 0.10794343 -0.028296597 -0.2192952 -0.123093665
-0.09794966 -0.25579026 -0.34939146 -0.07111187 -0.10929998 0.010385345 -0.20101932 0.1649675
-0.04571747 -0.17723452 0.19446969 -0.032652 -0.2717269 -0.16715726 0.09821568 -0.25954697
-0.062593974 -0.24041724 0.068060204 -0.22251351 -0.11362356 -0.009299056 -0.18457048 -0.19333027
0.13701767 0.22840464 0.08534375 0.07296367 0.052381456 0.16852148 0.039528865 -0.20369078
0.10823349 -0.06743594 -0.2370013 -0.12781277 -0.18718788 0.13272001 0.072248526 -0.055414964
-0.038464595 0.1690024 -0.17251736 0.09882275 0.23073128 -0.0026551678 0.08563227 -0.078412086
-0.1250831 0.15021081 -0.15302217 0.0039953883 0.103562094 0.14350317 -0.28182667 -0.19467823
-0.20655948 -0.03834732 -0.2342416 0.1072571 -0.07758619 0.047520734 -0.21274938 -0.22852589
-0.1992666 -0.19349556 -0.04389457 -0.15604253 0.15583412 -0.18840598 -0.19350292 0.11370958
-0.027466197 -0.19800851 -0.1522249 0.08788805 -0.18568522 0.23063335 -0.019183315 -0.2543362
-0.12303482 0.034084503 -0.11918974 -0.23645627 0.17426965 -0.0040808395 0.030802133 0.006321742
-0.12376138 -0.25458825 -0.2049634 0.056752034 -0.27703956 0.102160424 0.18106648 -0.15449734
0.031876154 -0.005052461 0.07417759 -0.24969998 0.13606495 0.04001662 -0.21966507 0.07241228
0.03836288 -0.29495764 0.22351849 0.099168666 0.062113285 -0.11745502 0.17171443 -0.25841296
0.23662291 0.13573924 0.14882739 -0.12397624 -0.13017212 0.17731881 0.20588104 -0.07761192
-0.2793207 -0.030785877 0.07386076 0.16462389 0.028138906 -0.10178389 0.17828736 -0.2080919
0.24358568 -0.18242943 0.15374325 0.1237112 -0.130469 -0.12382748 0.09373099 0.123070985
-0.22080828 -0.026379079 0.11541637 -0.15754563 -0.25989452 -0.18823828 -0.15444401 -0.0061230073
-0.2787277 -0.0022269187 -0.12596865 0.11877429 -0.175119 0.24572352 -0.23433582 -0.17385767
-0.21030714 0.019480571 0.012640702 -0.18675748 -0.040702544 0.13039768 -0.23767504 0.04083182
-0.20613924 -0.21270853 0.22792052 0.26330563 0.009221167 0.30942366 0.0531352 -0.022715364
-0.09321476 0.010723396 -0.20035835 -0.034467686 0.061891764 0.07724823 -0.15438664 -0.09726017
-0.029337086 -0.19487244 -0.17566787 -0.20168385 0.063940324 -0.21037808 0.13147907 -0.0040407577
-0.033851374 -0.08260488 -0.15656477 0.14691176 0.17513542 -0.09597887 -0.20650616 -0.23545213
0.022833567 0.32348722 0.2692068 0.24858107 0.043857865 0.3009437 0.2786733 0.27572888
0.018492864 -0.09718001 -0.1189117 0.19990584 0.0064222505 -0.09032639 -0.13506866 0.27661914
-0.19369988 -0.16003458 0.1698346 -0.17952353 -0.16605365 -0.14461862 -0.1204134 -0.14642419
0.2034623 0.032668464 0.009267632 0.009572481 0.11815389 0.04760536 -0.15644114 0.144308
0.2305892 0.18351081 -0.11104107 0.01031576 -0.07732883 -0.03529615 0.045394503 0.17325056
0.054762486 0.14908469 0.25012755 0.20703755 -0.2172731 -0.20898028 0.3465662 0.18663467

fc1.bias f4 [16]
00000000: eba4 913d c355 9abd ea48 593d 98a1 86bd
00000010: abe4 d73a 3907 aa3b dca9 65be 200c b7bd
00000020: 4c3c 583d 32dd 86be 560d 5abe 5636 033e
00000030: 6821 123e 4b33 e5bc a82d cdbd b741 df3d
0.07111534 -0.07535889 0.053048052 -0.0657379 0.0016471347 0.0051888493 -0.22428077 -0.089378595
0.05279188 -0.26340634 -0.2129415 0.12813696 0.14270556 -0.02797856 -0.10018474 0.10901206

fc2.weight f4 [10, 16]
00000000: b027 663c f58e 5a3e bbcf 48be 08b4 183d
00000010: 1a20 7fbe d277 f1bd b121 63bd 9ebe 0e3d
00000020: b8e4 69be 5d16 49be 0aa3 41be f0a2 b03d
00000030: 9f12 643e 758b b83d 4665 13be a2c1 a9be
00000040: 6232 e8bd 99e5 e13d 0573 72be 1829 053e
00000050: cb4d 54bd 549a 9e3b 628e 633d 2b9c f13b
00000060: 57a3 d4bd 62b2 b43c 97db 853e e7b0 813b
00000070: 38f8 2bbe eefa 23be 109a 26bd a8f3 703e
00000080: 9253 12be ed7f cebd 0e25 04bd b0dc 64be
00000090: 9d2e 233e d8e0 043e 55d2 163e 848f 4bbd
000000a0: d745 bcbd 6c36 8dbe a2af 983d d51f 793d
000000b0: 4812 53be 6c93 dcbd f40a 61be e4ad fe3d
000000c0: 393f b93a 3287 1b3e 3b78 80bc 5a5d 51be
000000d0: b3ec 843e 1c11 3d3d 3623 97be 42f6 64be
000000e0: 5bf1 dfbc e037 64be d921 593e 566f 2abe
000000f0: baf6 ee3d 34c1 0f3d 4987 3a3e f28f 463e
00000100: 004c a1bd 290a bfbd 68c1 473e b64c 9fbd
00000110: 100d 473d 3229 59be b936 e93d c589 94be
00000120: 811b c4be 6519 24bd 52ae 223e a52e 46be
00000130: 1f27 533d 71ec 84be b118 61bd 301d 5c3e
00000140: 0035 38be c8db c33d 64dd 48be bb3a 1d3e
00000150: 9a07 48be 85c1 5fbc 6abd 0fbc 1ec1 8bbb
00000160: bd99 45be c579 413d 816e 1a3e 6736 86be
00000170: 8284 2b3d 47f1 893b 36f1 4d3e e8c7 89be
00000180: 1376 01be 08e0 773d 09c3 e73d f343 2abe
00000190: 4b42 63bd 9794 493e 0a64 443e c08f 63be
000001a0: 8d31 08be 1fb7 0fbe 214e 98bd 4536 70be
000001b0: e00d 54bd 2d45 91be 51c4 82be 4ae7 eabd
000001c0: 71cb 783b f331 00be 41dd 08be 7977 4bbe
000001d0: d95e c8bd 9c54 e1bc 5e3b 2ebe 89e6 0abe
000001e0: fb35 223d c0e8 52be b0a0 39be 58fb 283d
000001f0: 402f 88be e0cc 1f3e f6f1 023e b66b 0abe
00000200: e724 403e 99c9 f6bc 6bfc 5abd 7a3b 233e
00000210: 6d84 0cbe 8552 8a3c 6320 1fbe 0abc 753e
00000220: 3587 c3bd 6ecc 83be 110a e63d 365b 093e
00000230: a4f6 61be b84e 103e 272a d93d e8db a0be
00000240: 890b 1f3e 2469 0fbe 83a4 673d 7bd1 2dbe
00000250: ed09 46be e038 17be c8c8 93be 9f34 94bd
00000260: 005e 6f3e 0d99 aabd b21d 363e 6f63 7d3d
00000270: 51e2 f3bb 725a f0bd 2df4 bb3c 7e22 063e
0.014047548 0.21343596 -0.19610493 0.037281066 -0.2491459 -0.11790432 -0.055452053 0.034849755
-0.22841156 -0.19637437 -0.1890985 0.08624828 0.22272728 0.09010974 -0.14394102 -0.33155543
-0.11337735 0.110301204 -0.23676689 0.13003957 -0.051832 0.0048401747 0.05555571 0.007373353
-0.10382717 0.022057716 0.26144096 0.003957856 -0.16793907 -0.16013691 -0.04067427 0.23530447
-0.14289692 -0.10082994 -0.0322619 -0.2234981 0.1593575 0.12976396 0.14728673 -0.049697414
-0.091930084 -0.27580583 0.07455374 0.060821373 -0.20612442 -0.10770306 -0.21976835 0.12435511
0.0014133222 0.15188292 -0.01568233 -0.20445767 0.25961837 0.046158895 -0.2951905 -0.22359565
-0.027336767 -0.2228694 0.21204318 -0.16644034 0.11668153 0.035096362 0.1821567 0.19390848
-0.07875824 -0.0932811 0.19507372 -0.07778303 0.04859644 -0.21207121 0.11387391 -0.2901136
-0.38302234 -0.04006328 0.1588681 -0.19353731 0.05155098 -0.2596164 -0.05495519 0.21495509
-0.17988968 0.09563404 -0.19615704 0.15354435 -0.1953415 -0.0136569785 -0.008773187 -0.0042649647
-0.19296928 0.04723527 0.15081216 -0.2621338 0.041874416 0.0042096707 0.20111546 -0.2691033
-0.12642698 0.060516387 0.11316497 -0.16627483 -0.055483144 0.19685589 0.19178787 -0.22222805
-0.13300152 -0.14034699 -0.07436777 -0.23458202 -0.051771045 -0.2837309 -0.25540403 -0.11469896
0.0037963057 -0.12519054 -0.13365652 -0.19869794 -0.09783716 -0.027506165 -0.17014834 -0.13564505
0.03960226 -0.205966 -0.18127704 0.041255325 -0.2659855 0.15605497 0.12787613 -0.13517651
0.18764077 -0.030125426 -0.05346338 0.15940657 -0.13722391 0.016885052 -0.15539698 0.23997512
-0.09547273 -0.25741905 0.11232389 0.134137 -0.22066742 0.14092529 0.10603743 -0.31417775
0.15531744 -0.14004952 0.056553375 -0.16974442 -0.19339724 -0.1476779 -0.2886412 -0.07236599
0.23375702 -0.08329973 0.17784765 0.061862405 -0.0074427505 -0.11736001 0.02294358 0.13099095

fc2.bias f4 [10]
00000000: 51c8 80be 8403 563d 29ff 623e ee36 b33d
00000010: 7900 c03c dca9 f63c 4d48 473e fc47 5fbd
00000020: a459 43be df24 1e3e
-0.2515283 0.052249447 0.22167648 0.087507114 0.023437725 0.030110292 0.19461174 -0.05451201
-0.19077164 0.15443753
