parameters/MNIST/trained-model.pth (torch, 22084 bytes, 5 tensors)

conv1.weight f4 [1, 1, 7, 7]
000000 bc 61 05 bd 62 17 83 3c d6 92 16 bd f5 90 8f bc
       -0.03256391 0.01600236 -0.036761127 -0.017525176
000010 52 94 a8 3c f7 f8 c3 3c 75 80 77 3c 00 ff a3 3c
       0.020578537 0.023922427 0.01510631 0.020019054
000020 0e c2 86 bd 4e 8c 0d ba ad 43 40 bd 12 2b 41 3d
       -0.06579982 -0.000539963 -0.04693954 0.047160216
000030 be 17 bf 3c 8a 32 49 3d a5 f6 f0 3c 62 eb c7 3c
       0.02332675 0.049120463 0.029414484 0.024404231
000040 c7 a8 7b bc 1b 1a 7b bb 95 e6 3a bc 7b 95 26 bd
       -0.015360064 -0.003831512 -0.011407514 -0.0406699
000050 52 d7 39 bc 66 01 c2 3d 3e a3 f6 b9 3f 35 25 3a
       -0.01134284 0.09472923 -0.000470424 0.0006302185
000060 6f be b0 bc fc 5c d2 bc 3a d0 6a bd 2a db 58 bd
       -0.02157518 -0.025679104 -0.057327487 -0.052943386
000070 4b 70 62 bc 52 5f 7a 3d c3 df 7a bc 6a 53 1e bd
       -0.013820718 0.06112606 -0.015312138 -0.03865377
000080 c5 b3 b2 bd ff 9f c4 bd 65 29 ee bd 7a 35 7b bc
       -0.087256946 -0.09600829 -0.11628989 -0.015332574
000090 bb 77 87 3c b1 2f 37 bc c1 34 ea bb 85 2e 00 bd
       0.016536584 -0.011180804 -0.007147402 -0.031294364
0000a0 86 e3 45 bd 27 37 84 bd 60 d2 b4 bc d0 d3 e0 3c
       -0.048312686 -0.06455832 -0.02207297 0.02744475
0000b0 82 23 95 ba 6d 26 9b bb 60 b0 67 bd 2d eb 3d bc
       -0.001137838 -0.0047348053 -0.05656469 -0.011591715
0000c0 b9 94 a3 bc
       -0.019968377

fc1.weight f4 [64, 64]
000000 03 66 cd 3e 88 bb 5f 3f 5b f1 00 3f d7 00 49 3e
       0.4011689 0.87395525 0.5036828 0.19629227
000010 cc be 79 3e fb ea 55 3e f3 95 73 be f5 05 13 3e
       0.2438919 0.20890419 -0.2378767 0.14357741
000020 9a a7 f3 be d4 ef 3a 3f ae 1e 98 3f 98 25 84 3f
       -0.47588807 0.730222 1.1884363 1.0323973
000030 a2 69 26 3e 9a 96 f6 3d df 2d d3 3d b8 a9 a0 3e
       0.16251233 0.12040444 0.103114836 0.31379485
000040 fc fe 42 bf 29 71 9c bf 86 61 20 c0 db 29 52 bf
       -0.76170325 -1.2222034 -2.5059524 -0.82095116
000050 5a 73 e5 3e 97 d7 93 3e 37 29 45 3f 80 9f a0 3e
       0.4481457 0.2887542 0.77016014 0.3137169
000060 c6 32 2f be 9d 20 29 3e c3 f9 88 3d 6e c5 30 3f
       -0.17109212 0.16516347 0.06688263 0.69051254
000070 0e 87 24 be f5 68 5a bf db ed 08 be b9 ba f4 3e
       -0.16067144 -0.853164 -0.13371985 0.47798708
000080 d0 14 20 3f 32 2a 90 be 8c 3c 7c bd d5 da df 3e
       0.6253176 -0.28157192 -0.06158118 0.43721643
000090 61 f8 68 3e 38 63 12 bf 03 8b d9 bd 8e 05 bb 39
       0.22750999 -0.57182646 -0.106222175 0.00035671558
0000a0 9e eb 56 3e fa 94 a1 bd 5e fc fc 3d 01 a1 0a be
       0.20988318 -0.07889743 0.12352823 -0.1353798
0000b0 82 02 d6 be 33 4b 4a 3f 8d a3 4b 3e b2 8f 12 bf
       -0.41798788 0.79020995 0.19886608 -0.5725051
0000c0 7f d5 42 3f b7 7e 9e 3e 75 c8 5a 3d ce 44 e7 3c
       0.7610702 0.3095605 0.053413827 0.02823105
0000d0 a5 4f d3 bd fb 55 47 be fe 54 87 be 04 29 9d be
       -0.10317925 -0.19466393 -0.2643203 -0.30695355
0000e0 36 00 11 3f b4 95 41 3f e5 ea 9c be 5d db 74 bf
       0.56640947 0.75619054 -0.3064796 -0.9564722
0000f0 1b 76 cb 3e 5b 0d d5 be ae 5c c3 3e 53 89 d7 3d
       0.39738545 -0.41611752 0.38156646 0.105242394
000100 f5 d5 5d 3e 28 f8 d7 bd f8 40 ce bf c1 d2 3c 3f
       0.2166365 -0.10545379 -1.6113577 0.73759085
000110 6c 37 2a 3f ce ab 70 3f ed 62 91 be 16 f8 a9 be
       0.6649082 0.94012153 -0.28395787 -0.33197087
000120 9e 1a 9d 3f 6f dc 67 bf 46 92 90 bf 26 75 cb 3f
       1.2273748 -0.9057073 -1.1294639 1.5895126
000130 cd 96 93 be ef ee 70 be ae ab d2 bf 8b 05 95 bf
       -0.2882599 -0.23528646 -1.6458642 -1.1642317
000140 ea 2b a0 3f 30 97 98 be 90 a3 24 bf 33 a3 99 be
       1.2513402 -0.29802847 -0.64312077 -0.30007324
000150 f6 6a dd 3d 4c 6f f3 be 21 0b 3d bf 9d f2 12 be
       0.10811417 -0.4754585 -0.73845106 -0.14350362
000160 0b 4f a9 3e 7c 52 aa 3e d0 49 93 bd b6 12 40 bf
       0.33068117 0.33266056 -0.07191813 -0.7502855
000170 19 75 a8 3d 93 63 1f bf 35 30 1c 3f a8 3a 96 be
       0.082254596 -0.62261313 0.6101106 -0.29341626
000180 56 00 1e 3f 50 d8 40 3e fb 0c 3a be b0 75 ec 3e
       0.6171926 0.18832517 -0.18169014 0.46183538
000190 0c fb 9f 3e d8 09 0f 3f b4 50 12 be fd 71 ce be
       0.3124622 0.55874395 -0.14288598 -0.4032134
0001a0 da d7 d7 3e 69 7f a6 be 8f fd 3d be a0 b0 3d 3f
       0.4215687 -0.3251908 -0.18553756 0.74097633
0001b0 c2 b5 43 3f d5 1a 0a 3f 53 88 39 3d f5 dc 7c bf
       0.76449215 0.5394719 0.045296025 -0.98774654
0001c0 fc 58 83 bc 52 ac 93 be 03 f1 1c be 06 a3 ae bd
       -0.016033642 -0.28842407 -0.15326314 -0.08527188
0001d0 94 39 0b 3f 75 0c 5a 3f 3d bb 67 bf f4 f7 e2 bd
       0.5438473 0.8517526 -0.9052008 -0.110824496
0001e0 15 d9 7c 3e ee 8d 9e 3f d6 75 69 bf e5 4e 38 bf
       0.24692185 1.2387064 -0.9119543 -0.71995384
0001f0 51 71 4d be 3c 0c 52 be cb 9b 14 bf f3 1b 89 be
       -0.20062758 -0.2051248 -0.5805022 -0.26779136
000200 75 11 c0 3f f5 65 89 3f b2 01 8b 3f f3 b4 31 3f
       1.5005327 1.073424 1.0859892 0.6941673
000210 cd 2c be be fb 83 64 bf ed 81 2f be 70 d8 54 3e
       -0.37143555 -0.89263886 -0.17139407 0.2078569
000220 2a 24 95 3f 34 d0 ec 3d 5b 18 b1 be fe 08 ba 3e
       1.1651661 0.11563149 -0.34588894 0.36334985
000230 4f 28 02 3e 13 46 20 bf 2b f0 f8 be ae 18 6c 3f
       0.12710689 -0.62606925 -0.48620734 0.9222516
000240 73 ec c0 3e 7c cf 03 be 92 cd 41 3f 45 87 70 3f
       0.37680396 -0.12872118 0.757043 0.93956405
000250 1f 40 14 bf c7 6a 90 bf 8c cb 26 3f 3f c3 a4 3e
       -0.5791034 -1.1282586 0.6515434 0.3218021
000260 ac 53 41 3d 5a 8c 72 3f 9c d7 31 3c d7 00 6d bf
       0.047198936 0.9474541 0.010854628 -0.92579406
000270 f6 e0 a9 be 76 c8 fb 3d ec 17 11 3f 9b 0e 91 3e
       -0.33179444 0.12294094 0.56677127 0.28331456
000280 f5 6d ad bd 23 0d c1 be 27 01 03 bf 64 56 98 bc
       -0.08468238 -0.37705335 -0.51173633 -0.018595882
000290 27 1e 7b 3e ff 02 82 bd ce ef d3 3e 34 6b 50 bf
       0.24523221 -0.06348228 0.41393894 -0.8141358
0002a0 93 bd 28 bf f7 30 04 bd 07 d4 ca 3e a9 f1 86 be
       -0.6591427 -0.03227326 0.3961489 -0.26356247
0002b0 b8 b0 0a bf fa 34 3a 3f 88 29 03 3f b6 10 c0 be
       -0.541759 0.72737086 0.51235247 -0.3751275
0002c0 f3 8d d5 bc 6d 6d 15 3d 53 b4 aa be f6 70 b4 bd
       -0.026068663 0.03648131 -0.333407 -0.08810608
0002d0 90 47 b5 3e a5 c3 a9 3d f0 cf e7 be 54 ab 20 3e
       0.3540616 0.08289269 -0.4527583 0.15690356
0002e0 e6 e0 23 3e c9 88 3b 3e 36 41 28 3f 9b ea 36 3f
       0.1600376 0.18313898 0.65724504 0.7145173
0002f0 c0 bc 23 bf ba f3 93 be 64 25 89 be a7 6e 39 bd
       -0.63959885 -0.28896886 -0.2678634 -0.045271542
000300 95 d1 ad be 1c 03 b7 3d e8 ec 44 3d 06 23 98 3e
       -0.3394896 0.0893614 0.048077494 0.2971422
000310 98 3d dd 3d 31 5f b4 3d 31 22 b2 bc 56 b2 1d bf
       0.10802764 0.08807219 -0.02174482 -0.61600244
000320 e5 02 27 3f f6 cd 1b 3f d2 07 1b 3f 9b 07 81 3e
       0.6523879 0.60861146 0.6055881 0.25201115
000330 a3 99 a2 3d 05 60 64 be 25 71 50 be 17 7f 98 bf
       0.0793946 -0.22302254 -0.20355661 -1.1913785
000340 89 92 4b 3f af 51 07 3f 70 33 60 3e 61 50 0a 3f
       0.7952047 0.52859014 0.21894622 0.540289
000350 dd 31 3e 3f 44 29 b9 3e 7b 37 5d 3f f6 73 0c bf
       0.74294835 0.36164296 0.8641278 -0.5486444
000360 21 4c 1d be 0c 13 db be 28 e9 11 bf 71 9f 82 bd
       -0.15361072 -0.4278797 -0.56996393 -0.06378067
000370 c2 73 5a be 31 e3 49 be cf d2 6a bf 00 74 9b bf
       -0.2133322 -0.19715573 -0.9172792 -1.2144775
000380 86 29 8a bf f4 65 53 bf 12 0a 53 bf f4 a6 87 bf
       -1.0793922 -0.82577443 -0.8243724 -1.0597825
000390 50 f0 91 bf 7e 6c bc be 18 23 62 bf 39 39 80 bd
       -1.1401463 -0.36801523 -0.883348 -0.06260914
0003a0 e9 e1 e6 be 15 23 55 3e 78 00 57 3e d5 2f 14 3b
       -0.4509423 0.20814164 0.20996273 0.0022611518
0003b0 05 23 17 bf 91 89 ad be 71 5d 0b bf 0b 15 42 3e
       -0.5903781 -0.33894017 -0.54439455 0.1895334
0003c0 b9 97 24 3f 16 c4 90 3f e8 46 7c 3f c9 0a cf 3f
       0.6429401 1.1309841 0.98545694 1.6175166
0003d0 5e be f5 3e 5c ea d7 be 12 68 8e be 93 17 8b bf
       0.479968 -0.4217099 -0.27813774 -1.0866569
0003e0 3c 67 24 bf ab eb 10 3f 5a 21 3b 3f 78 aa f0 3e
       -0.64220023 0.566096 0.73097765 0.47005057
0003f0 73 19 a0 3f 77 1c ba 3e da fb c2 be c5 15 51 bf
       1.2507766 0.36349842 -0.38082772 -0.8167384

fc1.bias f4 [64]
000000 84 8c b1 3e bc 22 28 be cf 8a 1a 3e 56 db 4f bf
       0.34677517 -0.164195 0.15092014 -0.81194055
000010 dc e1 bf 3e ae a2 1a 3e 91 b8 0a 3f e0 90 ce bc
       0.37477005 0.1510112 0.54187876 -0.025215566
000020 81 ce 20 bd a8 42 e4 be 7d 9a 29 3c 21 3b 1b be
       -0.039259437 -0.44582105 0.010351774 -0.15159275
000030 d4 5b 8e 3d 76 5f 12 3d f2 a5 56 3e d1 ba 5a 3e
       0.069511086 0.03573557 0.2096174 0.21360327
000040 c2 f8 dd be 7e 3c bb bd 9b ed 5b 3e 1c 79 81 be
       -0.4335385 -0.09142397 0.21477358 -0.25287712
000050 d2 fb e9 3e 58 bb 90 3e c2 27 c5 3e 8f 2a 8e 3e
       0.45699936 0.28267932 0.38506895 0.27766845
000060 26 06 3e be 23 6a 64 bf cd 36 9e 3e 4e 1d 91 bd
       -0.18557033 -0.8922445 0.30901185 -0.070856676
000070 9b a9 bc 3e 7a ab 31 bf bb ab dd 3e 25 0a 3e 3e
       0.3684815 -0.6940228 0.43295082 0.18558557
000080 f7 86 f9 be 3e 56 0d 3f 0e 21 16 3f 63 3f 42 3a
       -0.48735783 0.5520972 0.5864419 0.0007409958
000090 5a ed 40 3d f2 83 35 be 4e 51 18 3b 97 61 1f bf
       0.047101356 -0.17726114 0.002324182 -0.62258285
0000a0 44 3b f3 3e 16 51 b9 be 27 94 5d be 2c c7 ad bd
       0.47506154 -0.36194676 -0.21638547 -0.08485255
0000b0 03 b2 ce 3b 63 e6 23 3d 81 21 46 3e 8b 96 15 3f
       0.0063078417 0.040014636 0.19348718 0.58432835
0000c0 62 1c 31 be d5 e9 50 be 4f fc 3f be e5 f1 9e 3e
       -0.17295983 -0.204017 -0.18748592 0.31043926
0000d0 42 80 f9 be eb bb ea be 19 d8 9c 3d f6 98 1b 3e
       -0.48730665 -0.45846495 0.07658405 0.15195069
0000e0 4c bd bf 3e ae 06 54 3e 31 18 f5 3e d2 0e 8a 3e
       0.3744911 0.20705673 0.4787002 0.26964432
0000f0 8f e8 fb bd 3c 90 f8 3d 4d 0c bb 3e 06 a9 0a bf
       -0.123002164 0.121368855 0.36532822 -0.5416416

fc2.weight f4 [10, 64]
000000 c0 82 53 bf ef 53 08 bf d6 04 3a be 21 9a 6e bf
       -0.82621384 -0.5325307 -0.18165907 -0.9320393
000010 63 af 6e bf 3c be 1e be 68 f8 65 bf 4c 9f 3a 3e
       -0.9323637 -0.15502256 -0.8983216 0.1822483
000020 19 1d 89 bf 71 8e 05 bf e0 bb 4f bf 37 42 cd 3e
       -1.0712005 -0.52170473 -0.8114605 0.4008958
000030 fe 9e f9 3d b2 48 12 be ca 65 da 3e a9 85 3b 3e
       0.121885285 -0.14285544 0.42655784 0.18312706
000040 35 57 9b bf e9 a0 85 3e 31 ee d2 bd ce 9c a4 bf
       -1.2135988 0.26099327 -0.10299338 -1.2860353
000050 3c dd e6 3d 81 36 53 bf f2 af 9c bf d3 9a 66 bd
       0.11272666 -0.8250504 -1.2241194 -0.056299996
000060 54 72 49 3e 07 3c 9f be 23 5e 47 3f 88 8f 9c bf
       0.19672519 -0.31100485 0.77878016 -1.2231302
000070 e7 06 07 bf 72 70 74 bf 30 c5 9c bf a3 ce 20 bf
       -0.5274491 -0.9548408 -1.2247677 -0.628153
000080 a8 7e a7 be b5 93 ef bd 95 ac 45 be df 3b eb 3e
       -0.3271382 -0.11698095 -0.19304116 0.45944116
000090 3d c3 39 3e 8f b5 45 bf 22 83 8e bf 9e e4 e5 be
       0.18140884 -0.7723016 -1.1133769 -0.44900984
0000a0 fc df 28 be 07 12 cf 3e 0c c3 9c be 4e 6e d0 3e
       -0.16491693 0.4044344 -0.3061756 0.40709156
0000b0 48 c4 0f bf 3e 6e 01 3f 76 e5 80 bf 65 f6 3e 3f
       -0.56158876 0.5055884 -1.0070026 0.7459472
0000c0 b7 95 1c bf 39 b5 a3 bf 10 e2 07 3e 7b 55 41 3f
       -0.61165947 -1.278968 0.1326983 0.7552106
0000d0 9b 59 c1 3e f5 1f 0e c0 3c 05 ec bf fd 94 69 bf
       0.37763676 -2.2207005 -1.8439097 -0.91242963
0000e0 6a 03 fd bf 69 fc 53 3f d0 22 1e bf 20 90 88 be
       -1.9766667 0.8280702 -0.6177187 -0.2667246
0000f0 dc 1f cb be 9b 28 95 3e d1 f3 d7 bf 5c fd 0e be
       -0.39672744 0.29132542 -1.6871282 -0.13963836
000100 55 7b 5b be e6 fd 93 be 6a 25 ff 3d e7 5f 89 bf
       -0.21433766 -0.28904647 0.12458308 -1.0732392
000110 b7 29 7c bf 3a 63 e4 3e 23 6a 0c bd 51 0b e7 bf
       -0.9850115 0.44606954 -0.034280907 -1.8050328
000120 43 94 cb be fc cc 5e 3f c4 88 76 3c 95 42 13 be
       -0.39761552 0.8703153 0.015047256 -0.14380868
000130 f9 bc 53 bf ac e6 4d bf 2c c9 c2 bf 4e 28 1b bf
       -0.82710224 -0.804301 -1.5217643 -0.60608375
000140 55 78 0b bf 98 fd a7 be d2 4b 24 bf ba 5c ad 3f
       -0.5448049 -0.32810664 -0.6417819 1.3543923
000150 59 b0 1a c0 55 fa 8c 3e 0f fd 17 3e 77 72 74 3e
       -2.4170134 0.27534738 0.14842628 0.2387179
000160 5d 00 d5 bf 68 22 8b 3f 09 03 2d 3d de b6 cc 3e
       -1.6640736 1.0869875 0.042239223 0.39983267
000170 ac 49 c1 be 03 d4 32 3c a4 2f fc bd 2b 62 46 3f
       -0.3775152 0.010914805 -0.12313774 0.7749354
000180 98 64 b9 3e c6 28 5b bf 9a e3 19 3e 9f df 00 be
       0.3620956 -0.8560909 0.1502823 -0.12585305
000190 18 45 ee 3e 8d 2a 15 bc aa 7c 2c bf d3 5c 89 3e
       0.4653709 -0.009104383 -0.6737772 0.26828632
0001a0 da 80 3b 3d 8b 1e 44 bf 8c 5a c2 bf 0d 61 eb bf
       0.04577718 -0.76609105 -1.5183883 -1.8388993
0001b0 fb ea 36 3f 94 f1 02 c0 0d 36 55 be b0 8d e0 bf
       0.714523 -2.0459948 -0.208214 -1.754324
0001c0 22 1a 83 bf bb 13 82 bf 76 43 da bf a1 c0 79 3f
       -1.024235 -1.0162271 -1.7051837 0.97559553
0001d0 20 30 74 bf b2 ca a5 be d7 8d a1 3e df 7e e8 be
       -0.9538593 -0.32381207 0.31553528 -0.45409295
0001e0 27 0d db bf c7 f4 7d bf 10 37 95 3f 48 b9 1e c0
       -1.7113389 -0.99201626 1.1657429 -2.4800587
0001f0 dc d2 fa be 35 94 7b bf ec 82 9d bf 86 37 c2 be
       -0.48988998 -0.9827302 -1.2305579 -0.37932986
000200 a4 8f df 3d 4d 91 8a be 7e de 56 be b0 3e 19 3f
       0.10916069 -0.2706398 -0.20983312 0.5986128
000210 96 46 b2 3c 18 a9 48 3c ae bf f6 bd 1e 5e 91 bd
       0.021762174 0.012247346 -0.12048279 -0.070980296
000220 5d 13 39 be 7f 03 92 bf 9b f2 8b 3d 04 2b 3b bf
       -0.18073793 -1.1407317 0.06833383 -0.7311251
000230 1b 71 57 3e 70 21 e1 be 11 a0 95 3a c6 be f4 3e
       0.2103924 -0.43970823 0.0011415501 0.478018
000240 28 a8 9e bf e2 20 22 3d 9b 2c 37 3e ac 80 7a bf
       -1.2395067 0.03958214 0.1788811 -0.9785259
000250 bf 34 a5 be 52 6f f5 3e ce 6f b6 3e 5d aa 1c bf
       -0.32266805 0.47936493 0.35632175 -0.61197454
000260 5e 3a 3e 3c b6 6c 0a bf 10 29 46 3e e3 4a 3b 3f
       0.0116105955 -0.5407213 0.19351602 0.73161143
000270 0e 07 0d bf 3d 78 f8 be c9 69 5f 3e 18 85 55 bf
       -0.5508889 -0.48529235 0.21817698 -0.8340621
000280 6e 98 2b be a4 bc dd bf 3a 29 91 bf 3c 2b b9 bc
       -0.16757366 -1.7323194 -1.1340706 -0.022603624
000290 5f 92 9d be ed 5b 0c 3f 4a 3b f4 bf 64 ba 98 bf
       -0.30775735 0.5482777 -1.9080594 -1.1931882
0002a0 1a e7 f2 3d 61 eb 2b bf 22 6d 5b bd 98 8f 19 bf
       0.118604854 -0.67156035 -0.053570874 -0.5998473
0002b0 cb 46 5a 3e bc 35 12 3f b6 b6 bd bf aa c5 15 bf
       0.21316068 0.5711324 -1.4821384 -0.58504736
0002c0 91 c7 17 bf e7 7f e7 3d 72 6d 7f bf c1 53 be be
       -0.5928889 0.11303692 -0.99776375 -0.37173274
0002d0 05 21 e0 3e 52 99 93 be 04 c4 1f 3c 75 f9 26 bf
       0.43775192 -0.28827912 0.009751324 -0.6522439
0002e0 03 82 9d bf 83 e7 be bd e5 4e c9 be 76 f5 8f 3e
       -1.2305301 -0.09321501 -0.39318004 0.2811696
0002f0 08 ad 5c 3e ad 19 4e bf ca 94 a3 bd 41 cd da be
       0.21550381 -0.8050793 -0.07987364 -0.4273472
000300 ef 37 0c 3e 84 a1 c3 bf 57 8c 22 3f d6 21 8a bf
       0.13693212 -1.5283666 0.6349539 -1.0791576
000310 77 cc d3 be 0a a0 29 bf 46 96 d1 be 94 79 24 bf
       -0.41366932 -0.66259825 -0.40934962 -0.64248013
000320 6e 26 ca bc ef f2 4f bf e2 55 ef 3c 4a 55 91 bf
       -0.024676528 -0.8123006 0.029215757 -1.1354153
000330 2e 91 05 bc e2 1a 4b 3c a9 06 14 3e 39 fd 1d 3e
       -0.008152289 0.012396546 0.14455666 0.15428628
000340 34 4c 1f 3f 80 f8 ca bf 8a 68 59 be 74 9e 34 bf
       0.6222565 -1.5857086 -0.21231285 -0.7055428
000350 40 21 a1 be 95 72 8d bf a3 de e2 3e b3 7a 38 be
       -0.3147068 -1.1050593 0.44310483 -0.18015556
000360 63 b7 4f bf 73 c3 38 bf e6 98 cb bd 63 24 db 3e
       -0.811392 -0.7217323 -0.099412724 0.42801198
000370 60 15 5d 3d b4 6f a5 be f4 af 2e 3e 01 15 74 bf
       0.053975463 -0.32311785 0.17059308 -0.9534455
000380 3e a9 e3 3e 49 7d 19 bf 42 1a 51 bf 71 49 0f bf
       0.4446506 -0.59956795 -0.8168069 -0.5597144
000390 42 21 3f 3e 4e c9 a3 3d 51 a7 9c be 38 23 00 3f
       0.1866503 0.0799738 -0.30596402 0.5005374
0003a0 a7 8c 99 be 99 7e d6 3d 4e 8c d8 3d db 75 1e bf
       -0.29990122 0.10473365 0.10573636 -0.61898583
0003b0 b0 18 1a be 17 42 24 3e 83 4e af 3d 48 11 cf bf
       -0.1504848 0.16040836 0.08559897 -1.6177149
0003c0 3a 96 d9 3e c3 fe 89 3e 91 97 54 bf 37 83 5f be
       0.42497426 0.2695218 -0.8304377 -0.21827398
0003d0 bc 94 5a 3e ec bd 1f 3e e4 38 eb bd da 4d 07 3f
       0.213458 0.15599793 -0.114854604 0.5285317
0003e0 e4 21 9a be 5f 78 d1 3e 06 28 c1 bf d0 27 5c bf
       -0.30103981 0.40912148 -1.5090339 -0.8599825
0003f0 ac 86 1e bf 19 30 e0 3e 8d 88 b6 bd 7d 68 19 bf
       -0.6192424 0.43786696 -0.08912764 -0.5992506

fc2.bias f4 [10]
000000 13 29 06 bf 9e 53 79 3e 98 64 05 be c8 1e 3e bf
       -0.52406424 0.24348304 -0.13026655 -0.7426572
000010 ac 93 2b be 1b 9d 89 bd 66 de 98 be 76 a6 89 be
       -0.16755551 -0.067194186 -0.29857177 -0.26884812
000020 1d ee 04 3f 5d 0e 67 3e
       0.5192583 0.22564073
