parameters/MNIST/trained-model.pth (torch, 4612 bytes, 5 tensors)

conv1.weight f4 [1, 1, 7, 7]
000000 e5 d9 46 3d 08 9b 9a bd 37 d8 0b be 7e e1 86 be
       0.048547644 -0.07549101 -0.13656698 -0.26343912
000010 56 1a f0 bd c4 ec a9 bc c3 25 0d 3d dc 5b de bd
       -0.11723773 -0.020742781 0.03445984 -0.108573645
000020 fc 36 0c bd 8e 1a 1a bd 81 5b 75 3d c6 4f 9e bd
       -0.034232125 -0.03762298 0.059901718 -0.07730059
000030 42 ae 2f bd 1e 71 1c be 1e 70 e6 bd 95 99 ca bc
       -0.042890795 -0.15277526 -0.112518534 -0.024731437
000040 49 d1 05 be 4d 6b 2a bb ca 24 f7 bd c1 08 00 bd
       -0.13068117 -0.0026003898 -0.12067564 -0.03125835
000050 8b ee d7 bd f2 0c 8f be 6a 6e 8d 3c 0a 98 bb bc
       -0.10543545 -0.27939564 0.017264564 -0.022899646
000060 ab f7 3b 3e 25 ec 58 bd 5d 8f fb bb 85 a0 f4 bd
       0.18356197 -0.05295958 -0.0076770023 -0.11944679
000070 be a9 4a bd d2 30 3e bd a6 5b 8a bd 12 dc 94 bd
       -0.049478285 -0.046433277 -0.06755762 -0.072685376
000080 a0 f5 4c 3d 83 8a d7 3d 86 eb 26 3e b9 dd b1 bd
       0.050038934 0.10524466 0.16300783 -0.08684868
000090 e0 68 e5 bc b0 59 90 bc 41 6e 25 3d f0 3c bd 3d
       -0.02800411 -0.017620891 0.04038835 0.092401385
0000a0 bf 61 d7 3c 77 0c 07 3d 17 14 39 3e 33 4a b0 bc
       0.026291726 0.03297087 0.1807407 -0.021519756
0000b0 56 03 01 bc 64 c1 28 be 9d 8f 9d 3d 87 4d 77 3d
       -0.0078743305 -0.16480023 0.07693408 0.06037667
0000c0 f1 72 3a 3e
       0.18207909

fc1.weight f4 [16, 16]
000000 c7 c8 af 3e 3d 1b 2a c0 d0 9d 8b bf 85 a3 65 be
       0.34332868 -2.6579125 -1.0907536 -0.22425659
000010 7f 09 8a 3f 96 82 69 3f 06 3f 43 3e 84 ba 34 3d
       1.0784148 0.91214883 0.1906701 0.044123188
000020 56 ac ce 3e 65 2f 97 be 99 ce c8 3e 35 0e 47 bc
       0.40365857 -0.29528347 0.39220122 -0.012149383
000030 52 f9 aa bd 3b 7f 07 bf 71 ff 0b bf 06 14 04 bd
       -0.08348335 -0.52928513 -0.5468665 -0.03224566
000040 a4 06 b6 be b8 05 ab 3e 33 9a 3e bf 84 45 b8 bf
       -0.3555194 0.334028 -0.7445404 -1.4396214
000050 9b 0c 4d be ab ca 33 3f e4 67 d3 be a4 59 41 3f
       -0.2002434 0.7023112 -0.412902 0.75527406
000060 e4 80 86 3c 60 83 16 bd 2a 54 a9 3e f1 1f ba be
       0.016418882 -0.036746383 0.33072025 -0.36352494
000070 0b d3 79 be e9 0e b6 be fb 85 30 bf 0d 8c fd 3e
       -0.24396913 -0.3555825 -0.6895444 0.49520913
000080 2b 96 47 3e 95 89 8c 3f ff 03 59 bd cd dd d8 3e
       0.19490878 1.0979487 -0.052982327 0.4235672
000090 26 ed 9a bd 16 6f 29 3f 93 65 70 bf ac 4f 6f 3e
       -0.07564764 0.6618513 -0.9390499 0.23370236
0000a0 fa ad 36 3f ed 6f b8 3e b7 29 ee 3e e9 ed 3c be
       0.7135922 0.36022893 0.465162 -0.1845013
0000b0 1f d4 b4 bf e0 c2 ff 3e 60 3f 08 3e fa be a9 bd
       -1.4127234 0.49953365 0.13305426 -0.08288379
0000c0 de 01 93 bf 16 68 82 3f d9 73 b3 be 02 2a 7b bf
       -1.1484945 1.0188015 -0.35049322 -0.98110974
0000d0 9b 8b 09 bf 35 b5 f5 3e 3f d6 00 bf 1e 58 28 3f
       -0.53728646 0.47989812 -0.50326914 0.65759456
0000e0 d1 cc 3b 3e 9a 18 b9 3d 0a 61 08 bf e9 25 a9 3f
       0.1833985 0.090378955 -0.5327307 1.3214694
0000f0 b7 d4 bf 3f 49 bb 4d be ab 7e 66 bd e6 d2 ef be
       1.498679 -0.20090975 -0.056273144 -0.4684059
000100 44 09 69 3f 46 fe 4d bd 1c 2e 57 bf c4 1f 66 be
       0.91029763 -0.050291322 -0.8405473 -0.22473055
000110 d7 ca 0b bf 46 b2 37 3f 0b 10 ae bd 6e e9 3b bf
       -0.54606384 0.717564 -0.08499154 -0.7340306
000120 b1 d8 30 3f ed 8f d1 be 09 75 9a be 20 6a 85 3f
       0.69080645 -0.4093012 -0.30167416 1.0423012
000130 66 e7 77 bf 2f 0a 01 3e ed 12 9d be 1d 0e ac bf
       -0.9683746 0.12601541 -0.30678502 -1.3441807
000140 8a 9b f8 3e f0 e4 91 bf ee 0a a3 bf 7d 3e 85 be
       0.48556167 -1.1397991 -1.273771 -0.26024237
000150 28 6b 64 be 2d a8 ef 3e 9b 08 94 3e 3e d0 90 3f
       -0.22306502 0.46807995 0.28912815 1.131355
000160 7d 4a b2 3e 6b 39 1d bd ce b1 21 bf a9 f8 a6 bf
       0.34822455 -0.038384836 -0.63161933 -1.3044635
000170 da 96 05 bf 9b 46 5c bd ca d0 3f 3e 32 3b 7b 3e
       -0.52183306 -0.053778272 0.1873199 0.245343
000180 a6 49 b5 bf 75 4a 0a bf 07 37 5a 3f 05 a8 97 bc
       -1.4163101 -0.5401986 0.85240215 -0.018512735
000190 34 a7 9c 3f c7 5c 94 3d 23 e8 50 be 20 23 96 3e
       1.2238526 0.072442584 -0.20401053 0.29323673
0001a0 ea 20 6c bd 57 b9 c4 be 76 2e 3d bf b9 38 ab be
       -0.057648577 -0.38422653 -0.7389902 -0.33441713
0001b0 a6 ed 83 bf 7e 46 43 3f 79 b4 18 3f 1a f2 14 3e
       -1.03069 0.7627944 0.5965038 0.1454548
0001c0 90 48 c7 bf 4d 6b 02 40 a6 1e ba be 51 07 48 bf
       -1.5569019 2.0377991 -0.36351508 -0.78136164
0001d0 53 e1 ce 3e cf a2 d7 be a3 5f 3b 3d 11 6e be be
       0.40406284 -0.421164 0.045745503 -0.3719335
0001e0 a6 ed 7a 3f 9b 78 49 bf 1e 11 13 3f e6 6c 18 3f
       0.9801887 -0.78699654 0.57447994 0.59541166
0001f0 3d 8b 9a be b8 03 2a bf bb 10 97 3d 1b 8d 30 be
       -0.30184355 -0.66411924 0.07376238 -0.17241327
000200 e1 e5 6b 3f b2 8e c8 3f 57 92 ae bf d5 4b cc be
       0.9214764 1.5668547 -1.3638409 -0.39901605
000210 d0 a1 92 3f 31 1a b0 3e 0a ef fd bc ef 53 42 3d
       1.1455631 0.34394982 -0.030997772 0.047443327
000220 0e 9e 77 3f af d9 02 bf 3f 2e 0f 3f 1c 53 27 3d
       0.9672555 -0.5111341 0.5592994 0.040850744
000230 94 6f 2f bf 1d 7c 2d bf 22 01 7f bd 63 5a 9c bf
       -0.6852963 -0.67767507 -0.06225694 -1.2215084
000240 64 d8 80 bf 87 59 43 40 7d 59 f1 bf 49 8a ab 3f
       -1.0066037 3.0523393 -1.8855435 1.3401576
000250 b1 00 0e 3e ef d7 6e be 87 aa 14 ba 0c d0 45 3f
       0.13867451 -0.2332456 -0.00056711625 0.7727058
000260 7e c4 2d bf bf a5 90 3e 0a 5e 27 be 36 69 2f 3c
       -0.6787795 0.28251454 -0.16344467 0.010706237
000270 b6 fc 9e be 5a f1 12 3f f2 fb 8a be fa 23 7a 3e
       -0.31052178 0.57399523 -0.27145344 0.24427786
000280 0f fe bf bf d7 8d 7d bd e3 73 96 3f db cc f1 3f
       -1.4999408 -0.061902847 1.1754116 1.8890642
000290 be d3 db be e6 84 9c 3e 63 31 bd be 8a 1d 12 bf
       -0.42934984 0.30570143 -0.36951742 -0.57076323
0002a0 aa 56 f2 be 6e 15 07 3e c5 46 40 be bb 49 17 3f
       -0.47331744 0.13191769 -0.18776996 0.5909688
0002b0 1f cf 99 bd 7e 64 93 be 22 2b 88 3e 82 5e 9b 3f
       -0.07510208 -0.28787607 0.26595408 1.2138216
0002c0 e0 37 47 3e 7f 8a 03 3e de fc 8e 3d 6e 79 8c be
       0.19454908 0.12845801 0.06981824 -0.27436393
0002d0 aa 67 a1 3f f9 47 06 3f de 39 a5 3e 2d 3a 29 be
       1.2609761 0.5245357 0.32270712 -0.16526099
0002e0 b5 c1 a4 bf ba 34 78 bf 42 7a 62 3e 74 4a ff be
       -1.2871615 -0.96955454 0.2211695 -0.4986149
0002f0 cd 1c 3f 3f 9c 8b df 3e 77 3e 42 be 77 16 01 3e
       0.7465332 0.436612 -0.18969141 0.12606226
000300 de f1 98 3f 12 21 6a 3f 0d f9 d9 be 31 6f 8e bb
       1.1948812 0.9145671 -0.42572823 -0.004346751
000310 02 ba 18 be 2d 45 4b 3f d9 f4 b4 3c a9 e5 39 3f
       -0.14914706 0.7940243 0.022089409 0.7261606
000320 10 86 a8 3e 9d e7 9e bd 6f 11 9d bf 94 51 a6 3e
       0.32914782 -0.077590205 -1.2270945 0.32484114
000330 23 58 9f 3e 0c 40 00 be 60 c9 0c be 0a 82 d2 bc
       0.3112193 -0.12524432 -0.13748693 -0.025696773
000340 23 55 44 bf d5 27 1e bf c5 84 59 3f 89 7f 22 bf
       -0.7669241 -0.6177953 0.84968215 -0.63475853
000350 6c cd 1d 3f 89 be 2e be 1f 11 03 3f 1c e4 68 3f
       0.61641574 -0.17064871 0.51198 0.9097307
000360 e6 8a 00 be e3 5b c7 bd 52 37 b1 3e c0 75 7c 3f
       -0.12552986 -0.09734323 0.3461252 0.9861717
000370 ed da 02 bf 25 e7 10 3e 04 3f 10 bc 12 9f 5c be
       -0.51115304 0.14150675 -0.008804087 -0.21545056
000380 91 aa 71 bc 23 bb a2 3f e8 93 a0 bd 0a c7 54 bf
       -0.014750139 1.271336 -0.07840711 -0.8311621
000390 48 aa b7 bf 48 eb 12 bf 01 cd bd be 81 da 81 be
       -1.4348841 -0.5739026 -0.37070468 -0.25362018
0003a0 96 ec 80 3f fd 3d f9 bd 4f 80 8b be 27 37 61 3e
       1.00722 -0.121700265 -0.2724633 0.21993695
0003b0 a6 d7 00 be 34 8e 25 3f 8a b8 c0 be bc 1a de 3e
       -0.12582263 0.6467011 -0.37640792 0.43379772
0003c0 a4 1b a1 3e 18 df bf bd 2e fe 21 bf d9 89 20 3e
       0.314664 -0.09368724 -0.6327847 0.15677585
0003d0 65 b4 0b bf 48 cf 27 bd 36 c4 d8 bd dd 0b d7 3e
       -0.54572135 -0.040969163 -0.10584299 0.42001238
0003e0 b2 4a 98 3f a1 57 2b 3f 36 eb 6a 3e fa 96 41 bd
       1.1897795 0.66930586 0.22941288 -0.047263123
0003f0 f4 92 75 bf 2d 84 66 bf f9 bf dc bd 3d ec 8c 3d
       -0.9592736 -0.90045434 -0.107788034 0.068809964

fc1.bias f4 [16]
000000 6f ab 82 3f f7 fc 33 be 7e a7 86 3e 96 07 1f bf
       1.0208567 -0.17576967 0.2629966 -0.6212095
000010 06 3a 53 3d 71 1f a6 3e bf 70 fd be c0 e7 9a be
       0.051569007 0.32445863 -0.4950008 -0.30254936
000020 23 44 83 3f ef 89 73 bf 73 60 9a bf 9f 75 3a 3f
       1.0255169 -0.95132345 -1.2060684 0.72835726
000030 82 ca 0e 3f a8 c0 c6 bc 15 b3 0b bf ee 63 5d 3f
       0.5577775 -0.024261788 -0.5457013 0.86480606

fc2.weight f4 [10, 16]
000000 18 4d 2c bf 13 95 35 3e 37 6f 83 be ba 8b 34 bf
       -0.67305136 0.17732649 -0.25670788 -0.70525706
000010 7f 43 82 bf 9d 8b a4 bf c8 db 20 bd c0 55 00 3f
       -1.0176848 -1.2855107 -0.0392721 0.50130844
000020 86 b6 8f bf 2c 00 c1 be 9b 23 c9 be dd 9d 16 bf
       -1.1227577 -0.37695444 -0.39284977 -0.5883463
000030 8f f2 54 3f fa 3f b9 3e ac 4b 1c bf 44 9e ee bf
       0.83182615 0.36181623 -0.61052966 -1.8642049
000040 d1 67 35 c0 6e 2c df be 42 95 e7 bf a2 d1 3c 3f
       -2.8344615 -0.43588585 -1.8092425 0.73757374
000050 fc ba 95 bd 72 12 05 bf 21 86 a4 bb 83 08 8f bf
       -0.07311055 -0.5198127 -0.005020872 -1.1174473
000060 e6 ce e6 3e 00 0c ee 3f 67 f3 a3 3e 6e df da 3e
       0.45079726 1.8597412 0.3202164 0.42748588
000070 4c 0b fc be 58 9a db bf 39 98 a9 bf 7a 72 9d bf
       -0.4922737 -1.7156477 -1.324958 -1.230056
000080 36 32 ea 3e fa cf 2d bf 24 d8 b0 be 60 34 04 bf
       0.45741433 -0.6789547 -0.34539902 -0.5164242
000090 13 b6 d8 3e c3 73 7e 3e bb 52 f8 3c c3 00 dc 3c
       0.42326412 0.24848847 0.030312886 0.026855832
0000a0 09 2b 06 bf 45 6a 97 bf 0b df 03 c0 3c 23 0d 3f
       -0.52409416 -1.1829306 -2.0604885 0.5513189
0000b0 48 89 81 bf 5b e3 ae bc 15 f8 07 bf 29 03 30 bf
       -1.012002 -0.021348646 -0.5311292 -0.6875482
0000c0 4d 04 e3 3d f5 9a 99 3e 66 fe 89 bf e7 16 b5 bf
       0.11084805 0.30001035 -1.0780761 -1.4147614
0000d0 b9 2a 10 3f 6f b5 a6 be 43 42 b4 bf 8f 23 bd bf
       0.5631519 -0.32560298 -1.4082721 -1.4776477
0000e0 ca 3f 8e bf 0d 49 7a bf 67 b9 ed be 0b 7e c5 bd
       -1.1113217 -0.97767717 -0.46430513 -0.096431814
0000f0 17 01 aa be c0 6b 35 3e 34 55 d9 3e e2 b2 1c 3e
       -0.33203956 0.17716885 0.42447817 0.15302613
000100 28 8f dc bf b8 65 19 bf ee b5 f5 3e 06 6b 94 3e
       -1.7231188 -0.59920835 0.47990364 0.28987902
000110 df 46 e9 be f8 c8 5f bf ba df 93 3e ff 99 5a be
       -0.45561883 -0.8741603 0.28881627 -0.21347807
000120 80 85 bc 3e 49 52 65 bf 36 8f 4f bf 3c d1 76 bf
       0.36820602 -0.8957868 -0.810779 -0.96413016
000130 62 a7 31 bf 8d ee 09 3b f7 89 d2 be 09 0e 0f 3e
       -0.6939603 0.0021046728 -0.41120884 0.13970198
000140 59 78 da be d0 ea bf 3e 93 13 9b be 68 28 ac bf
       -0.42669943 0.37483835 -0.3028837 -1.3449831
000150 d7 0b f5 be 2b 12 47 3e 4d fb 9b bf 41 08 ba bd
       -0.47860596 0.19440524 -1.2186066 -0.090836056
000160 a7 25 d4 bf a6 4f 98 bf d5 22 85 3f 00 9e b9 be
       -1.657399 -1.1899307 1.0401255 -0.36253357
000170 b0 00 d3 bd 4f bd 85 bf 10 f5 29 3f 91 b1 64 3e
       -0.103028655 -1.0448397 0.6638956 0.22333361
000180 21 d9 c7 bf 1e fe 16 3f 85 66 46 3f 51 db 32 3e
       -1.5613137 0.589815 0.7750018 0.17466475
000190 49 14 4f bf a7 fd 05 3f 53 27 2a bf 48 41 da 3d
       -0.8089033 0.5234017 -0.66466254 0.10656983
0001a0 4e 0e b6 bd 8a 6b c0 3e 44 d2 e4 be 21 ba e8 bf
       -0.08889447 0.37582046 -0.4469167 -1.8181802
0001b0 d2 6a a2 be b7 e8 10 bf a9 3e b2 bf c9 d1 e0 bf
       -0.31722122 -0.56605095 -1.3925372 -1.7564021
0001c0 26 99 d7 bd 7b 3a c9 bf 58 8b 64 bf 0a d6 b4 be
       -0.105272576 -1.5720972 -0.8927512 -0.3531955
0001d0 bf a9 e9 bf ef e8 bd be 9e 7a 5f bf f5 77 82 bf
       -1.8254927 -0.37091777 -0.87296474 -1.0192858
0001e0 ca dc 74 3f 08 00 fc bd b1 e2 e0 3e 32 4d 67 3e
       0.956494 -0.123046935 0.43922952 0.22588041
0001f0 19 1a 3e 3d 15 83 ab 3d cc ac dd bd 0c 70 14 3d
       0.046411607 0.08374611 -0.10823974 0.03623967
000200 4b d3 11 be 1c a8 3a bf 6b 1d a0 3d 7c 71 3c bd
       -0.14240758 -0.72912765 0.07818111 -0.046006665
000210 cb 57 78 3e 7b 34 2e be 37 81 b2 bf 3f 33 ad 3d
       0.2425224 -0.17012207 -1.3945683 0.0845704
000220 1a 27 86 bf 49 4c 94 bf 18 60 e1 be f4 4a a6 be
       -1.0480683 -1.158578 -0.44018626 -0.3247906
000230 bc 3f 84 bf b7 2f b0 3d 24 9d a6 3e 28 bd 33 bf
       -1.033195 0.08602851 0.32541764 -0.70210505
000240 94 7b 3f 3e e3 53 a9 bf 95 25 31 be 10 1b b3 3e
       0.18699485 -1.3228725 -0.17299493 0.34981585
000250 b1 37 94 bf f2 0b 1a c0 eb 74 0d be a0 9c 90 be
       -1.1579496 -2.406979 -0.13814132 -0.28244495
000260 6f ae e3 bd 5d 9f 63 3c 57 6e 3a be 54 98 5f bf
       -0.11117255 0.013892976 -0.18206154 -0.8734181
000270 1c 72 19 bf 0c 44 73 3e 36 40 9c 3d fb e6 92 3e
       -0.5993974 0.23756427 0.07629435 0.2869185

fc2.bias f4 [10]
000000 be 89 85 bf 25 5d d4 3f 35 d5 06 bf 14 aa ad 3e
       -1.043266 1.6590925 -0.5266908 0.33918822
000010 22 54 e4 be 38 fa a7 3d 81 c6 19 3e 5b 02 b9 bd
       -0.44595438 0.08202022 0.1501713 -0.090336524
000020 3b 7a 39 bf bc a5 df 3e
       -0.72452134 0.43681133
