parameters/MNIST/trained-model.pth (torch, 71812 bytes, 6 tensors)

conv1.weight f4 [4, 1, 7, 7]
0.03309668 -0.04845531 0.1721209 0.10610333 -0.07531874 -0.014099167 -0.08647544 0.09778796
-0.03364008 -0.02870454 0.18190043 0.18940523 0.010553791 0.07129439 -0.007868472 0.018409744
0.14888412 -0.017638559 0.038589172 -0.12562014 -0.011512572 -0.12265657 0.15128596 0.16757739
0.16870834 0.1568196 0.11521896 -0.021941815 0.09632763 0.23620947 0.15128405 -0.039411154
-0.07984238 0.08707099 -0.033765756 0.009801654 0.022753319 0.2154889 0.19057375 0.08192708
0.016075313 -0.086812 -0.0642073 0.038476706 0.15794103 0.15227713 -0.0004548612 -0.06572307
-0.14674827 -0.1567297 -0.09781575 -0.18731922 -0.043165304 0.012282367 0.06320549 -0.013763277
-0.17366317 -0.0024181912 -0.06123898 -0.021564826 0.071235605 0.014275315 0.023480413 -0.03899189
-0.14982526 -0.10370946 -0.06629069 -0.14880987 -0.19053645 -0.068664946 -0.10259605 -0.07095538
-0.17419651 0.07963465 -0.06098281 -0.17553796 0.07398034 -0.03134377 -0.20607615 -0.12703952
0.050621852 -0.17556044 -0.09076871 -0.1666261 0.020520288 -0.18714514 -0.13764387 -0.03623363
-0.117714345 -0.14122851 0.029631555 0.09527778 -0.0056479457 0.012084511 0.045548663 0.1134295
-0.005629346 -0.16811568 0.06586869 -0.07816281 -0.21043012 -0.16299945 -0.15918326 0.11284794
0.034897365 -0.03777553 -0.05418137 0.010225599 -0.17226224 -0.004325526 0.13440245 -0.0046995976
0.06530331 -0.08362366 -0.085013114 0.06899967 -0.11939083 -0.03583981 0.076665245 0.0034079992
-0.20691702 -0.19138391 -0.1823832 -0.11191727 -0.15637402 0.051522408 -0.0682466 -0.05262308
-0.15897271 -0.16694227 -0.14824305 -0.11681053 -0.048730396 -0.16186959 0.0022562612 -0.1981237
-0.20009094 -0.035990227 -0.06963791 -0.13778432 -0.11038084 0.04759181 -0.14352416 0.07218867
-0.06942249 -0.17053735 -0.0689987 0.08699964 0.010343923 -0.081154965 0.17149268 0.075738825
0.08054163 0.114848234 -0.011743769 -0.08120238 -0.033507578 0.10857049 -0.08411141 0.119141474
0.18498072 -0.04214656 0.0707296 0.017333483 0.08464561 -0.07765847 0.16948816 0.11148906
-0.0840289 0.10775366 0.10322036 -0.0801761 0.20819144 0.13608225 0.12190375 -0.010212608
0.16471988 -0.048464775 0.19654556 0.1656569 0.18159178 0.007200047 -0.023387766 0.152078
0.12806311 0.039654683 -0.076757334 0.043239232 0.0676378 0.17448726 0.101942115 0.0016187741
0.109345146 -0.08995754 0.16511907 -0.06522896
00000000: 6290 073d 1379 46bd 7640 303e b44c d93d
00000010: b640 9abd 3100 67bc 091a b1bd 0e45 c83d
00000020: 2eca 09bd c925 ebbc 1b44 3a3e 72f3 413e
00000030: cfe9 2c3c cb02 923d c3ea 00bc 08d0 963c
00000040: 1475 183e bd7e 90bc ae0f 1e3d 91a2 00be
00000050: 3a9f 3cbc 5e33 fbbd b5ea 1a3e 6899 2b3e
00000060: e1c1 2c3e 5195 203e ebf7 eb3d 52bf b3bc
00000070: 6c47 c53d e5e0 713e 35ea 1a3e 976d 21bd
00000080: 6784 a3bd 4652 b23d f64d 0abd 1e97 203c
00000090: 2b65 ba3c 1fa9 5c3e c425 433e 63c9 a73d
000000a0: 60b0 833c 7dca b1bd 1e7f 83bd c099 1d3d
000000b0: 4bbb 213e 89ee 1b3e 707a eeb9 d199 86bd
000000c0: 2e45 16be c07d 20be a053 c8bd 9cd0 3fbe
000000d0: 1ace 30bd fb3b 493c e171 813d 5e7f 61bc
000000e0: c2d4 31be 847a 1ebb bad5 7abd b8a8 b0bc
000000f0: f9e3 913d 03e3 693c ff59 c03c f6b5 1fbd
00000100: cb6b 19be a065 d4bd 6ac3 87bd 9d61 18be
00000110: fd1b 43be 35a0 8cbd e11d d2bd 0e51 91bd
00000120: 9260 32be 7e17 a33d 1cc9 79bd 39c0 33be
00000130: 0183 973d 5362 00bd a005 53be a616 02be
00000140: dc58 4f3d 1ec6 33be f2e4 b9bd 08a0 2abe
00000150: 2a1a a83c faa2 3fbe 84f2 0cbe b769 14bd
00000160: 3814 f1bd 359e 10be e0bd f23c ff20 c33d
00000170: 6712 b9bb 1dfe 453c 3c91 3a3d ba4d e83d
00000180: 6076 b8bb 8426 2cbe 2ae6 863d d313 a0bd
00000190: fe7a 57be 54e9 26be f000 23be d21c e73d
000001a0: 8af0 0e3d 84ba 1abd 49ed 5dbd 4589 273c
000001b0: 8365 30be 24bd 8dbb cca0 093e 15ff 99bb
000001c0: bebd 853d e242 abbd 5b1b aebd b34f 8d3d
000001d0: 2e83 f4bd c4cc 12bd ab02 9d3d bd58 5f3b
000001e0: 0ee2 53be 25fa 43be a9c2 3abe e234 e5bd
000001f0: 8320 20be 2909 533d e0c4 8bbd 4c8b 57bd
00000200: bec9 22be eaf2 2abe 07cd 17be 5c3a efbd
00000210: 8699 47bd 24c1 25be c8dd 133b f0e0 4abe
00000220: a4e4 4cbe 7d6a 13bd 529e 8ebd 5517 0dbe
00000230: 5a0f e2bd a1ef 423d fff7 12be a7d7 933d
00000240: 612d 8ebd 58a1 2ebe 314f 8dbd de2c b23d
00000250: 8f79 293c 9334 a6bd c79b 2f3e f51c 9b3d
00000260: 03f3 a43d 8d35 eb3d f068 40bc 6f4d a6bd
00000270: 3e3f 09bd 345a de3d 9a42 acbd 7200 f43d
00000280: 966b 3d3e dfa1 2cbd aeda 903d f3fe 8d3c
00000290: ad5a ad3d 670b 9fbd 4e8e 2d3e 6054 e43d
000002a0: 5817 acbd f3ad dc3d 3265 d33d 5e33 a4bd
000002b0: 2330 553e 2559 0b3e aca8 f93d c852 27bc
000002c0: 54ac 283e 0083 46bd 3d43 493e f6a1 293e
000002d0: 32f3 393e 5fee eb3b b397 bfbc 56ba 1b3e
000002e0: fa22 033e f36c 223d f332 9dbd 9f1b 313d
000002f0: b085 8a3d caac 323e 07c7 d03d 0c2d d43a
00000300: 59f0 df3d a93b b8bd f914 293e c396 85bd

conv1.bias f4 [4]
0.1883804 0.04553656 -0.098612405 0.00865111
00000000: cbe6 403e 8b84 3a3d 4df5 c9bd 63bd 0d3c

fc1.weight f4 [64, 256]
0.047262818 0.04903533 -0.06533212 0.022578472 0.081333116 -0.044713005 -0.048269417 -0.03054801
-0.024185192 -0.01264621 -0.079545185 0.036745984 -0.00945242 0.012430972 -0.030008048 0.08530029
-0.03890785 -0.051863253 -0.028462911 0.00345393 0.065187514 -0.061942726 -0.011042513 0.06261243
-0.013790092 0.051022053 -0.0491478 -0.04857639 0.08642277 0.038013555 -0.014443931 0.06128966
0.020638485 0.0054766834 -0.047809 -0.007859024 -0.022749726 -0.010770471 -0.008948748 -0.016799226
-0.022799069 -0.039393023 -0.030309573 -0.030784175 -0.019840749 -0.025684569 -0.004942208 -0.07805405
0.045380317 -0.010756586 -0.035649426 -0.036584634 -0.0046311906 0.06691371 0.034716062 -0.02235032
-0.013333836 -0.025652593 -0.032019295 0.050083417 0.09159346 0.07005898 -0.0013754539 0.06554486
0.061228324 0.038405642 -0.011037338 -0.016178675 -0.035386007 0.03994528 -0.019030781 -0.042877685
-0.05565326 0.03940439 -0.027626157 -0.0019105024 0.052631706 -0.049599975 -0.06477207 0.0056609754
-0.0154427495 -0.017038584 0.01774631 -0.0014916846 0.017082434 -0.013170986 0.029083367 0.075506024
-0.021629568 0.07667192 0.06096476 0.0638851 -0.017176475 -0.027819436 -0.023062507 -0.015584903
0.027401594 0.053238414 -0.005500296 0.047186304 0.05647327 0.012990009 -0.07981407 -0.077019654
0.05083761 0.038497575 0.018486226 -0.020543093 0.037689164 -0.004013593 -0.018356668 -0.031750593
-0.041722745 -0.03389888 -0.027024549 -0.07272475 -0.00945923 0.05916762 0.023670215 -0.043850787
-0.01700576 0.009429849 -0.005525222 0.033715326 -0.03998657 0.069931656 -0.058929496 0.0076206494
0.0039270483 0.03888382 -0.06749823 -0.043325722 -0.046225037 0.013379149 0.050751753 0.02248424
-0.023197267 -0.060814176 -0.019691784 0.045816656 -0.06278279 0.014846837 -0.003375784 0.059526008
0.025997432 0.0086458335 -0.007462031 0.023168182 0.05850439 -0.02372135 -0.03226058 0.0065339203
-0.01907246 0.073871925 0.014264306 -0.0025122853 0.009272814 -0.06775482 0.03481024 0.018476801
0.023190271 -0.017546037 -0.023915188 -0.07960085 0.04978232 0.015100202 -0.06697597 -0.043772064
-0.03814245 -0.010772478 -0.0166078 0.038539883 0.056831118 -0.02834925 0.019765165 -0.014444648
-0.022206685 -0.03676465 -0.050787546 -0.07633651 0.093830496 -0.003947665 0.020078316 -0.002476193
0.07236103 0.04587949 -0.018126637 0.017977417 0.10762842 0.008778569 0.02736229 -0.024472388
0.014910814 -0.061997592 -0.07739415 0.0077360384 0.06412564 -0.03404814 -0.0051195924 -0.03333999
-0.031526197 0.039702576 -0.04236024 0.048097808 -0.06985067 0.020565065 -0.024617698 0.05041855
-0.022538288 -0.0012057542 -0.0401457 0.003623097 0.017091941 -0.061735034 0.017704278 0.021497484
0.044357907 -0.038980745 -0.0032853293 0.055953026 0.0034370096 -0.0046778317 0.0016920756 0.024288055
0.047540437 -0.021222731 -0.036763065 -0.038064048 0.0060050213 -0.06827175 -0.04893771 -0.08255794
-0.056154214 -0.05284662 -0.021208813 -0.023881067 0.008089943 -0.03088116 -0.049520157 -0.030588225
-0.026463412 -0.052158397 -0.004761817 -0.020720646 0.0038918671 0.00080558547 -0.074811816 0.038460936
0.061978582 -0.025867747 0.04691694 0.018284362 0.014393781 0.08178997 -0.031417716 0.015926471
00000000: a896 413d 45d9 483d d9cc 85bd 7df6 b83c
00000010: fa91 a63d fc24 37bd 27b6 45bd d23f fabc
00000020: 0620 c6bc 0d32 4fbc 96e8 a2bd f582 163d
00000030: 53de 1abc 47ab 4b3c 70d3 f5bc ebb1 ae3d
00000040: d65d 1fbd 906e 54bd 0d2b e9bc 545b 623b
00000050: 0881 853d a8b7 7dbd a8eb 34bc f23a 803d
00000060: d7ef 61bc 80fc 503d 344f 49bd 09f8 46bd
00000070: 6cfe b03d 1ab4 1b3d 3da6 6cbc de0a 7b3d
00000080: 0a12 a93c c075 b33b 5fd3 43bd 23c3 00bc
00000090: a25d babc a176 30bc c59d 12bc 889e 89bc
000000a0: 1dc5 babc 945a 21bd c84b f8bc 182f fcbc
000000b0: 1189 a2bc 7268 d2bc 3ff2 a1bb cdda 9fbd
000000c0: b6e0 393d 643c 30bc 2205 12bd c5d9 15bd
000000d0: 3ec1 97bb 0e0a 893d 6e32 0e3d 0518 b7bc
000000e0: 2976 5abc 6325 d2bc aa26 03bd 4524 4d3d
000000f0: 5a95 bb3d 157b 8f3d 9348 b4ba 623c 863d
00000100: 8dca 7a3d 3c4f 1d3d f3d5 34bc 2489 84bc
00000110: ebf0 10bd a99d 233d 71e6 9bbc 83a0 2fbd
00000120: acf4 63bd 7f66 213d 4050 e2bc d369 faba
00000130: 5894 573d 5829 4bbd 38a7 84bd b47f b93b
00000140: 9603 7dbc 8094 8bbc b660 913c a184 c3ba
00000150: 76f0 8b3c 1fcb 57bc 3e40 ee3c e7a2 9a3d
00000160: 7e30 b1bc 2b06 9d3d 2fb6 793d 31d6 823d
00000170: aeb5 8cbc 96e5 e3bc 95ed bcbc d257 7fbc
00000180: 4f79 e03c 8610 5a3d d43b b4bb 6d46 413d
00000190: 8450 673d 0cd4 543c 8f75 a3bd 7bbc 9dbd
000001a0: 193b 503d a2af 1d3d 6d70 973c fd49 a8bc
000001b0: f45f 1a3d 7584 83bb b960 96bc e90c 02bd
000001c0: 78e5 2abd 8dd9 0abd 9662 ddbc b7f0 94bd
000001d0: e3fa 1abc bf59 723d 0ae8 c13c e29c 33bd
000001e0: aa4f 8bbc a77f 1a3c ec0c b5bb 1519 0a3d
000001f0: f5c8 23bd 5438 8f3d 0e60 71bd a4b6 f93b
00000200: 78ae 803b a444 1f3d 833c 8abd 5076 31bd
00000210: 7756 3dbd 3834 5b3c 12e1 4f3d de30 b83c
00000220: 3208 bebc 4918 79bd aa50 a1bc 3faa 3b3d
00000230: 4394 80bd 2640 733c 423c 5dbb 8bd1 733d
00000240: 91f8 d43c 41a7 0d3c 0e84 f4bb 33cb bd3c
00000250: 4da2 6f3d 4753 c2bc ac23 04bd 7f1a d63b
00000260: d93d 9cbc 2a4a 973d d6b4 693c 27a5 24bb
00000270: 00ed 173c 0ac3 8abd 2f95 0e3d a95c 973c
00000280: 86f9 bd3c b5bc 8fbc c9e9 c3bc c505 a3bd
00000290: 8ce8 4b3d d666 773c b32a 89bd 564a 33bd
000002a0: 423b 1cbd 0c7f 30bc 150d 88bc ffdb 1d3d
000002b0: bfc7 683d b03c e8bc 8eea a13c 3fa9 6cbc
000002c0: cbea b5bc 8896 16bd 9a06 50bd 5156 9cbd
000002d0: 342a c03d 6a5b 81bb 487b a43c a047 22bb
000002e0: 0532 943d 22ec 3b3d 507e 94bc 6045 933c
000002f0: 4a6c dc3d fdd3 0f3c e226 e03c 517a c8bc
00000300: 7d4c 743c 30f1 7dbd d380 9ebd 987e fd3b
00000310: 4e54 833d 1076 0bbd 41c2 a7bb 838f 08bd
00000320: 9d21 01bd 2b9f 223d ee81 2dbd 3502 453d
00000330: de0d 8fbd 1178 a83c 0eab c9bc ae83 4e3d
00000340: 37a2 b8bc 660a 9eba d16f 24bd 7b71 6d3b
00000350: 6604 8c3c e0dd 7cbd 9008 913c 7e1b b03c
00000360: a3b0 353d 46aa 1fbd ae4e 57bb 002f 653d
00000370: 743f 613b 7f48 99bb a3c8 dd3a bef7 c63c
00000380: c3b9 423d 4bdb adbc de94 16bd 0ce9 1bbd
00000390: c5c5 c43b 0fd2 8bbd e872 48bd 2314 a9bd
000003a0: f601 66bd b375 58bd 1bbe adbc 3aa2 c3bc
000003b0: ae8b 043c 7dfa fcbc a6d5 4abd 2894 fabc
000003c0: ccc9 d8bc 0ba4 55bd 0409 9cbb 58be a9bc
000003d0: b20e 7f3b ed2d 533a f036 99bd 3789 1d3d
000003e0: 41dd 7d3d 99e8 d3bc fa2b 403d 16c9 953c
000003f0: e5d3 6b3c 8081 a73d ddaf 00bd 3b78 823c

fc1.bias f4 [64]
-0.02639918 -0.0054344144 0.01497307 0.0023293593 -0.02910696 -0.006362908 -0.05932915 -0.06689547
-0.03326469 0.08562699 0.0063810092 0.019644758 -0.014055999 -0.027692545 0.047971413 0.043846413
0.09667269 -0.018488197 0.0033651667 0.062395714 -0.055043202 0.0030709486 0.00091860874 0.021547768
-0.025225427 0.019339008 0.068761684 0.009299797 -0.041462883 -0.08393383 0.017630745 0.010681227
-0.028057206 0.0472959 -0.034006227 -0.00016708544 -0.026738636 -0.04264905 0.015284347 0.02931725
-0.056647807 -0.05119963 0.028196681 0.0024581347 0.06281034 0.000652823 -0.054818414 -0.03452359
-0.009994349 0.022541104 -0.01991756 0.04762086 0.0356464 -0.043386888 0.032653097 -0.030090908
0.07550332 -0.021576915 0.0547131 0.040553473 -0.0070082513 0.042053986 -0.04031932 -0.06994376
00000000: 1843 d8bc 2c13 b2bb 9b51 753c 2aa8 183b
00000010: b871 eebc f17f d0bb 1f03 73bd 7e00 89bd
00000020: 8e40 08bd 345d af3d c917 d13b 0bee a03c
00000030: 224b 66bc 7adb e2bc ac7d 443d 4c98 333d
00000040: 55fc c53d 8f74 97bc 218a 5c3b a692 7f3d
00000050: fb74 61bd f841 493b cace 703a f284 b03c
00000060: 8ea5 cebc d76c 9e3c edd2 8c3d 2d5e 183c
00000070: fcd4 29bd 80e5 abbd 5a6e 903c 5000 2f3c
00000080: 3ad8 e5bc 58b9 413d 1d4a 0bbd a833 2fb9
00000090: fc0a dbbc c5b0 2ebd 336b 7a3c bb2a f03c
000000a0: 8807 68bd b4b6 51bd bafc e63c a818 213b
000000b0: b5a2 803d 3622 2b3a 4689 60bd 9c68 0dbd
000000c0: 57bf 23bc 1fa8 b83c 272a a3bc 170e 433d
000000d0: f601 123d 73b6 31bd 41bf 053d 3581 f6bc
000000e0: 7ca1 9a3d 12c2 b0bc d81a 603d 661b 263d
000000f0: 79a5 e5bb cd40 2c3d df25 25bd ad3e 8fbd

fc2.weight f4 [10, 64]
0.06283914 0.12149288 -0.19272807 -0.09471883 -0.14218529 -0.056674197 0.08157224 -0.08412065
0.058095172 -0.055840578 0.008077165 -0.05781653 0.017644236 -0.085976265 0.0052198875 0.115039766
-0.17007826 0.113575004 0.094472714 0.094473995 -0.11820676 -0.02141291 0.071818545 -0.14132145
-0.04634081 0.08929392 0.04215047 -0.122633874 -0.022292236 0.01260752 -0.030872013 0.041577637
-0.0040689944 0.024601055 -0.171302 -0.14068949 -0.010865426 -0.14852877 -0.0482347 -0.07974071
0.12685633 0.0742048 -0.08983548 -0.12764099 0.09410621 -0.16390973 -0.12098778 0.08424067
-0.05626868 -0.066564634 -0.044484332 -0.046916746 -0.052390803 -0.013225838 -0.13018243 0.070683606
-0.085641205 -0.1563808 -0.08144719 -0.025461718 0.012922032 0.046194788 0.028943876 0.03216616
0.06497988 0.034210354 0.022084974 0.022017399 -0.06660581 0.02426574 0.114265025 0.11405914
0.060127396 0.12018486 -0.11186258 -0.02122458 0.13494812 -0.01238358 0.007743 -0.078769505
-0.016634567 -0.028654484 -0.08192801 0.041438874 0.026945895 -0.10420025 -0.11848199 0.052801397
-0.07150232 -0.1357745 -0.022263685 -0.037030835 -0.07555783 -0.02548187 0.055829007 -0.059637517
0.037618928 0.08599016 0.04684118 0.011094765 -0.037798576 -0.11290853 -0.007841206 -0.1278359
-0.09930572 -0.09457857 -0.10476368 0.019699594 0.10945264 0.07314623 0.033495937 -0.1250235
0.098688 0.056671232 0.011670467 -0.055796657 0.0027078378 0.023492618 -0.1169963 0.04018708
-0.12804605 -0.17559788 0.064270906 0.062347848 -0.1309895 0.09859381 -0.08913814 0.11469525
0.091025084 0.003359514 -0.07517813 -0.068022974 -0.10273368 -0.034227 -0.0498948 0.03076337
-0.1302475 -0.04154919 -0.09985264 -0.102579005 0.04438494 -0.0370533 0.06001977 0.13356443
-0.07511587 -0.12727727 0.114264555 0.056321498 -0.06689471 -0.10405637 0.07755733 -0.014862827
8.700343e-05 0.111018024 -0.072630756 0.012560284 0.029094443 0.0104195755 -0.104946144 0.049868725
0.100044504 -0.14646801 -0.10353201 0.011918391 0.12873109 0.026087059 0.10698715 0.0025200488
-0.12903683 -0.03765863 -0.091615655 0.057497583 -0.014410768 -0.032483503 0.050391164 -0.024187103
0.01571501 -0.12063428 0.07979601 -0.111553274 0.09594713 -0.12571657 -0.14154668 0.11615482
0.04356503 -0.02963999 -0.06788648 -0.09421788 -0.014008352 -0.01461744 -0.14457393 -0.12067015
-0.05270924 0.031243565 -0.07769883 0.095950626 0.1018804 -0.05073942 -0.089124836 0.016565064
0.117509834 0.08547823 0.0016144296 0.07044364 0.12265423 -0.13385163 -0.13624443 -0.108200125
-0.11601238 -0.011247226 -0.022472072 0.104638 0.06104215 -0.0087798275 0.08086494 -0.108021215
0.13600256 0.031204022 0.100225836 -0.13157119 0.12923989 -0.13201663 0.03349217 -0.045286495
0.11922474 -0.10863 -0.02197967 0.06099252 0.06603185 -0.08085397 0.10649211 0.084775954
-0.10372712 0.09461283 -0.1717872 0.08407538 -0.07839261 -0.11989801 -0.07705344 -0.09090381
0.11620171 -0.052483097 -0.021677796 0.112215936 0.0019126979 0.008374034 0.038547248 -0.09830024
-0.10662361 0.109974846 -0.13976885 -0.06924163 -0.11215659 0.09566428 -0.023333848 0.0042256685
00000000: cfb1 803d 42d1 f83d 825a 45be f2fb c1bd
00000010: 0599 11be 3423 68bd 590f a73d 7347 acbd
00000020: 34f5 6d3d 17b9 64bd 1656 043c 07d1 6cbd
00000030: a58a 903c 5314 b0bd 970b ab3b f899 eb3d
00000040: ff28 2ebe 039a e83d e97a c13d 957b c13d
00000050: 6316 f2bd 216a afbc 9a15 933d 92b6 10be
00000060: dccf 3dbd bbdf b63d f9a5 2c3d 7827 fbbd
00000070: 359e b6bc c68f 4e3c 4ee7 fcbc 504d 2a3d
00000080: 3355 85bb 2788 c93c cb69 2fbe e810 10be
00000090: e604 32bc ed17 18be c091 45bd 194f a3bd
000000a0: a0e6 013e b0f8 973d aafb b7bd 52b4 02be
000000b0: c2ba c03d f4d7 27be 71c8 f7bd 5f86 ac3d
000000c0: fd79 66bd 0a53 88bd 3435 36bd c62b 40bd
000000d0: bd97 56bd 2fb1 58bc 8b4e 05be 91c2 903d
000000e0: a864 afbd 4a22 20be c9cd a6bd 1895 d0bc
000000f0: eeb6 533c bf36 3d3d b51b ed3c aac0 033d
00000100: 2c14 853d 2820 0c3d 8ceb b43c d55d b43c
00000110: a068 88bd f2c8 c63c c803 ea3d d797 e93d
00000120: 2548 763d 7b23 f63d 3518 e5bd 2cdf adbc
00000130: d72f 0a3e 80e4 4abc feb8 fd3b e851 a1bd
00000140: 3745 88bc cfbc eabc dfc9 a7bd cfbb 293d
00000150: a3bd dc3c f166 d5bd b0a6 f2bd 4746 583d
00000160: cf6f 92bd 7808 0bbe 5562 b6bc a5ad 17bd
00000170: 10be 9abd 5bbf d0bc f5ac 643d 7846 74bd
00000180: 4e16 1a3d 9c1b b03d 8adc 3f3d d1c6 353c
00000190: aed2 1abd 963c e7bd 6778 00bc 6ae7 02be
000001a0: cc60 cbbd 69b2 c1bd 578e d6bd 0b61 a13c
000001b0: b528 e03d b1cd 953d 0933 093d 2906 00be
000001c0: ef1c ca3d 1820 683d 7d35 3f3c 098b 64bd
000001d0: fb75 313b 9773 c03c c29b efbd 359b 243d
000001e0: 811e 03be eecf 33be 77a0 833d 7560 7f3d
000001f0: 1d22 06be 8deb c93d 0f8e b6bd 58e5 ea3d
00000200: 5c6b ba3d 4b2b 5c3b fef6 99bd a14f 8bbd
00000210: 0966 d2bd 9c31 0cbd 7d5e 4cbd 7703 fc3c
00000220: 9a5f 05be 7c2f 2abd 8a7f ccbd f114 d2bd
00000230: fccc 353d 33c5 17bd 4ad7 753d 1dc5 083e
00000240: 59d6 99bd f954 02be 8903 ea3d 5fb1 663d
00000250: 1800 89bd 821b d5bd 61d6 9e3d 3783 73bc
00000260: 9c75 b638 6b5d e33d 6fbf 94bd a6c9 4d3c
00000270: 7857 ee3c deb6 2a3c 01ee d6bd 2643 4c3d
00000280: 22e4 cc3d b6fb 15be 9708 d4bd 5b45 433c
00000290: 15d2 033e 87b4 d53c 141c db3d 6727 253b
000002a0: 3b22 04be f03f 1abd fda0 bbbd 9682 6b3d
000002b0: 241b 6cbc 6c0d 05bd f766 4e3d 0824 c6bc
000002c0: c4bc 803c 1b0f f7bd 176c a33d 0b76 e4bd
000002d0: ee7f c43d d8bb 00be 9df1 10be 94e2 ed3d
000002e0: 3f71 323d 90cf f2bc 1108 8bbd 4ef5 c0bd
000002f0: 4983 65bc fd7d 6fbc 300b 14be e921 f7bd
00000300: a5e5 57bd 81f2 ff3c 9020 9fbd c381 c43d
00000310: aca6 d03d 23d4 4fbd 1587 b6bd 75b3 873c
00000320: ffa8 f03d 360f af3d 459b d33a c144 903d
00000330: 2432 fb3d 6710 09be a983 0bbe 0798 ddbd
00000340: e697 edbd 4946 38bc 5a17 b8bc 734c d63d
00000350: 5507 7a3d 44d9 0fbc 859c a53d 3a3a ddbd
00000360: 4144 0b3e 949f ff3c 3443 cd3d 99ba 06be
00000370: 7657 043e 5e2f 07be 162f 093d 557e 39bd
00000380: 1a2c f43d 6879 debd b50e b4bc 4bd3 793d
00000390: b53b 873d c496 a5bd 8918 da3d 049f ad3d
000003a0: e26e d4bd 5fc4 c13d fce8 2fbe b62f ac3d
000003b0: 4e8c a0bd 168d f5bd 32ce 9dbd c72b babd
000003c0: 2afb ed3d 84f8 56bd a295 b1bc 78d1 e53d
000003d0: 7eb3 fa3a 3f33 093c b8e3 1d3d a351 c9bd
000003e0: 7b5d dabd 7e3a e13d 911f 0fbe 8ece 8dbd
000003f0: 5bb2 e5bd a2eb c33d a026 bfbc 7a77 8a3b

fc2.bias f4 [10]
0.044539467 0.1353845 -0.06875585 0.10019306 -0.014453557 0.021202631 0.039377023 0.009882683
-0.028261095 0.03428867
00000000: 046f 363d 3ca2 0a3e decf 8cbd 0532 cd3d
00000010: 9dce 6cbc 24b1 ad3c cd49 213d faea 213c
00000020: d083 e7bc 4772 0c3d
