parameters/MNIST/trained-model.pth (torch, 22084 bytes, 5 tensors)

conv1.weight f4 [1, 1, 7, 7]
0	0xbda9e581	-0.082957275
1	0xbe436b1c	-0.19083828
2	0x3ca10876	0.019657355
3	0xbd431286	-0.047625087
4	0xbe542a15	-0.20719178
5	0xbde6975f	-0.112593405
6	0xbe1cca62	-0.15311578
7	0xbcb5b561	-0.022181215
8	0xbe39981f	-0.18124436
9	0xbe2842e3	-0.16431765
10	0x3d58011f	0.052735444
11	0x3da77597	0.08176725
12	0xbdc043b8	-0.09387916
13	0xbd5dd2c6	-0.054156087
14	0xbe03cbae	-0.12870666
15	0xbdfb186a	-0.12260516
16	0x3c3f5b31	0.011679457
17	0xbdf89f74	-0.12139788
18	0xbccb3439	-0.024805175
19	0xbe557adc	-0.20847648
20	0xbe277d9f	-0.16356514
21	0xbe64d982	-0.22348598
22	0x3d791062	0.06080664
23	0x3d9add60	0.07561755
24	0x3de090b4	0.109651
25	0x3dd59702	0.10429193
26	0x3cf0e1fb	0.02940463
27	0xbe540471	-0.2070482
28	0x3d80b465	0.062844075
29	0x3e6f6ffc	0.23382562
30	0x3e153d19	0.14574088
31	0xbdb9115d	-0.09036515
32	0xbe49c4f9	-0.19704045
33	0xbdb21fae	-0.08697449
34	0xbe87f3ae	-0.265531
35	0xbd4513b8	-0.04811451
36	0xbb35924b	-0.0027705606
37	0x3e265fbf	0.16247462
38	0x3dc6ec4b	0.09713038
39	0xbda12dd5	-0.0787007
40	0xbe436591	-0.19081713
41	0xbe96f641	-0.29484752
42	0xbe3cf0b0	-0.1845119
43	0xbdb8ea39	-0.090290494
44	0x3c686ee8	0.014186598
45	0xbc8c2500	-0.017107487
46	0xbe495d75	-0.19664557
47	0xbe8c886b	-0.2744783
48	0xbeb31786	-0.34978884

fc1.weight f4 [64, 64]
0	0xbb8b665d	-0.004254146
1	0xbdf34648	-0.118786395
2	0xbc48b8b6	-0.01225107
3	0x3cecb90c	0.028896831
4	0x3d8bc0a7	0.06823855
5	0x3d5f50d7	0.054520454
6	0xbe1ba612	-0.1520007
7	0x3d8a9c52	0.06768097
8	0x3cfa45da	0.030550886
9	0xbbc48108	-0.005996827
10	0x3e0e6800	0.1390686
11	0x3e1b8911	0.15189005
12	0x3df76087	0.12078958
13	0x3c405411	0.011738793
14	0xbdcd7ffb	-0.10034176
15	0x3b206260	0.0024472699
16	0x3ca47edf	0.020080028
17	0xbd45ffbb	-0.048339587
18	0xbdaec8fb	-0.08534428
19	0x3d5acdd2	0.05341894
20	0xbd79b58d	-0.060964156
21	0x3cd189a7	0.025578333
22	0xbdbc9933	-0.09208908
23	0x3dd04b9b	0.101706706
24	0x3cc42e3d	0.02394783
25	0xbde3316b	-0.1109341
26	0x3c478fbd	0.012180266
27	0x3e25c082	0.16186717
28	0xbde32046	-0.1109014
29	0x3d26f23b	0.040758353
30	0x3de13dde	0.10998128
31	0xbd9f3611	-0.07773984
32	0x3c810936	0.015751462
33	0xbdff49f9	-0.12465281
34	0x3e0920c2	0.13391402
35	0xbd1776c7	-0.03697851
36	0xbe00c198	-0.1257385
37	0x3d2d09db	0.042245727
38	0xbdf5e5ba	-0.120067075
39	0xbd8207b4	-0.063491255
40	0x3b21f038	0.0024709832
41	0x3e0bb807	0.1364442
42	0x3dd0fdc8	0.10204655
43	0x3d2bef80	0.041976452
44	0x3d89ba88	0.06725031
45	0x3dcb48c0	0.09925985
46	0x3d02e805	0.031959552
47	0xbcf7c964	-0.030247398
48	0x3c98ecf4	0.018667676
49	0x3d42ea44	0.047586694
50	0xbdcb0bf1	-0.09914387
51	0xbc5d03ed	-0.0134897055
52	0xbd3ebe29	-0.04656807
53	0x3deb7ee1	0.114988096
54	0xbcc9825a	-0.02459829
55	0xbd7d3114	-0.061814383
56	0x3c7dbd4e	0.015487028
57	0x3e04e779	0.12978925
58	0xbdc8c802	-0.098037735
59	0x3da7d05b	0.081940375
60	0x3df90aec	0.12160286
61	0xbb5204c3	-0.0032046295
62	0x3d1f36b9	0.038870547
63	0x3c0d0d26	0.008609092
64	0xbd2484ed	-0.04016583
65	0x3d97e0b6	0.07415907
66	0xbdf61fe2	-0.120178
67	0xbb31af18	-0.002711242
68	0x3dfeb2ab	0.12436422
69	0x3e1348f7	0.14383303
70	0xbdef1e65	-0.11675719
71	0xbcd165d0	-0.025561243
72	0xbdcfee60	-0.10152888
73	0xbd4ef9d1	-0.050531212
74	0xbdd5de88	-0.10442835
75	0x3e3aa121	0.18225528
76	0xbcd637b9	-0.026149618
77	0x3d7b9125	0.061417717
78	0xbda62238	-0.081119955
79	0xbca86fcc	-0.020561121
80	0xbd616854	-0.055031136
81	0xbd474152	-0.04864628
82	0x3c180574	0.009278644
83	0xbd08ae28	-0.033369213
84	0x3c8d14e8	0.017221883
85	0xbd14c485	-0.036320228
86	0xbdea8653	-0.114514016
87	0x3d737884	0.059441105
88	0x3d23c3cc	0.03998165
89	0xbdcf078e	-0.10108863
90	0xbd05a24f	-0.032625493
91	0x3ddaae13	0.10677733
92	0xbd96313c	-0.073336095
93	0x3e3a90ca	0.18219295
94	0xbd55f772	-0.052237935
95	0xbd92e14c	-0.07171878
96	0x39ad6c18	0.00033077667
97	0x3d1ab6e4	0.037772074
98	0x3d5989bd	0.053109873
99	0xbdeb2772	-0.11482133
100	0x3e437cc1	0.19090559
101	0x3c387099	0.011257314
102	0x3ccd89b9	0.025090085
103	0x3d5ec4cc	0.0543869
104	0xbb4f888e	-0.0031667086
105	0xbd4bb7ba	-0.049735762
106	0xbd327512	-0.04356868
107	0x3da095b1	0.07841051
108	0xbda4c2fb	-0.08045002
109	0xbca738f8	-0.020412907
110	0x3e0aa6ef	0.13540243
111	0xbc47c450	-0.012192801
112	0x3defb740	0.11704874
113	0x3db06e1e	0.08614753
114	0x3d7e9d1b	0.062161546
115	0xbddeae9a	-0.10873146
116	0x3d9dddaf	0.077082984
117	0x3daac82d	0.08338962
118	0xbdc16055	-0.09442202
119	0x3cb70c12	0.022344623
120	0x3dc0fdd3	0.09423413
121	0xbd100ab9	-0.035166476
122	0x3e194539	0.14967813
123	0x3dd09244	0.10184148
124	0x3dc08edb	0.094022475
125	0xbcfda8bc	-0.030964248
126	0x3d9bad26	0.07601385
127	0xbdfba309	-0.12286956
128	0x3dffdbaa	0.124930695
129	0x3daa47ce	0.08314477
130	0x3d7ed658	0.062216133
131	0xbd91ab34	-0.071127325
132	0xbd8cd3c5	-0.06876329
133	0x3d869cf4	0.06572905
134	0x3db43fd8	0.0880124
135	0x3b92b761	0.004477427
136	0xbd9b9844	-0.07597402
137	0x3ae9390c	0.001779349
138	0x3c97682b	0.018482288
139	0x3df410c5	0.11917261
140	0x3d1b691a	0.03794203
141	0xbd42529a	-0.047442056
142	0x3e1a2336	0.15052494
143	0xbdc493c1	-0.09598494
144	0x3e14c289	0.14527334
145	0xbdbd3a61	-0.092396505
146	0x3e063ca8	0.13109076
147	0x3d9b988f	0.075974576
148	0xbdc5e818	-0.09663409
149	0xbd0a2dbe	-0.03373503
150	0x3deb4fb5	0.11489812
151	0x3e1d6131	0.15369107
152	0xbd2df685	-0.042471427
153	0xbc3d7fe2	-0.011566134
154	0x3e10384f	0.1408398
155	0xbdcca667	-0.09992676
156	0xbd47c16b	-0.048768442
157	0xbcb80fab	-0.022468409
158	0xbd675c08	-0.056484252
159	0x3d4f1f51	0.050566975
160	0xbcd50c74	-0.026006915
161	0x3df33b23	0.11876514
162	0x3c46853a	0.012116725
163	0x3e23732d	0.15961905
164	0xbdc2058b	-0.094737135
165	0x3e3d8657	0.18508278
166	0xbdd9fb61	-0.1064365
167	0xbd240b19	-0.040049646
168	0xbdca4ade	-0.09877561
169	0x3e0ac6a8	0.13552344
170	0x3d194694	0.037420824
171	0xbdc69e23	-0.09698131
172	0xbdab1915	-0.083543934
173	0x3e0824ce	0.1329529
174	0xbd8509ca	-0.06496008
175	0x3de88f81	0.11355496
176	0xbe254662	-0.1614013
177	0xbda184f7	-0.07886689
178	0x3e3252db	0.1741442
179	0x3da66727	0.081251435
180	0xbb4611dc	-0.0030223047
181	0x3e1014a2	0.14070371
182	0xbd78dd2b	-0.060757797
183	0x3c96921b	0.018380215
184	0xbdec7783	-0.115462326
185	0x3d105ceb	0.035244863
186	0xbdaee1aa	-0.08539136
187	0xbd9a3bf9	-0.0753097
188	0x3ccba5d2	0.024859343
189	0xbb45bf7a	-0.0030173943
190	0xbda71c91	-0.081597455
191	0xbd35cbb6	-0.044383727
192	0xbd1cd68f	-0.038290557
193	0xbdefddbd	-0.11712215
194	0xbe27bc2e	-0.16380379
195	0xbdf5b8be	-0.119981274
196	0xbcdfb020	-0.027305663
197	0xbdff0779	-0.12452597
198	0xbc34ee16	-0.011043092
199	0xbd21c5f0	-0.03949541
200	0xbc0be136	-0.008537581
201	0xbd43951c	-0.047749624
202	0xbd8aa148	-0.06769043
203	0x3df1268a	0.11774929
204	0x3d200038	0.03906271
205	0xbddd8ad0	-0.10817492
206	0xbe25e1b4	-0.1619938
207	0xbe1be3c8	-0.1522361
208	0xbd770b76	-0.060313664
209	0x3dec0e53	0.1152617
210	0x3d8a887a	0.06764312
211	0x3d1d29a4	0.03836979
212	0xbd42fccc	-0.047604367
213	0x3dab34fb	0.083597146
214	0x3d582304	0.05276777
215	0x3be48c3e	0.006974726
216	0xbd79cfab	-0.060989063
217	0xbdc9c63b	-0.098522626
218	0xbe206a14	-0.15665466
219	0x3d5efc3e	0.054439776
220	0xbd717608	-0.058950454
221	0xbd7a270f	-0.061072405
222	0xbdd9ad0b	-0.106287085
223	0x3dbdf845	0.09275869
224	0xbe2b7405	-0.16743477
225	0xbd77a47f	-0.06045961
226	0x3e1832ab	0.14863078
227	0xbe026f8c	-0.12737864
228	0xbdc6157f	-0.09672069
229	0xbda04295	-0.078251995
230	0xbd5f4214	-0.054506376
231	0xbd833b84	-0.06407836
232	0xbb1b1928	-0.0023666117
233	0xbb9dd892	-0.004817077
234	0xbd956e9b	-0.07296487
235	0x3b2aa175	0.0026036177
236	0x3d8dacc4	0.06917718
237	0x3d932194	0.07184139
238	0xbd58d230	-0.052934825
239	0x3dc3534e	0.095373735
240	0x3c9aa245	0.018876204
241	0x3dfaaf4b	0.12240466
242	0xbd9a703c	-0.07540938
243	0xbd991436	-0.07474558
244	0xbe1a31e0	-0.15058088
245	0xbd08848f	-0.033329543
246	0xbd9072d3	-0.07053151
247	0x3d8772ab	0.06613668
248	0xbce81fb6	-0.028335433
249	0x3e0383ba	0.12843218
250	0x3d8ffad1	0.07030261
251	0x3d5b442c	0.05353181
252	0xbe07b667	-0.13253175
253	0xbdc79ecd	-0.09747086
254	0x3d0eadd6	0.03483375
255	0xb9c07aee	-0.00036712684

fc1.bias f4 [64]
0	0x3e2754fa	0.1634101
1	0x3db8d358	0.090246856
2	0xbd9deed2	-0.07711567
3	0xbe14ce23	-0.1453176
4	0x3d569f64	0.0523981
5	0x3d72270f	0.05911928
6	0x3d6af046	0.05735805
7	0xbd65f820	-0.056144834
8	0x3c7e00e5	0.015503143
9	0xbe3a3113	-0.18182783
10	0xbd6d59cf	-0.057946976
11	0x3d5d9860	0.054100394
12	0xbd324cc4	-0.04353024
13	0x3cebe86a	0.028797347
14	0x3d53ee24	0.05174078
15	0x3df9e7a9	0.12202389
16	0xbdc155d9	-0.09440202
17	0xbdcd79ff	-0.100330345
18	0x3d8dc1f8	0.06921762
19	0xbdfac77e	-0.12245081
20	0x3db74ffd	0.089508034
21	0x3d7da782	0.061927326
22	0x3cdd66b6	0.027026515
23	0x3998b370	0.0002912539
24	0x3da4eaf8	0.08052629
25	0xbe1354c5	-0.14387806
26	0x3d898832	0.0671543
27	0x3ccdd1f8	0.025124535
28	0xbe09707a	-0.13421813
29	0xbe15711e	-0.14593932
30	0x3e3121e0	0.17298079
31	0x3bad9001	0.0052967076
32	0xbe1039ab	-0.14084499
33	0x3e41d84d	0.18930168
34	0x3e6a909f	0.22906731
35	0xbdbc6219	-0.09198398
36	0xbdf838d7	-0.12120216
37	0xbd633ede	-0.055479877
38	0x3def3cdd	0.116815306
39	0xbdbd413a	-0.092409566
40	0x3df626d9	0.12019128
41	0xbdcf199d	-0.10112307
42	0xbdfdba48	-0.12389046
43	0xbe08a559	-0.13344325
44	0x3d90a32e	0.07062374
45	0x3ce60114	0.028076686
46	0xbd7f36f0	-0.06230825
47	0x3df90d90	0.1216079
48	0xbda0be25	-0.07848767
49	0xbe1b760a	-0.15181747
50	0xbe016f15	-0.1264003
51	0x3dafccef	0.0858401
52	0x3d53d3b2	0.05171556
53	0xbe29df64	-0.16589123
54	0x3d5d7b1d	0.054072488
55	0x3e0c0395	0.13673241
56	0x3e41553a	0.18880168
57	0x3d9b9e1b	0.075985156
58	0x3d9c09b4	0.07619038
59	0x39e2d920	0.0004326785
60	0xbe2b6c53	-0.16740541
61	0xbcb7997c	-0.022412054
62	0x3e1b25b0	0.15151095
63	0xbe25f4c9	-0.1620666

fc2.weight f4 [10, 64]
0	0x3d46ac36	0.048504077
1	0x3e236cec	0.15959519
2	0xbe1df128	-0.15424025
3	0xbdd7aaf6	-0.10530655
4	0x3db3c436	0.08777659
5	0x3da0ec88	0.07857615
6	0xbd153766	-0.036429785
7	0x3d9de1f8	0.07709116
8	0xbc3f5672	-0.011678325
9	0xbdaced1a	-0.08443661
10	0xbe1a1c04	-0.1504975
11	0x3dad5940	0.08464289
12	0x3d8e6b88	0.06954104
13	0xbd39fd45	-0.045407552
14	0x3d6f4eb4	0.058424667
15	0xbdd0cc1f	-0.10195183
16	0xbe2b3fcf	-0.1672356
17	0x3e229221	0.15876056
18	0x3b8ef452	0.0043626213
19	0xbe57c795	-0.21072228
20	0xbde29b9b	-0.11064836
21	0xbe81b54c	-0.2533363
22	0xbd9a4d3e	-0.07534264
23	0x3dd0d2fc	0.10196492
24	0x3d6bceab	0.05757014
25	0x3db1d993	0.08684077
26	0x3e09cf2e	0.13457939
27	0xbe05d696	-0.1307014
28	0xbe706c02	-0.23478702
29	0xbd1dc952	-0.038522072
30	0x3e1a2562	0.15053323
31	0x3d86320e	0.06552516
32	0xbe7ecaae	-0.24882004
33	0xbd36ecad	-0.044659305
34	0xbd891141	-0.06692744
35	0xbc9dc47f	-0.019258736
36	0x3c8d3515	0.017237226
37	0xbe26fe80	-0.16308022
38	0xbd9196f8	-0.07108873
39	0x3c98fece	0.018676188
40	0xbe206653	-0.15664034
41	0x3de0ac40	0.10970354
42	0xbe0704ac	-0.13185376
43	0x3ceecbb2	0.029149864
44	0x3e08a1b2	0.13342932
45	0xbd0a94e5	-0.033833403
46	0xbe4e37e6	-0.20138511
47	0x3c8c264a	0.017108101
48	0xbd44961f	-0.04799473
49	0xbdffcfa7	-0.124907784
50	0xbe81979c	-0.2531098
51	0x3dd9413c	0.106081456
52	0xbdcc7fa5	-0.09985284
53	0xbe44f844	-0.19235331
54	0xbe145a14	-0.14487487
55	0x3d065bf0	0.032802522
56	0xbe305f4f	-0.17223857
57	0x3d50d549	0.050984655
58	0xbde70180	-0.11279583
59	0x3b4cc233	0.0031243681
60	0xbe285273	-0.16437702
61	0xbd072099	-0.032990072
62	0xbe0f6dd3	-0.14006738
63	0xbe031628	-0.1280142
64	0x3e456ac7	0.19279014
65	0x3d75cc60	0.06000936
66	0xbd7814c0	-0.060566664
67	0xbbedd352	-0.0072578574
68	0xbb339c55	-0.0027406414
69	0xbe07af88	-0.13250554
70	0x3d9779ce	0.07396279
71	0xbcbbeb2c	-0.022939287
72	0x3d81bd6f	0.0633496
73	0xbd96d05f	-0.073639624
74	0xbd2c1054	-0.04200776
75	0xbe44d69a	-0.19222489
76	0xbe1d6f69	-0.15374531
77	0xbe16a00f	-0.14709495
78	0xbe2f9db2	-0.1715
79	0xbe3b6ca9	-0.1830317
80	0xbd8b1eee	-0.06793009
81	0xbde0a013	-0.10968032
82	0x3d983f5a	0.07433958
83	0x3e1efe24	0.15526634
84	0xbd2477f0	-0.040153444
85	0x3e1e5d50	0.15465283
86	0x3d27d9f2	0.040979333
87	0xbd56575f	-0.052329417
88	0xbe28013d	-0.16406722
89	0x3e0e6614	0.13906127
90	0x3e297594	0.16548759
91	0x3d75600e	0.059906058
92	0xbe3f35b4	-0.1867283
93	0xbe901899	-0.28143767
94	0xbe123da7	-0.14281331
95	0xbc89c6b3	-0.01681838
96	0xbd4e7a3f	-0.05040955
97	0xbe08b42e	-0.13349983
98	0x3e0ca2ad	0.13733931
99	0xbb07431e	-0.002063937
100	0x3e0d4495	0.13795693
101	0xbdd0a1d0	-0.10187113
102	0xbcda96e6	-0.026683282
103	0x3e35bb0d	0.17747135
104	0x3e020ffc	0.1270141
105	0xbde670ab	-0.112519585
106	0x3d6c0763	0.057624232
107	0xbd3078e3	-0.043084037
108	0x3dc40c02	0.09572603
109	0xbd05d6ab	-0.032675426
110	0x3cc51988	0.024060026
111	0xbe3ba2de	-0.18323848
112	0xbe59e5f4	-0.21279126
113	0x3cefdb6a	0.02927943
114	0xbdb7ecaa	-0.08980687
115	0xbd63a42f	-0.0555765
116	0xbc9aa9aa	-0.01887973
117	0xbe0fbf68	-0.1403786
118	0xbd6407a0	-0.055671334
119	0xbce0dae6	-0.027448129
120	0xbda54a52	-0.08070816
121	0xbe4bb43a	-0.1989297
122	0x3d6f940c	0.058490798
123	0xbe701f5b	-0.23449461
124	0x3d3c4e20	0.045972943
125	0x3d1e4151	0.03863651
126	0xbde3fad0	-0.11131823
127	0xbc64f458	-0.013974272
128	0xbd65bfd3	-0.05609114
129	0xbda1e639	-0.079052396
130	0xbd350db2	-0.044202514
131	0x3d0b44f4	0.034001306
132	0x3d272aef	0.04081243
133	0xbd233a8b	-0.039850753
134	0xbdb352bf	-0.08756017
135	0xbdb6a7fd	-0.0891876
136	0xbdb34c92	-0.08754839
137	0xbdbbd139	-0.091707654
138	0x3de1777b	0.11009117
139	0xbb8899ee	-0.0041687405
140	0x3c291bde	0.010321585
141	0x3dd74702	0.105115905
142	0xbe3b1571	-0.18269898
143	0x3e15a13a	0.14612284
144	0xbda5c2b0	-0.08093774
145	0xbd89ec40	-0.06734514
146	0x3dcb6c4a	0.09932764
147	0xbd75e414	-0.060031965
148	0xbdde8c6b	-0.10866626
149	0xbcf0cdd1	-0.029395016
150	0x3dae4294	0.085087925
151	0xbde9c990	-0.11415398
152	0x3cb9889a	0.022648145
153	0xbe27d8b5	-0.16391261
154	0xbcb5bac4	-0.022183783
155	0x3d981e39	0.074276395
156	0xbc7024e0	-0.014657229
157	0xbce2b054	-0.02767197
158	0x3d562570	0.052281797
159	0x3cae8cdc	0.021307401
160	0x3db9aceb	0.090661846
161	0xbe2577e9	-0.16159023
162	0xbd9c02dd	-0.07617734
163	0xbcda730d	-0.026666189
164	0xbc5c940b	-0.013463031
165	0x3db24402	0.08704378
166	0xbd4c7f48	-0.049926072
167	0xbe0cbe22	-0.13744405
168	0x3cd7d34e	0.026345875
169	0xbca08822	-0.019596163
170	0x3dce0991	0.100604184
171	0xbd3f9b94	-0.04677923
172	0x3d24df74	0.040252164
173	0x3d39c0d2	0.045349903
174	0xbe665fa9	-0.22497429
175	0xbdd3ab06	-0.103353545
176	0x3bd1a902	0.006398321
177	0xbe11abdc	-0.14225715
178	0xbd914e8e	-0.07095061
179	0x3dd0a89c	0.1018841
180	0x3d3446a2	0.044012673
181	0xbd799b5d	-0.06093918
182	0xbdf87861	-0.121323355
183	0xbd904bbb	-0.070456944
184	0xbdf35161	-0.11880756
185	0xbd4b2727	-0.049597885
186	0xbe14c27f	-0.1452732
187	0xbd31b49b	-0.04338513
188	0xbd06e456	-0.032932602
189	0xbd96a355	-0.07355372
190	0x3d363f46	0.044493936
191	0xbe063961	-0.13107826
192	0xbc586ce5	-0.013209556
193	0x3c7643d5	0.015030821
194	0x3e22c2c0	0.15894604
195	0xbdbd0b76	-0.092307016
196	0xbe22f304	-0.15913016
197	0x3d6ee73f	0.058326002
198	0x3cb62b68	0.022237495
199	0xbe022d58	-0.1271261
200	0xbdd5a0d9	-0.1043107
201	0xbd79d0a8	-0.060990006
202	0x3d7f3535	0.0623066
203	0xbdb36ef2	-0.087613955
204	0x3daf775c	0.08567688
205	0x3def0149	0.11670167
206	0x3de656d1	0.11247028
207	0x3da0182f	0.07817113
208	0x3d0423f9	0.03226087
209	0xbdf4b91d	-0.1194937
210	0x3dbb885f	0.0915687
211	0xbe10764e	-0.1410763
212	0xbdfbb384	-0.12290099
213	0xbdb008e2	-0.08595444
214	0x3da35de8	0.079768956
215	0xbdf2f1ed	-0.1186255
216	0xbdd6bf44	-0.104857
217	0xbe307e63	-0.17235713
218	0xbe312817	-0.1730045
219	0x3de1f35c	0.11032745
220	0xbdad25a1	-0.08454443
221	0x3cec3e63	0.028838342
222	0xbdbf4f8b	-0.093413435
223	0xbd2e063f	-0.042486425
224	0xbe0cbae6	-0.13743171
225	0xbdaa2c64	-0.08309248
226	0xbe1f3f1f	-0.15551423
227	0xbe34ca5d	-0.1765532
228	0x3d43bff8	0.047790498
229	0xbd634f9a	-0.055495836
230	0x3c081955	0.008306821
231	0xbba45805	-0.0050153756
232	0xbdcb46ab	-0.09925588
233	0x3cd67451	0.02617851
234	0xbd935df9	-0.07195658
235	0xbddc73a5	-0.10764245
236	0xbda47e13	-0.08031859
237	0x3d8eb773	0.06968584
238	0xbb5cd3ef	-0.0033695658
239	0xbd8b1f76	-0.0679311
240	0x3d1c0f61	0.038100604
241	0x3b39e9cc	0.0028368114
242	0xbd78b527	-0.060719635
243	0x3dddcb9e	0.108298525
244	0xbb8e6aa7	-0.00434621
245	0xbdfcb9cc	-0.123401254
246	0x3d8e67df	0.069534056
247	0x3dc291ab	0.0950044
248	0xbe2c90cb	-0.16852109
249	0x3e0902e3	0.13380007
250	0xbda20743	-0.07911541
251	0xbda79fe5	-0.08184794
252	0xbe2413db	-0.160232
253	0x3d58ccab	0.05292956
254	0x3db5220d	0.08844385
255	0xbbc0ef55	-0.0058879056

fc2.bias f4 [10]
0	0x3db9cce2	0.090722814
1	0xbd83458d	-0.0640975
2	0xbdcb206f	-0.099182956
3	0x3b90895a	0.004410905
4	0xbdb025ca	-0.08600958
5	0xbdaff017	-0.085907154
6	0x3db2bfc8	0.087279856
7	0x3d171309	0.036883388
8	0x3d6f407a	0.0584111
9	0xbd6deec7	-0.058089044
