parameters/MNIST/trained-model.pth (torch, 55104 bytes, 4 tensors)

fc1.weight f4 [64, 196]
0	0x3b85f86e	0.004088453
1	0xbd45feb3	-0.048338603
2	0x3d626cfc	0.055279717
3	0x3c8e502e	0.017372217
4	0xbd84dc80	-0.064873695
5	0xbc85e6b7	-0.016345365
6	0xbd206ad5	-0.039164383
7	0x3d2602de	0.040530078
8	0xbd2c8317	-0.042117205
9	0xbd3745ea	-0.04474441
10	0x3d6b62ec	0.057467386
11	0x3d900902	0.07032968
12	0xbbc078dc	-0.0058737826
13	0x3d0cf3e7	0.03441229
14	0xbbcd0a6e	-0.006257347
15	0xbc89422a	-0.016755182
16	0x3d2b6911	0.041848246
17	0xbd29678a	-0.04135851
18	0x3b424f4a	0.002964931
19	0xbd8ff388	-0.07028872
20	0xbc000bd3	-0.007815319
21	0xbd5cf7c5	-0.05394723
22	0x3d55c58a	0.05219034
23	0x3d52a71d	0.051428903
24	0x3d33d08e	0.043900065
25	0x3d633ec1	0.05547977
26	0x3d5527c1	0.052039865
27	0xbc91d117	-0.017799897
28	0x3d1719e7	0.036889937
29	0x3d8934fa	0.066995576
30	0x3caf1e00	0.02137661
31	0xbd84e005	-0.06488041
32	0xbd8d8074	-0.06909266
33	0x3d81303b	0.06308027
34	0x3d0d1d6c	0.034451887
35	0x3ca8919c	0.020577244
36	0xbcca16cc	-0.024669074
37	0x3d855208	0.06509787
38	0x3d4b5364	0.049640074
39	0x3d80a316	0.06281106
40	0xba5301b7	-0.0008049267
41	0xbd00d96c	-0.03145735
42	0xbd5fdf75	-0.054656465
43	0xbd08c44c	-0.03339033
44	0xbb968f13	-0.0045946925
45	0x3d0188fd	0.031624783
46	0xbd03b0d3	-0.032151055
47	0xbcc7734f	-0.024346976
48	0xbb5ff723	-0.0034174405
49	0xbd0ad61c	-0.033895597
50	0xbb323d80	-0.0027197301
51	0xbd53e464	-0.051731482
52	0x3c82a729	0.015948849
53	0x3d6ffda2	0.058591492
54	0x3cb8089d	0.022465045
55	0xbb81f6ee	-0.003966204
56	0xbd760638	-0.060064524
57	0x3ca8047f	0.020509956
58	0xbd1fe304	-0.03903486
59	0x3b27572c	0.0025534136
60	0x3d1b0f5a	0.037856437
61	0x3d642665	0.05570068
62	0x3d95efb0	0.073211074
63	0x3c8df37a	0.017328013
64	0xbd3219ce	-0.04348164
65	0xbbb535e3	-0.0055301054
66	0xbbff87ad	-0.0077981562
67	0xbd594125	-0.053040642
68	0xbdb1d2b3	-0.08682766
69	0xbc76744a	-0.015042374
70	0xbcdd9ff3	-0.027053809
71	0xbd1545d2	-0.03644354
72	0xbdc0a500	-0.09406471
73	0x3d5a737a	0.053332783
74	0x3bac2e62	0.0052545527
75	0xbd20ea3c	-0.039285883
76	0x3dc7f5e6	0.09763698
77	0x3d73a97d	0.05948781
78	0xbd3b4b46	-0.045726083
79	0xbcbcd11a	-0.023048926
80	0x3d4318a7	0.047630932
81	0xbd60e210	-0.05490309
82	0xbc78431c	-0.015152719
83	0xbd5f0eca	-0.054457463
84	0x3ce7f2b3	0.02831397
85	0xbdcfc96b	-0.10145839
86	0xbda83cc7	-0.08214717
87	0x3bb4b5e5	0.0055148476
88	0xbcfeb109	-0.031090276
89	0x3a57b572	0.00082286366
90	0x3da92dea	0.082607105
91	0x3ddea187	0.10870653
92	0x3d47aece	0.04875069
93	0x3c4385ae	0.011933727
94	0x3d006d1d	0.03135406
95	0x3d96a9c4	0.07356599
96	0x3c88fb2a	0.016721327
97	0xbd6b088c	-0.057381198
98	0x3d13cac5	0.036082048
99	0xbd42c74b	-0.04755334
100	0xbdd33bf8	-0.103141725
101	0xbd6b11fc	-0.057390198
102	0xbcf06a0b	-0.02934744
103	0x3d8ce3a2	0.06879355
104	0x3caeb855	0.02132813
105	0xbc4770df	-0.012172907
106	0x3caedfca	0.021346945
107	0x3b281ff9	0.0025653823
108	0xbd4f2416	-0.050571524
109	0x3cbb1ffc	0.0228424
110	0x3d8ecc38	0.069725454
111	0xbbc4d481	-0.0060067778
112	0x3d235f8c	0.039886042
113	0xbc717913	-0.014738339
114	0xbd3e6051	-0.046478573
115	0x3db2f6c1	0.08738471
116	0xbc0d7e15	-0.008636017
117	0x3d3382dc	0.04382597
118	0x3dda8084	0.10669044
119	0x3d65ea56	0.056131683
120	0xbcf65552	-0.03006998
121	0xbd9e72a4	-0.0773671
122	0xbd4721b2	-0.04861612
123	0xbcd61a14	-0.026135482
124	0xbd57ca62	-0.05268324
125	0x3d54748a	0.051868953
126	0xbc4044e5	-0.011735176
127	0x3c756793	0.014978307
128	0xbd352ca4	-0.044232026
129	0xbd268709	-0.040656123
130	0x3bcb1830	0.0061979517
131	0xbc901b56	-0.01759116
132	0x3d3eaf90	0.04655415
133	0xbc77a9cd	-0.015116167
134	0x3d3be13d	0.0458691
135	0xbdb5723d	-0.0885968
136	0xbd89ea1e	-0.067341074
137	0x3c4b7836	0.012418797
138	0xbc404aa9	-0.01173655
139	0xbd3be9e5	-0.045877356
140	0xbcf633ae	-0.03005394
141	0x3d556251	0.052095715
142	0xbd08e006	-0.03341677
143	0x3da1940c	0.07889566
144	0x3ca85885	0.020550022
145	0xbd2a9d58	-0.04165396
146	0x3c85dd14	0.01634077
147	0x3d846307	0.064642005
148	0x3c2336f9	0.009961837
149	0xbdb3e784	-0.087843925
150	0x3d82548d	0.06363783
151	0x3c8bdb20	0.01707226
152	0x3c447c65	0.011992549
153	0x3cc67381	0.024224998
154	0xbbda3eb7	-0.006660308
155	0xbd465cae	-0.04842823
156	0xbc00e39a	-0.007866764
157	0x3d985a88	0.074391425
158	0xbd0c9949	-0.03432587
159	0x3d79605b	0.060882907
160	0x3da804d4	0.08204046
161	0x3b0987d8	0.002098551
162	0x3d05f6a4	0.032705918
163	0xbd13e76c	-0.036109373
164	0x3ca44f85	0.02005745
165	0xbd7e142e	-0.062030964
166	0x3d6a59b5	0.057214458
167	0x3ccaf5d7	0.024775429
168	0xbd46477a	-0.04840801
169	0x3d1656dc	0.03670393
170	0x3c658203	0.014008048
171	0xbda1da14	-0.07902923
172	0x3d4864c9	0.04892424
173	0x3b374d45	0.002796964
174	0x3cd84c26	0.026403498
175	0xbb823652	-0.0039737606
176	0x3d7ee2e9	0.062228117
177	0xbdbd9a1f	-0.09257912
178	0x3d8360c0	0.06414938
179	0x3d44dd7e	0.048062794
180	0x3d83d37b	0.06436821
181	0xbc91ea2a	-0.017811853
182	0xbd024c1e	-0.031810872
183	0x3d30d4f7	0.04317185
184	0x3cfa4fce	0.030555632
185	0xbd41c34d	-0.047305394
186	0xbdd7292d	-0.105059005
187	0xbcef5a6c	-0.029217921
188	0x3cab1b0a	0.020886917
189	0x3d9121f2	0.07086553
190	0x3cd9bafa	0.026578415
191	0xbc97d299	-0.018533038
192	0x3d1a0883	0.037605774
193	0xbd7b49a5	-0.06134953
194	0x3d85e43f	0.06537675
195	0xbd299cee	-0.041409425
196	0x3d81dea6	0.06341295
197	0x3d54f5ea	0.051992334
198	0xbca9c505	-0.020723829
199	0xbcb7e49c	-0.022447877
200	0x3d25c28c	0.040468737
201	0x3d484265	0.048891444
202	0xbd4b7853	-0.049675297
203	0x3c6ddd01	0.0145180235
204	0x3d67fac1	0.056635622
205	0xbd415361	-0.047198657
206	0xbd3e209e	-0.046417825
207	0xbd285ad0	-0.04110223
208	0xbd18bb15	-0.03728779
209	0x3a8e3400	0.0010849237
210	0xbd785f5c	-0.060637817
211	0x3c96b917	0.018398805
212	0xbd25b1f7	-0.040452924
213	0x3d640d65	0.055676837
214	0xbd10bae5	-0.035334487
215	0x3d711681	0.058859352
216	0xbd41cb61	-0.047313098
217	0xbc992c04	-0.018697746
218	0xbc7e6497	-0.015526912
219	0x3d9936bc	0.07481143
220	0x3cdfa3e1	0.027299823
221	0xbd408e2e	-0.047010593
222	0xbc2d556e	-0.01057945
223	0x3d3e3a17	0.046442118
224	0xbce555ae	-0.027994957
225	0x3a33d5a7	0.0006860145
226	0xbdcc7cba	-0.09984727
227	0xbda99e0c	-0.08282098
228	0x3d16dcd8	0.036831707
229	0x3c6c5b68	0.01442609
230	0xbd220de4	-0.03956403
231	0x3d1188ad	0.035530735
232	0xbd4ce333	-0.05002136
233	0xbd6d2c79	-0.05790374
234	0xbdb2a089	-0.08722026
235	0x3bc024d9	0.0058637676
236	0xbd45f2c7	-0.048327234
237	0xbc775b0a	-0.015097389
238	0x3cbe28c5	0.0232128
239	0xbcf48193	-0.029846942
240	0xbdb2451c	-0.08704588
241	0xbd89bff0	-0.06726062
242	0xbd3ffe84	-0.046873584
243	0xbde386c0	-0.11109686
244	0xbde5715a	-0.11203261
245	0xbde8a70e	-0.11359988
246	0xbd6358e3	-0.05550469
247	0xbddb2928	-0.10701209
248	0xbc6b5b77	-0.014365069
249	0xba6d4692	-0.00090513483
250	0xbc912ab2	-0.017720554
251	0xbd0aac60	-0.033855796
252	0xbd52ae81	-0.05143595
253	0x3c3eaa53	0.011637288
254	0x3da989a9	0.0827821
255	0xbd810c09	-0.06301124

fc1.bias f4 [64]
0	0xbd15a354	-0.036532715
1	0xbda9323f	-0.08261537
2	0xbd2b3a7d	-0.041803826
3	0xbd2853e6	-0.041095637
4	0x3d5505cf	0.052007493
5	0xbdb0cfe1	-0.086334
6	0xbdafa9ab	-0.085772835
7	0xbd1f282d	-0.038856674
8	0xbd670efe	-0.056410782
9	0x37b120a8	2.1115251e-05
10	0x3b80b26e	0.0039275205
11	0xbd0374c0	-0.032093763
12	0xbd00bc87	-0.031429794
13	0xbdae1504	-0.08500102
14	0xbd98d802	-0.07463075
15	0xbdc66464	-0.09687117
16	0xbd38e563	-0.045140635
17	0xbd457ddd	-0.048215736
18	0xbda73abc	-0.081654996
19	0x3d715308	0.058917075
20	0xbd8faef3	-0.07015791
21	0x3d320099	0.0434576
22	0x3d8cf823	0.06883266
23	0x3dc5f705	0.09666256
24	0xbd061750	-0.032737076
25	0xbd8119e3	-0.063037656
26	0x3d93aa39	0.07210202
27	0xbde78f0a	-0.113065794
28	0x3c78bf0e	0.01518227
29	0x3d2fc231	0.042909805
30	0x3dc0d4bd	0.094155766
31	0xbd7e41ee	-0.062074594
32	0x3da04421	0.078254946
33	0x3d8f4f15	0.069975056
34	0x3d24037a	0.040042378
35	0xbd60cdee	-0.05488389
36	0x3deb6b02	0.114950195
37	0xbd022f08	-0.031783134
38	0xbd62affa	-0.055343606
39	0xbd161887	-0.036644485
40	0x3b7d4a15	0.0038648893
41	0x3ce8e05e	0.0284273
42	0x3d00a7d6	0.03141006
43	0xbdb40594	-0.087901264
44	0x3dc333f1	0.095313914
45	0xbd9a0538	-0.07520527
46	0xbdbbb7d0	-0.09165919
47	0xbd1e17a8	-0.03859678
48	0x3c18481f	0.009294539
49	0xbd73472d	-0.05939405
50	0xbd130000	-0.035888672
51	0x3bb254d8	0.005442243
52	0x3ca68f00	0.02033186
53	0x3d212497	0.039341535
54	0xbd539bd9	-0.0516623
55	0x3c1083bc	0.00882047
56	0x3de3898b	0.111102186
57	0xbd2379aa	-0.03991095
58	0xbd5481db	-0.051881652
59	0x3d84296d	0.06453214
60	0x3c0547a2	0.008134754
61	0x3b548262	0.0032426347
62	0xbbc310e5	-0.0059529417
63	0xbd903c1a	-0.070427135

fc2.weight f4 [10, 64]
0	0xbe065bf7	-0.1312102
1	0xbc17667e	-0.009240745
2	0x3e14194b	0.14462774
3	0x3d058a43	0.03260256
4	0x3db3d087	0.08780008
5	0xbc831099	-0.015999125
6	0x3dbfec0f	0.093711965
7	0xbe191ce6	-0.1495243
8	0x3c9d4915	0.019199887
9	0xbd888643	-0.066662334
10	0x3e08ba0a	0.13352218
11	0xbbe5db8b	-0.007014697
12	0xbe170be8	-0.14750636
13	0x3d0a3ad0	0.033747494
14	0xbd22a68e	-0.03970962
15	0x3e075c03	0.13218693
16	0x3d58e94f	0.052956875
17	0xbbc9279b	-0.0061387545
18	0xbbe4773f	-0.006972223
19	0x3d99a649	0.075024195
20	0xbd908207	-0.07056051
21	0x3ddbc915	0.10731713
22	0xbe33b780	-0.17550468
23	0xbda417c1	-0.08012343
24	0x3d1cc8ee	0.03827756
25	0xbdf7a068	-0.12091142
26	0xbdda7ea5	-0.10668687
27	0x3da1f60e	0.07908259
28	0x3d968878	0.07350248
29	0x3d9f8df0	0.07790744
30	0xba399dcd	-0.0007080704
31	0xbe23d7e1	-0.1600032
32	0xbdd87760	-0.10569644
33	0x3ddc1dd3	0.10747876
34	0x3dc6de04	0.09710315
35	0xbddea13e	-0.10870598
36	0x3d32d4fd	0.043660153
37	0xbd2bd6fa	-0.041953065
38	0x3e07a18b	0.13245218
39	0x3d4d1db8	0.05007717
40	0xbd5e2be7	-0.054241087
41	0xbe12f807	-0.14352427
42	0x3d1bca3f	0.038034674
43	0xbd5830e6	-0.05278101
44	0x3bd4a61a	0.0064895274
45	0xbe238ef8	-0.15972507
46	0x3d603723	0.054740082
47	0xbe128453	-0.1430829
48	0x3b8fef8b	0.0043925694
49	0xbe01c22f	-0.12671731
50	0xbdfc5efc	-0.12322804
51	0xbdff45ce	-0.12464486
52	0xbdfe06bd	-0.12403629
53	0xbdbe50c5	-0.09292749
54	0x3da734dc	0.08164379
55	0xbe0a853b	-0.13527386
56	0xbe0f5a5f	-0.13999318
57	0xbe32a0d2	-0.1744416
58	0xbdfe22a2	-0.124089494
59	0xbe269062	-0.16266015
60	0xbd9fb702	-0.07798578
61	0x3b01e4f9	0.0019820316
62	0xbd8b1c63	-0.06792524
63	0xbe4de4db	-0.20106833
64	0x3d506cd9	0.050885055
65	0xbdf9fc48	-0.12206322
66	0x3ddc6b5f	0.10762667
67	0x3e15b805	0.14620979
68	0x3d6b5226	0.05745139
69	0x3dd6f538	0.104959905
70	0x3d02e398	0.03195533
71	0xbd34b4df	-0.044117805
72	0xbd0e212b	-0.0346996
73	0xbe36d9a2	-0.17856458
74	0x3dc505aa	0.09620221
75	0xbd7a510c	-0.06111245
76	0xbd9006e8	-0.07032567
77	0x3cdbea23	0.026845044
78	0x3c82bcf2	0.015959237
79	0xbe00975b	-0.12557738
80	0xbe1c4745	-0.15261562
81	0x3de9846a	0.11402209
82	0xbdac7f0a	-0.08422668
83	0x3c10e24b	0.008843015
84	0x3cbf0f15	0.023322621
85	0xbd9b49a1	-0.07582403
86	0x3e138d2f	0.14409326
87	0xbdb7f304	-0.089818984
88	0x3b8ee945	0.004361304
89	0xbd93c92e	-0.07216106
90	0xbcae4cea	-0.02127691
91	0x3e2bde73	0.16784076
92	0xbdb5c1fe	-0.08874892
93	0x3c9ba2a1	0.018998446
94	0xbddacafa	-0.10683246
95	0xbe0ccbe9	-0.1374966
96	0xbce310d9	-0.027717995
97	0xbe1ce52f	-0.15321802
98	0x3e057a73	0.13034992
99	0xbdfb35d9	-0.1226613
100	0xbe1edb80	-0.1551342
101	0x3c8aee2a	0.016959269
102	0xbe32c250	-0.17456937
103	0xbdcfd802	-0.10148622
104	0x3d34f561	0.044179324
105	0xbdde390a	-0.10850723
106	0x3e2c86d5	0.1684831
107	0x3e156724	0.14590126
108	0x3df8e242	0.1215253
109	0xbcd492e8	-0.025948957
110	0xbc868513	-0.016420877
111	0xbd0d077c	-0.034430966
112	0x3d8d96bd	0.06913517
113	0x3de40b9a	0.11135025
114	0x3d7cdc7a	0.0617337
115	0xbe35f0cb	-0.17767636
116	0x3b11b04e	0.002223033
117	0xbe2df641	-0.1698847
118	0x3d64d07f	0.0558629
119	0xbd364edf	-0.04450881
120	0x3c01e604	0.007928375
121	0xbe0c031a	-0.13673058
122	0xbdf5d64d	-0.12003765
123	0xbd8e6b8d	-0.069541074
124	0xbe1a7146	-0.15082273
125	0xbe353e46	-0.17699537
126	0x3d23142c	0.03981416
127	0x3e2cbbd2	0.16868523
128	0xbc484629	-0.012223759
129	0x3d81aae8	0.06331426
130	0xbdb93655	-0.09043566
131	0xbe0033f2	-0.12519816
132	0x3e082ec5	0.13299091
133	0xbdb2cdbc	-0.08730647
134	0x3df1712e	0.117891654
135	0xbc866304	-0.016404636
136	0x3de6ec69	0.112755604
137	0x3df31956	0.11870067
138	0xbd491b91	-0.049098555
139	0x3d9a79d6	0.075427696
140	0x3df338bb	0.11876055
141	0x3dd20cca	0.102563456
142	0x3d2b1f13	0.04177768
143	0x3d401914	0.046898916
144	0xbe00b9f1	-0.12570931
145	0xbc5098a3	-0.012731704
146	0xbe444898	-0.19168317
147	0xbe4154ce	-0.18880007
148	0xbd6e19ea	-0.058130182
149	0xbda00083	-0.078125976
150	0xbdff1174	-0.12454501
151	0x3e023c89	0.12718405
152	0x3e093bb2	0.13401678
153	0xbda3369e	-0.07969402
154	0x3dbb78fb	0.091539346
155	0xbda3b744	-0.079939395
156	0x3d06d545	0.032918233
157	0x3ccd4ecc	0.025061987
158	0xbdd75abf	-0.10515355
159	0x3d1a6746	0.037696145
160	0x3c0eab04	0.0087077655
161	0x3da1a4f0	0.078927875
162	0xbdc138d5	-0.09434668
163	0xbe08c728	-0.13357222
164	0x3db6f1cd	0.089328386
165	0x3e18cf7b	0.14922898
166	0xbd41cca0	-0.047314286
167	0x3d67ba8a	0.056574382
168	0x3d523d63	0.051328074
169	0xbe2d1e15	-0.16906007
170	0xbe59d499	-0.21272506
171	0xbd39ae31	-0.045332137
172	0xbe40dc00	-0.18833923
173	0xbdf6f69a	-0.12058754
174	0xbe1f457b	-0.15553848
175	0x3db8e3a1	0.09027792
176	0xbb9ce52a	-0.0047880607
177	0xbd9747d4	-0.07386747
178	0x3c5064ee	0.012719376
179	0x3e2024e5	0.15639074
180	0x3ce188e1	0.02753109
181	0x3d1f659c	0.03891526
182	0xbd8ffea5	-0.070309915
183	0x3d8cf34e	0.06882344
184	0xbd2a10b9	-0.041519854
185	0xbdd03bbc	-0.101676434
186	0xbd00da7b	-0.03145836
187	0xbcd5e902	-0.026112083
188	0x3bb6c0ef	0.0055771987
189	0x3df887c2	0.12135269
190	0xbd94fba3	-0.072745584
191	0x3ca3c085	0.019989261
192	0x3b9c5af9	0.004771587
193	0x3e13c098	0.14428937
194	0xbcfcf148	-0.03087677
195	0xbe0cbbf6	-0.13743576
196	0xbd253a49	-0.04033879
197	0x3da09a84	0.078419715
198	0x3e0743e4	0.13209492
199	0x3e02d222	0.12775472
200	0x3dcc980f	0.099899404
201	0x3db42136	0.08795397
202	0xbe1665d2	-0.14687279
203	0xbd958199	-0.073001094
204	0x3e06b67d	0.13155551
205	0x3df250c4	0.11831811
206	0xbdec1279	-0.11526961
207	0xbd79c06b	-0.06097452
208	0x3dd9708e	0.10617171
209	0xbd8fe17c	-0.070254296
210	0x3ca827a7	0.02052672
211	0x3a8b2dcb	0.0010618506
212	0xbd078e9a	-0.03309498
213	0xbdea17a3	-0.114302896
214	0x3d1b5a88	0.037928134
215	0xbd93f2fe	-0.072240815
216	0x3daf0786	0.08546357
217	0x3dd65670	0.104657054
218	0x3e2151ab	0.1575381
219	0xbd46b71b	-0.048514467
220	0xbdcd6abf	-0.10030126
221	0x3d419a0f	0.047266062
222	0x3e32ae0f	0.1744921
223	0x3d51a809	0.05118564
224	0xbe0263c2	-0.12733367
225	0xbda9588b	-0.08268841
226	0x3d986971	0.07441986
227	0xbd366c8a	-0.044537105
228	0x3db4169b	0.08793374
229	0x3dfb0347	0.122564845
230	0xbe3bf50c	-0.18355197
231	0xbdbc5dc7	-0.09197574
232	0x3d01248a	0.031528987
233	0x3deae366	0.11469154
234	0x3d04a91c	0.032387838
235	0x3dda9b4f	0.10674154
236	0xbc90b6ba	-0.017665256
237	0xbd91c09b	-0.07116815
238	0x3e24eb23	0.16105323
239	0xbdf4b36b	-0.11948284
240	0x3e2c863b	0.1684808
241	0x3da1edb3	0.07906666
242	0x3d96f7eb	0.07371505
243	0xbdc4668b	-0.09589871
244	0x3db0e4bd	0.08637378
245	0x3c6f0740	0.014589131
246	0xbd364538	-0.044499606
247	0xbc839108	-0.016060367
248	0x3cd34da6	0.025793862
249	0xbe0caefb	-0.13738625
250	0x3e161eda	0.14660206
251	0x3da66297	0.08124273
252	0xbdd83435	-0.10556833
253	0x3de3ea44	0.11128667
254	0x3dcc6fe8	0.09982282
255	0xbd8eabef	-0.069663875

fc2.bias f4 [10]
0	0x3db37926	0.087633416
1	0x3de0b930	0.10972822
2	0x3ce92feb	0.028465232
3	0xbddbf2b6	-0.10739653
4	0x3d81d74e	0.06339894
5	0xbda00446	-0.07813315
6	0xbd8bd7f4	-0.06828299
7	0xbc9a4a16	-0.018834155
8	0xbdf2648d	-0.11835585
9	0xbcc961d1	-0.024582775
