parameters/MNIST/trained-model.pth (torch, 9348 bytes, 5 tensors)

conv1.weight f4 [1, 1, 4, 4]
0	0x3c806f0e	0.015677955
1	0xbd846341	-0.06464244
2	0x3eac950a	0.33707458
3	0x3e5689e6	0.20951042
4	0xbe8c8bc1	-0.27450374
5	0x3d8563e6	0.06513195
6	0x3cce2652	0.025164757
7	0x3e9c89c8	0.3057387
8	0xbe140793	-0.14456014
9	0x3c05178f	0.008123293
10	0x3ecc014f	0.39844748
11	0x3ed8da12	0.42353874
12	0x3d8c4606	0.068492934
13	0x3e92efe4	0.28698647
14	0x3e216799	0.15762176
15	0x3dc0bc51	0.094109185

fc1.weight f4 [28, 49]
0	0xbe1a59f9	-0.15073384
1	0xbd7e4ee4	-0.062086955
2	0xbe5599b6	-0.20859417
3	0xbdabddd8	-0.08391923
4	0xbe6dd8ae	-0.23227188
5	0x3c482187	0.012215025
6	0x3c057bbd	0.008147177
7	0x3d0cf603	0.034414303
8	0x3dadd6f5	0.084882654
9	0x3e0449b1	0.12918736
10	0xbd5c2916	-0.05375012
11	0x3d32b8a6	0.043633126
12	0x3d6fa712	0.05850894
13	0xbcada684	-0.021197565
14	0xbe42aee8	-0.19012034
15	0xbe354f14	-0.17705947
16	0x3e155da0	0.14586496
17	0xbde2fdde	-0.110835776
18	0x3d852609	0.06501395
19	0xbe0050cf	-0.12530826
20	0x3d7a7026	0.06114211
21	0x3ce06c2a	0.027395327
22	0x3daf9b8a	0.085745886
23	0xbd974806	-0.07386784
24	0xbe37fa6e	-0.17966625
25	0xbdef74d3	-0.11692204
26	0xbd2c4505	-0.04205801
27	0xbb659847	-0.0035033391
28	0x3b2fa442	0.0026800786
29	0xbcdb952b	-0.026804527
30	0xbda8beaf	-0.08239495
31	0xbe1e736c	-0.15473717
32	0xbe1720ea	-0.1475865
33	0xbd606408	-0.054782897
34	0xbe54c658	-0.20778787
35	0xbd8ece7c	-0.069729775
36	0x3e07682f	0.13223337
37	0x3c55d126	0.013050353
38	0xbdadf105	-0.084932365
39	0xbe3ca7b4	-0.18423349
40	0xbc8f0327	-0.017457558
41	0xbd9a49a2	-0.075335756
42	0xbd53a4fc	-0.051671013
43	0x3d1a5089	0.03767446
44	0x3b671ce0	0.0035265014
45	0x3ad00e30	0.0015873369
46	0xbd88d622	-0.066814676
47	0xbe2036e5	-0.1564594
48	0xbde6e133	-0.11273422
49	0xbdbb3ce5	-0.09142474
50	0xbe2ac825	-0.16677912
51	0xbe550544	-0.2080279
52	0xbdca6a4a	-0.09883554
53	0xbdb391b6	-0.087680265
54	0xbd93d70b	-0.072187506
55	0xbe3fecd9	-0.18742694
56	0x3d3b8ecf	0.04579049
57	0xbdb703f5	-0.089363016
58	0xbe4fd8a7	-0.2029749
59	0x3d85219f	0.06500553
60	0xbd1355c2	-0.035970457
61	0xbe14ce2d	-0.14531775
62	0xbe112277	-0.14173304
63	0x3ce214f5	0.027597884
64	0xbe2e7aed	-0.1703908
65	0xbd1dde33	-0.038541984
66	0xbe554aa8	-0.2082926
67	0xb9d6e6e7	-0.00040989296
68	0xbe275a54	-0.16343051
69	0xbe29cb2b	-0.16581409
70	0xbd47d726	-0.048789166
71	0xbd8edf40	-0.06976175
72	0xbe2bf977	-0.16794382
73	0xbc7644aa	-0.015031019
74	0x3de6f838	0.11277813
75	0xbc84e0b6	-0.016220432
76	0xbc91d694	-0.017802514
77	0xbbcc19ff	-0.006228685
78	0x3e5666cd	0.20937653
79	0x3c59dd11	0.013297335
80	0xbdeb876f	-0.11500441
81	0x3b47b73c	0.0030474206
82	0xbd8a97b8	-0.06767219
83	0xbe5587a4	-0.20852524
84	0xbe285d9b	-0.16441958
85	0xbe46b577	-0.19405161
86	0x3e00e09f	0.12585686
87	0xbe05e19b	-0.13074343
88	0xbde48f57	-0.111601524
89	0xbd8d3f56	-0.06896846
90	0x3a920b0c	0.0011142208
91	0xbe3b293f	-0.18277453
92	0xbd3a0bc8	-0.04542139
93	0x3d995a78	0.07487959
94	0xbde6f268	-0.11276704
95	0x3cd3fcab	0.025877317
96	0xbdcbd343	-0.09952404
97	0xbdbcf077	-0.092255525
98	0x3e5720d9	0.21008624
99	0x3c81f2e5	0.015862891
100	0x3dc56fca	0.09640463
101	0x3e47fd88	0.19530308
102	0x3e0dc98e	0.13846418
103	0xbd5b0961	-0.05347574
104	0xbccc4b04	-0.024938114
105	0xbc81b1dc	-0.01583188
106	0x3d4e005e	0.05029332
107	0xbdc08891	-0.09401048
108	0x3e4e215d	0.20129915
109	0x3c725086	0.014789706
110	0x3e087f3e	0.13329789
111	0xbb9c7129	-0.004774232
112	0xbb638010	-0.0034713782
113	0xbba9e22d	-0.005184433
114	0x3cabf656	0.020991486
115	0x3d7e41e2	0.06207455
116	0xbcd5cc66	-0.026098441
117	0x3df582f1	0.11987866
118	0xbd1b1c15	-0.037868578
119	0xbd05e8d2	-0.032692738
120	0x3dced962	0.10100056
121	0x3de0db10	0.10979283
122	0xbd3661ec	-0.04452698
123	0x3d57388f	0.052544173
124	0x3e2e6e91	0.17034365
125	0x3c1b2ea2	0.009471567
126	0x3e631ec3	0.22179703
127	0x3d7834b0	0.06059712
128	0xbd399752	-0.045310326
129	0xbcea13ce	-0.028573897
130	0x3e12b066	0.14325103
131	0x3d7c059e	0.061528794
132	0xbcafdad1	-0.021466644
133	0x3e692607	0.22768413
134	0x3db93a6b	0.090443455
135	0x3dc13db4	0.09435597
136	0x3d68a2a7	0.056795742
137	0x3d3a8c8c	0.045544192
138	0xbc6ebbb1	-0.014571116
139	0x3d29027f	0.041262146
140	0x3e33037a	0.17481795
141	0xbda785e6	-0.08179836
142	0x3e069ed2	0.13146523
143	0x3e27de2e	0.16393349
144	0x3d45972e	0.04823988
145	0x3e0f7724	0.14010292
146	0x3dae331e	0.085058436
147	0x3cfe098f	0.031010417
148	0xbe16391a	-0.1467022
149	0x3dbbfba3	0.09178855
150	0x3ce001b3	0.02734456
151	0xbdbbd476	-0.09171383
152	0x3d4ff194	0.050767496
153	0x3d09904b	0.033584874
154	0xbe21a56c	-0.1578576
155	0x3e0639b5	0.13107951
156	0x3dd75e03	0.10515978
157	0x3dda356f	0.10654723
158	0xbd6eacc8	-0.058270246
159	0x3e175cea	0.14781538
160	0xbe256f71	-0.16155793
161	0x3dd29dc7	0.10284
162	0x3dbf1333	0.09329834
163	0x3dc1a581	0.094553955
164	0xbcdfe1ef	-0.027329413
165	0xbdf49e09	-0.11944205
166	0x3d81fd86	0.06347184
167	0x3d672ad0	0.056437314
168	0xbd4c3ead	-0.04986446
169	0xbe33a332	-0.17542723
170	0xbd85c459	-0.06531591
171	0x3d94e893	0.072709225
172	0x3dfc0230	0.12305105
173	0x3bfbac11	0.007680424
174	0xbda38af4	-0.079854876
175	0x3d5754e1	0.05257118
176	0xbe35d6c1	-0.17757703
177	0x3dfd68a5	0.12373475
178	0xbdd15d4a	-0.102228716
179	0x3e0f2648	0.13979447
180	0x3da06554	0.07831827
181	0xbd97e1f5	-0.07416145
182	0xbd8a505f	-0.06753611
183	0x3d9a62e4	0.07538393
184	0x3db7e72f	0.08979642
185	0xbdce9b6d	-0.10088239
186	0x3cbf5f37	0.023360832
187	0x3da97ca0	0.082757235
188	0xbdefb173	-0.11703768
189	0xbdec7eb0	-0.11547601
190	0xbda72f7a	-0.08163352
191	0xbdb4c71a	-0.08827038
192	0xbcc63418	-0.024194762
193	0xbe231914	-0.15927535
194	0x3c67f3ce	0.014157249
195	0xbdd41009	-0.10354621
196	0x3df92241	0.121647365
197	0xbd774c13	-0.060375284
198	0x3e0315ad	0.12801237
199	0xbda99c54	-0.0828177
200	0xbe131eec	-0.14367265
201	0xbdd8652f	-0.10566174
202	0x3d66f2da	0.056383945
203	0x3da598b5	0.08085767
204	0xbd465ebe	-0.048430197
205	0x3aa533fc	0.0012603994
206	0x3e15c647	0.14626418
207	0xbd8fe2cc	-0.0702568
208	0x3da9da2b	0.08293565
209	0xbe0797f1	-0.13241555
210	0xbdbcb48e	-0.092141256
211	0x3e2163ca	0.15760723
212	0x3e560f76	0.20904335
213	0xbd069cee	-0.032864504
214	0x3e5f7ac2	0.21824172
215	0xbd76ab4f	-0.060221966
216	0xbd303441	-0.043018583
217	0xbd6c59f0	-0.05770296
218	0x3d2e98b8	0.042626113
219	0xbda20fe1	-0.07913185
220	0xbe060f20	-0.13091707
221	0x3e0f3628	0.13985503
222	0x3d521d3c	0.05129741
223	0xbdba46fb	-0.0909557
224	0xbd68b58b	-0.056813758
225	0x3dc5e084	0.096619636
226	0xbdddca4b	-0.108296
227	0xbdf13a37	-0.11778682
228	0xbc0afaee	-0.008482678
229	0x3dad6b2e	0.084677085
230	0xbe0f91f3	-0.14020519
231	0x3d8d5243	0.06900456
232	0x3dc7b746	0.097517535
233	0xbcd7b55a	-0.026331592
234	0xbe27d8a7	-0.1639124
235	0xbda0bbb2	-0.078483
236	0x3dc78ce2	0.09743668
237	0x3dfccb41	0.12343455
238	0xbd2400be	-0.04003977
239	0xbdb5857b	-0.0886335
240	0xbdf7cb2e	-0.120993
241	0xbdae4c55	-0.08510653
242	0x3e189d99	0.14903869
243	0x3ddc9027	0.107696824
244	0x3da95d91	0.082697995
245	0xbdac481f	-0.084121935
246	0x3d86fc58	0.065910995
247	0x3d90a459	0.07062597
248	0x3cfd9377	0.030954106
249	0xbdd78978	-0.10524267
250	0xbe10acfc	-0.14128488
251	0xbe3ff483	-0.18745618
252	0x3a1b1746	0.0005916249
253	0xbde8dae6	-0.113698766
254	0xbe55281a	-0.20816079
255	0xbe3a2b82	-0.1818066

fc1.bias f4 [28]
0	0xbe3bbfca	-0.1833488
1	0xbcfa004d	-0.030517722
2	0x3dcfaf74	0.10140887
3	0xbdebaee3	-0.11507966
4	0x3c815b9f	0.015790759
5	0xbd3aa8d4	-0.045571163
6	0xbaf91665	-0.0019003866
7	0x3e430b65	0.19047315
8	0x3dce8365	0.10083655
9	0x3e29bec4	0.16576678
10	0x3dcecff3	0.10098257
11	0x3d5d5c09	0.05404285
12	0x3cb47c63	0.022031968
13	0x3d12f065	0.03587379
14	0xbddd4bc2	-0.10805465
15	0x3d7cb738	0.06169817
16	0x3e264790	0.16238236
17	0x3df741d1	0.120731
18	0x3dabffe4	0.08398417
19	0x3b865507	0.0040994915
20	0xbda78598	-0.08179778
21	0xbdf24769	-0.11830027
22	0x3d9ebf70	0.077513576
23	0x3e2e3e2d	0.17015906
24	0xbe0b0f69	-0.13580097
25	0xbd2ba961	-0.04190958
26	0xbc024b68	-0.007952549
27	0x3aa7563e	0.0012766791

fc2.weight f4 [10, 28]
0	0xbe9e1013	-0.3087164
1	0xbe9d76e6	-0.30754775
2	0x3e65392a	0.22385088
3	0xbe756163	-0.23962931
4	0x3e4682bc	0.19385809
5	0xbe3c857c	-0.18410295
6	0xbe838d39	-0.25693682
7	0xbe819989	-0.2531245
8	0x3e30461a	0.17214242
9	0xbd8ff494	-0.070290715
10	0x3dac6a8a	0.08418758
11	0xbd9b147b	-0.07572266
12	0x3d137e9e	0.036009423
13	0x3e3fdb0a	0.187359
14	0xbd9936f4	-0.074811846
15	0x3e0a7d7d	0.13524432
16	0x3e13a9dc	0.14420265
17	0xbe568310	-0.20948434
18	0x3b604597	0.0034221166
19	0x3e24fef4	0.16112882
20	0xbe548cc9	-0.2075683
21	0xbe0257c0	-0.12728786
22	0x3d97638f	0.07392036
23	0xbe7bfeab	-0.24608867
24	0xbd917750	-0.07102835
25	0xbe080cf0	-0.13286185
26	0xbe8b6c75	-0.27231184
27	0x3e27e6ef	0.16396688
28	0x3e6f99be	0.23398492
29	0x3ccd146a	0.025034148
30	0xbe839018	-0.25695872
31	0xbdc0511f	-0.093904726
32	0x3e06b159	0.1315359
33	0xbe68f767	-0.22750627
34	0x3e02c8ef	0.12771963
35	0x3db0a817	0.086258106
36	0xbded0a5a	-0.1157424
37	0xbe84cede	-0.25939077
38	0x3e51e547	0.20497619
39	0x3d40ce57	0.04707178
40	0x3bd54b6d	0.0065092356
41	0xbd5e81bf	-0.054322954
42	0xbd22f471	-0.0397839
43	0xbe4c37a2	-0.19943097
44	0xbdd52b86	-0.10408692
45	0x3d438ed6	0.04774364
46	0x3d618b98	0.055064768
47	0xbe83f9fe	-0.25776666
48	0xbd34eead	-0.04417293
49	0x3d3ed1b1	0.046586696
50	0x3dba8598	0.09107512
51	0x3ce0888e	0.027408864
52	0xbe620d82	-0.22075465
53	0xbe172304	-0.14759451
54	0x3ce16b5c	0.027517013
55	0xbd1d106f	-0.03834575
56	0xbe2c4a79	-0.16825284
57	0xbe1aaa91	-0.15104128
58	0xbe2fd54f	-0.17171215
59	0xbe60d92e	-0.21957847
60	0x3e0c14f6	0.13679871
61	0xbda0191b	-0.078172885
62	0x3df03c4d	0.117302515
63	0x3d2634b3	0.0405776
64	0x3dae02ff	0.08496665
65	0xbe3caccd	-0.18425293
66	0xbe9101f1	-0.28321794
67	0x3e2d80b7	0.16943632
68	0x3e07c948	0.13260376
69	0xbe82df83	-0.2556115
70	0x3e5a0e91	0.21294619
71	0x3c678ebc	0.014133152
72	0x3e138bea	0.14408842
73	0x3d8c0bd0	0.068381906
74	0x3d5f1fb3	0.05447359
75	0xbd7ee1c0	-0.06222701
76	0x3e2ab078	0.1666888
77	0xbe1cfdde	-0.15331218
78	0xbc4269c1	-0.011866034
79	0xbe85836d	-0.26076832
80	0xbe762c35	-0.24040301
81	0xbde4a3c2	-0.11164047
82	0xbe90d5a7	-0.28288004
83	0x3d9a25e9	0.07526762
84	0x3c8c1e89	0.017104404
85	0x3e5eb3b3	0.21748237
86	0xbd5effaf	-0.054443058
87	0x3d83b72d	0.064314224
88	0xbe34d674	-0.17659932
89	0x3d82ec37	0.06392711
90	0xbe5a27fd	-0.21304317
91	0x3e18953d	0.1490068
92	0xbe745773	-0.23861484
93	0xbd89d5d2	-0.06730236
94	0xbcd463c7	-0.025926484
95	0x3def82c8	0.116948664
96	0xbe125bbd	-0.14292808
97	0xbe354d67	-0.17705308
98	0xbe0e8599	-0.13918151
99	0xbe733af6	-0.2375296
100	0x3d08a51b	0.03336058
101	0x3c9a6751	0.018848093
102	0xbe2b2db3	-0.16716652
103	0xbe39c55e	-0.18141696
104	0xbe74b2f5	-0.23896392
105	0x3e433bcc	0.1906578
106	0xbdbef73b	-0.09324499
107	0xbd9a20fc	-0.075258225
108	0xbe7e01ee	-0.24805424
109	0x3e4c90c9	0.19977106
110	0xbd6e45b7	-0.058171954
111	0x3da1db40	0.07903147
112	0x3e504329	0.2033812
113	0xbd8fbfd9	-0.07019014
114	0x3d43c59a	0.04779587
115	0xbd8337f9	-0.0640716
116	0xbea5ecff	-0.32407376
117	0xbe8b8038	-0.2724626
118	0xbcf580e5	-0.029968688
119	0x3c44c510	0.012009874
120	0x3e2acbd5	0.16679318
121	0x3dbeb8ed	0.093126155
122	0xbdf44613	-0.11927428
123	0xbe488f8c	-0.19586009
124	0x3c2b9d0f	0.010474457
125	0x3bf978e1	0.007613287
126	0xbe49590e	-0.19662878
127	0x3e5e4e29	0.21709503
128	0xbe660073	-0.22461109
129	0xbe199e3f	-0.15001772
130	0xbe5ce548	-0.21571839
131	0xbddb1f41	-0.106993206
132	0xbe683958	-0.22678125
133	0xbe17d77e	-0.14828297
134	0x3e2fd156	0.17169699
135	0x3e270eba	0.16314211
136	0xbe6c3050	-0.23065305
137	0x3e57e20c	0.21082324
138	0x3e1fdad7	0.15610825
139	0xbe50774e	-0.20358011
140	0x3db43160	0.0879848
141	0xbd84ce46	-0.06484656
142	0xbe127e0e	-0.14305899
143	0x3e4f0208	0.20215619
144	0xbeba1828	-0.36346555
145	0x3ba9007f	0.00515753
146	0xbe7fb397	-0.24970852
147	0x3e1a6771	0.15078522
148	0xbe150bbb	-0.14555256
149	0x3da168f0	0.07881343
150	0x3c130082	0.008972289
151	0x3df1e7f4	0.1181182
152	0xbe760420	-0.24025011
153	0xbdc08e5a	-0.094021514
154	0xbe6605bf	-0.2246313
155	0x3d9ffdd5	0.078120865
156	0x3d171ca6	0.036892556
157	0x3cbbb1ea	0.022911984
158	0x3c70a7db	0.014688457
159	0x3df04b9a	0.1173317
160	0x3df6e4af	0.12055337
161	0x3dbb8ea6	0.091580674
162	0x3e0a3864	0.13498074
163	0x3c88b88b	0.01668956
164	0xbd8c86a4	-0.06861618
165	0xbe3e1ec0	-0.18566418
166	0xbe88b2ef	-0.26699015
167	0xbd67ca93	-0.056589674
168	0x3de6e1d1	0.1127354
169	0xbe560b87	-0.20902835
170	0x3e030668	0.12795413
171	0x3d69d73a	0.05709002
172	0xbe419584	-0.18904692
173	0x3da0a470	0.07843864
174	0xbde1b78c	-0.11021337
175	0x3e44ef57	0.19231926
176	0xbdbce788	-0.092238486
177	0x3d107962	0.03527201
178	0xbd7998a4	-0.060936585
179	0xbe153ea7	-0.14574681
180	0xbe50c513	-0.20387678
181	0xbe2a6bf0	-0.16642737
182	0xbdaf9e0a	-0.085750654
183	0xbe0f8838	-0.14016807
184	0xbd714a2d	-0.05890863
185	0x3de6de1e	0.11272834
186	0x3d195786	0.037436984
187	0x3db243dc	0.087043494
188	0xbdf6af62	-0.1204517
189	0xbd250f0a	-0.040297545
190	0xbe100943	-0.14066033
191	0xbd8056fc	-0.06266591
192	0x3d2e3d67	0.042539027
193	0xbc3cec2b	-0.011530916
194	0xbe833042	-0.25622755
195	0x3e175252	0.14777496
196	0xbccf5413	-0.025308644
197	0xbe11185e	-0.14169452
198	0xbe27b7cc	-0.16378707
199	0x3ce5c46d	0.028047765
200	0x3c77b04d	0.015117717
201	0xbe8e0405	-0.27737442
202	0xbe21d1dd	-0.15802713
203	0xbdd5dfbb	-0.10443064
204	0xbdc0618d	-0.09393606
205	0xbda09773	-0.07841387
206	0x3e157dc6	0.1459876
207	0xbe9e5f00	-0.30931854
208	0xbdf16816	-0.11787431
209	0xbe301bf6	-0.17198166
210	0x3dc34840	0.09535265
211	0xbd6aea68	-0.057352453
212	0x3d96d6c0	0.07365179
213	0xbdd173ee	-0.1022719
214	0xbe9dc190	-0.3081174
215	0xbd1a1a4f	-0.037622746
216	0xbd6534ef	-0.055958685
217	0xbe45d739	-0.19320382
218	0xbe5adfab	-0.21374385
219	0xbe33aa53	-0.17545442
220	0x3d462b94	0.048381403
221	0xbdb665d0	-0.08906138
222	0xbdd94ca0	-0.10610318
223	0x3d2ca70c	0.042151496
224	0xbe02fc30	-0.12791514
225	0xbd5ac2e1	-0.053408507
226	0xbeaa7bed	-0.33297673
227	0xbe813690	-0.2523694
228	0x3c18c7e1	0.009324999
229	0xbd1fd74b	-0.03902368
230	0xbdddba40	-0.1082654
231	0xbdc9f616	-0.0986139
232	0xbe6a3c40	-0.22874546
233	0xbdf92850	-0.12165892
234	0xbe1a1005	-0.15045173
235	0x3d54c0c7	0.05194166
236	0x3dd727c4	0.105056316
237	0xbda19e43	-0.07891514
238	0x3e4110c9	0.1885406
239	0xbe111c6f	-0.14171003
240	0xbe37b74a	-0.17941013
241	0x3e2aa62e	0.16664955
242	0xbd0f8668	-0.03504029
243	0xbe912d32	-0.28354794
244	0x3dc75db1	0.09734667
245	0xbe1a3ed8	-0.15063035
246	0xbca14bf6	-0.019689541
247	0xbdda9c8c	-0.1067439
248	0xbe463002	-0.19354251
249	0xbcacd42d	-0.021097267
250	0xbe3c1499	-0.18367232
251	0xbdb39d13	-0.08770194
252	0xbd656654	-0.05600579
253	0x3df130a6	0.11776857
254	0xbe993989	-0.29926708
255	0x3e634de5	0.22197683

fc2.bias f4 [10]
0	0xbdd65f07	-0.10467344
1	0x3e523c5d	0.2053084
2	0xbe1de150	-0.15417981
3	0xbd52a7bb	-0.05142949
4	0x3ddcad00	0.10775185
5	0xbd069af9	-0.032862637
6	0xbd9659c7	-0.073413424
7	0x3e1421e5	0.14466055
8	0xbe3d585a	-0.18490735
9	0x3d98bbba	0.07457681
