parameters/MNIST/trained-model.pth (torch, 71812 bytes, 6 tensors)

conv1.weight f4 [4, 1, 7, 7]
000000 65 03 9c bd 1b 6d 0b be 10 eb 98 3d 50 14 65 3c
       -0.07617835 -0.13615839 0.074667096 0.013981894
000010 b2 2e 0a bd 63 32 f9 3d e5 71 4a be f9 21 87 bc
       -0.03373594 0.12167814 -0.1977001 -0.016495692
000020 9c d4 37 be 08 b8 b5 bc f6 2c 03 3e 7c e8 49 3e
       -0.17952198 -0.02218248 0.1281012 0.19717592
000030 7c 45 dc 3b 2e 31 22 be 2e ee c3 bd 13 85 b8 3c
       0.0067221504 -0.15839073 -0.095669135 0.022524392
000040 b3 8a 3f 3e a2 50 8e 3d fa 55 2a 3e f2 6b 18 be
       0.18705253 0.06948973 0.1663436 -0.14884928
000050 23 15 82 be 48 40 3f be ca 19 d2 3d 44 cf 3f 3e
       -0.2540675 -0.18676865 0.10258825 0.1873141
000060 9a 7f 55 3e b8 de e0 3d b7 6e 06 be cc aa aa be
       0.20849457 0.1097998 -0.13128172 -0.33333433
000070 bf 9c c8 bd 3a 13 3a 3e 45 d1 68 3e c4 04 c1 bc
       -0.09795522 0.18171397 0.2273608 -0.023561843
000080 4c 0e fc bd 31 4d 44 be 25 26 1a be 6b 24 c2 bd
       -0.123074144 -0.19170071 -0.15053613 -0.094796024
000090 38 aa 05 3e ef 34 8a 3e 0f 74 3e 3d 25 5a 9d bd
       0.13053215 0.2699351 0.0464974 -0.07683209
0000a0 8d 80 dd bd 56 08 9c bd 08 d6 fa bd 7d eb 3f 3e
       -0.10815535 -0.076187775 -0.122478545 0.18742175
0000b0 74 cf 48 3e 42 e3 0c bd 1e 34 00 be f4 04 0a be
       0.19610387 -0.034396417 -0.12519881 -0.13478452
0000c0 ea 8e 2c be c3 c7 89 bd ba f1 cd bd ae 9f f9 bd
       -0.16851392 -0.06727555 -0.10055871 -0.121886596
0000d0 9c b5 5c 3e c2 a1 af 3e 00 93 69 3e 2e 28 49 3d
       0.21553653 0.343031 0.22809982 0.049110584
0000e0 c0 60 89 bd 00 6c dc bd c7 1a 85 bd 3b 18 a1 3d
       -0.06707907 -0.10762787 -0.06499248 0.0786595
0000f0 19 d3 62 3e 37 ac e0 3d 08 6b 0c 3e f5 71 5e 3d
       0.2215084 0.109703474 0.13712704 0.054307897
000100 25 a0 5b be 80 3d 30 be 7c 47 ef bd 9a 1b 15 be
       -0.21447809 -0.1721096 -0.116835564 -0.1456131
000110 f6 17 3f be 26 01 a7 3a 97 2f b8 3c bb 2a 4e be
       -0.18661484 0.0012741431 0.02248363 -0.20133488
000120 1c 38 b8 be 3e b7 11 be ca 00 4b be 21 86 2c be
       -0.35980308 -0.14230058 -0.1982452 -0.16848041
000130 0e f1 ed 3b 5b 63 20 3e b2 16 2f be 15 23 50 be
       0.007261402 0.15662901 -0.17098501 -0.20325883
000140 20 79 b6 bd 47 f6 7c be 22 ed a6 bd a0 d6 80 be
       -0.089098215 -0.24703322 -0.08150698 -0.25163746
000150 be bd 79 3e 34 36 c7 bd 7a d8 14 be 29 78 43 bc
       0.24388787 -0.09727135 -0.14535704 -0.011930504
000160 07 d0 a9 bd f8 0a b5 bd 67 70 28 ba da aa b0 3e
       -0.08291631 -0.08839983 -0.00064254407 0.3450535
000170 b5 f0 57 3e 92 82 3c 3e 23 99 4e 3e 80 6a 87 3e
       0.21087916 0.18409184 0.20175605 0.2644844
000180 61 a8 22 3e da 43 f9 bd eb 7b 09 3e 49 99 4d 3d
       0.15884544 -0.12171145 0.13426177 0.050195012
000190 75 66 8d bd 8a 0a 87 bd f1 09 98 bd d9 a1 c2 3d
       -0.06904308 -0.06593807 -0.07423771 0.09503526
0001a0 e7 44 d7 3d 11 7f 83 b9 97 bf 8a bd 19 d6 99 bd
       0.10511189 -0.0002508094 -0.06774824 -0.07511539
0001b0 f5 c2 4b be e3 8c 96 bd 0e d3 ec 3d b8 08 34 3d
       -0.19898589 -0.07351091 0.11563693 0.043953627
0001c0 6b 94 09 3e fa 80 ad bd f4 fa 62 3c 54 fc 11 bd
       0.13435523 -0.08471866 0.013853777 -0.03564103
0001d0 48 95 99 bd e3 b7 6f 3e 4d 17 95 3e 52 fe 10 3e
       -0.07499176 0.23409991 0.2911934 0.14159516
0001e0 66 22 b5 3c ea 18 4a bd ae 17 67 be dd 9b b8 bd
       0.022111129 -0.049340166 -0.22567627 -0.090141036
0001f0 92 85 02 3d 4b fb 7d 3e 6d f4 51 3d cc db 94 3d
       0.031865664 0.24802892 0.051258493 0.072684854
000200 b2 52 96 bd d7 fa 8b be 85 48 b0 be c7 e7 30 be
       -0.07339992 -0.27339813 -0.34430328 -0.17275916
000210 06 9a 64 bd 2e c5 25 be 12 53 f8 3b 73 62 04 be
       -0.05581095 -0.161885 0.007578262 -0.1292818
000220 d6 56 97 be 18 1d 58 be 45 e5 15 be 5e 97 69 be
       -0.29558438 -0.21104848 -0.1463824 -0.22811648
000230 bd 1b c4 bd c4 08 34 3e 6d 0b a6 3d bc f0 8c 3d
       -0.09575603 0.17581469 0.08107648 0.06881854
000240 67 71 da bd 2c 4e bd bd a3 c2 b5 bd 02 f5 b6 3c
       -0.10666161 -0.09243426 -0.08875015 0.022333626
000250 23 8a f0 bd d0 7c 4e be 89 7c 06 3d f6 09 a5 3d
       -0.117450975 -0.201648 0.03283361 0.080585405
000260 8e 96 d9 3d 15 7b e9 3c 8a 75 d9 3d 16 16 3c be
       0.10624419 0.028501073 0.10618122 -0.183678
000270 88 c8 1e be 5b 08 2d bc 85 ea 0a bc ae fb 0b 3e
       -0.15506184 -0.010561074 -0.008478765 0.13670227
000280 8f e9 04 3e f5 a6 0e be 2a ae 6b be cd 5e 48 be
       0.1297972 -0.13930877 -0.23015657 -0.19567414
000290 61 94 2a 3d 31 13 74 3d 7a 30 7c 3e 6e 7d a8 3d
       0.04164541 0.059588615 0.24627867 0.08227049
0002a0 f7 52 9c be fc 83 1f be f2 70 b9 3c 4b 4f 39 3d
       -0.30532047 -0.15577692 0.022636864 0.045241635
0002b0 61 35 c9 3e 28 5f 1e 3e 13 30 06 3d 59 29 24 be
       0.39298537 0.15465987 0.03276069 -0.16031398
0002c0 32 cc 3e 3e a8 6b 81 3d e3 c7 ae 3e 91 30 9e 3e
       0.18632582 0.06319362 0.34136876 0.30896428
0002d0 cd ab 39 3e 30 3c 22 be 71 19 84 3d 25 9f 27 3e
       0.18131943 -0.15843272 0.06450165 0.16369303
0002e0 ed 0f 39 3e f1 15 19 3e 0f ec a8 3d 78 4b c7 bd
       0.18072481 0.14949776 0.082481496 -0.097311914
0002f0 d4 1d 2f be 4f 29 c8 3d e3 f1 d0 3c 98 b1 a6 bd
       -0.17101222 0.09773504 0.025505966 -0.08139342
000300 4e 3b f8 3c ba 96 1f be 89 50 a0 bd 8e 63 c2 bd
       0.030301716 -0.15584841 -0.07827861 -0.09491645

conv1.bias f4 [4]
000000 d6 ad ce 3e b5 27 17 be 29 e3 06 be 5e 76 53 bb
       0.40367 -0.14761241 -0.13172592 -0.0032266597

fc1.weight f4 [64, 256]
000000 84 88 40 bd 58 bf 9d bd d5 3a e6 bd 14 65 69 3e
       -0.04700519 -0.077025115 -0.1124169 0.22792464
000010 4a d6 47 bc 1f 56 35 be 20 e8 17 be b0 a6 9b bd
       -0.012197087 -0.17708634 -0.14834642 -0.076001525
000020 33 59 87 bd 49 4b 39 3c eb 02 34 bd 87 99 d0 3d
       -0.0660881 0.011309453 -0.043948095 0.10185533
000030 94 7c 11 bd b6 d1 fd bb e1 24 c9 bd 44 67 88 bd
       -0.035519198 -0.0077459468 -0.09821487 -0.06660321
000040 19 61 9b 3d 76 83 ca bd 34 d4 7f 3c 21 16 cd 3d
       0.07586879 -0.098883554 0.015614558 0.100139864
000050 2f fe 4c be 1f 55 dd bc 4f 65 d1 bd 11 f9 44 be
       -0.20018838 -0.027018128 -0.10224401 -0.19235636
000060 3a c7 47 bc 70 ed a2 bc 3c 94 c0 3c de fb 79 3b
       -0.012193495 -0.01988861 0.023508184 0.003814451
000070 a9 3b 93 3d 38 f1 36 3d fc 67 db bd 45 7d ff bb
       0.07189114 0.044663638 -0.10713193 -0.0077969157
000080 d2 0b 11 be 6f cf b3 bc f6 08 28 bd 97 9c ad bc
       -0.14164665 -0.021949498 -0.04102417 -0.021192832
000090 6e 86 30 bd 7a f0 b6 3d a2 88 03 38 e9 9a 89 bb
       -0.043096952 0.08932586 3.1360083e-05 -0.004199375
0000a0 fe 89 a1 be 69 3d b0 bd f1 0f 5a be b8 e9 02 3c
       -0.31550592 -0.08605463 -0.21295144 0.007990293
0000b0 d4 97 41 3d 3d 95 28 3e e1 64 6f 3d 09 46 e3 bd
       0.047263935 0.1646318 0.058445815 -0.110973425
0000c0 be 64 15 be dd 67 19 3b b8 e2 73 3d f1 d7 99 bd
       -0.14589211 0.0023407855 0.059542388 -0.07511891
0000d0 15 76 47 3d 4d b8 01 3e 96 cd be 3c cc e6 ec ba
       0.048696596 0.12667961 0.02329139 -0.0018074154
0000e0 c1 d6 f4 bd 38 cd d9 bd f7 f5 ae 3d a9 52 40 3e
       -0.119550236 -0.106348455 0.08543008 0.18781532
0000f0 68 44 28 3e ac 8e 24 bd 3d 69 a1 bd 67 97 90 3d
       0.16432345 -0.040175125 -0.07881401 0.07060128
000100 b6 58 56 3d 62 6c 8b bc 6b 7e a8 bd a8 bf 84 bd
       0.052330695 -0.017019454 -0.08227237 -0.06481868
000110 ae f3 2c be 09 92 81 3c 89 f4 80 3d 3e 94 b0 bd
       -0.16889831 0.015816705 0.062966414 -0.08622025
000120 fd e1 36 3d 65 54 83 3d e9 fa 39 3d a9 c3 12 3c
       0.044649113 0.06412581 0.045405302 0.008957782
000130 99 89 56 3d 2d b1 2b bd ec 04 1e be a7 15 42 bd
       0.052377317 -0.041917015 -0.15431565 -0.04738393
000140 c8 16 04 bd 98 54 3e 3d ef 25 32 bc 54 e5 29 bd
       -0.03224829 0.046467394 -0.010873302 -0.04147847
000150 8f 16 77 3d 46 e7 b0 3c c5 5a 85 bd 09 59 90 bd
       0.060324248 0.021594655 -0.065114535 -0.07048232
000160 65 66 37 3c 31 5d 2e 3e 2d 1e 30 3c b1 8d 39 3d
       0.011193846 0.17027737 0.010749382 0.045301143
000170 bd 86 44 3c aa 09 0c 3e 68 d9 96 3d 2d 62 42 be
       0.011995015 0.13675562 0.07365686 -0.18982764
000180 c8 69 ab ba 5d 8a 3d 3e 88 d2 f0 3d 69 a9 d6 3d
       -0.001307779 0.18509813 0.11758906 0.10481531
000190 05 de f0 3c 19 55 59 bd 4c 5b 71 bd 95 2c af bd
       0.029402742 -0.05305967 -0.058924958 -0.08553425
0001a0 9c b5 56 3d 07 e3 3c 3e 5c a5 64 3e 3e 0e 1f bd
       0.05241929 0.18445979 0.22328705 -0.03883194
0001b0 12 2d 21 bd a0 c2 d9 bd 8b f4 e2 bd 6c 2f 8a bd
       -0.039349623 -0.10632825 -0.11081799 -0.06747326
0001c0 8b 88 03 3d 5f 0e c7 3c 5a 73 d9 bd fe 1e 1c be
       0.03211264 0.024298845 -0.10617705 -0.15246198
0001d0 51 62 2d 3d 63 da 19 3c bf 7c 12 bb 16 74 23 be
       0.04233009 0.009390446 -0.0022352186 -0.15962252
0001e0 46 f7 05 3e 51 ab 3a 3d f0 de 62 be 39 e8 86 be
       0.13082609 0.045573536 -0.22155356 -0.26349047
0001f0 39 00 50 bd df 65 3d 3d f3 c5 b8 bd a3 48 78 bd
       -0.050781462 0.04623973 -0.09022131 -0.060616147
000200 d2 23 b4 3c ad 50 a8 3d 7a cd 37 bd 10 b0 e6 bd
       0.021989737 0.08218513 -0.044873692 -0.1126405
000210 5c db 34 be 41 70 f3 bd 60 62 44 bc e1 3a 23 3e
       -0.17661804 -0.11886645 -0.011986345 0.1594043
000220 4e 45 de bd 36 96 6e bd f1 0b 61 bd 80 73 91 3d
       -0.108530626 -0.05824872 -0.05494303 0.07102108
000230 04 b1 3d bd fc 9b 25 bd 19 33 15 be fc e7 b8 bd
       -0.046311393 -0.04043196 -0.14570273 -0.090286225
000240 74 ba b2 3d 0c 89 fd 3c 11 2a fc 3d 5d c7 cc bd
       0.08726969 0.030949138 0.12312711 -0.09998963
000250 82 6a e5 3d cb 57 b7 3c 59 29 3c be 8c 9e 1c be
       0.112019554 0.02238073 -0.18375148 -0.15294856
000260 8c 27 44 be 70 77 41 3d 49 50 3e 3d d1 c1 34 3d
       -0.19155711 0.047233045 0.046463285 0.04413015
000270 4f f7 28 bc fd fd e9 3d ee 60 40 bd 1b 3a 3b be
       -0.010312869 0.114253975 -0.04696744 -0.18283884
000280 e6 01 7e 3d ab 64 60 3b 9b 8b 7f bd e1 ad 00 be
       0.06201353 0.003423969 -0.062388998 -0.1256633
000290 6a 09 cb 3b 44 cc c5 3d 11 48 bf bd 94 c7 ca 3d
       0.0061961906 0.09658101 -0.093399175 0.09901348
0002a0 67 e6 60 bd 9a 93 61 3d fd 2d 6e bd 07 ae ad 3c
       -0.05490723 0.055072404 -0.058149327 0.021201147
0002b0 23 dc ac 3d 26 6e 7a 3b bd 15 5a bc 71 16 f0 3d
       0.08440425 0.0038212626 -0.013310847 0.1172303
0002c0 d3 be 30 3e a4 6b 3c be a8 3a 7b be 23 23 35 bd
       0.17260294 -0.18400437 -0.24534094 -0.044222962
0002d0 2a 95 ba 3d 11 d0 e4 bd 73 3e 95 b8 7d 32 09 3e
       0.09110482 -0.11172498 -7.116506e-05 0.13398166
0002e0 bf 53 19 3b 1e 1c 98 bd d3 72 d8 bd 09 50 e1 bd
       0.0023395864 -0.07427238 -0.10568776 -0.110015936
0002f0 be 82 11 3e e2 c3 9a 3d 24 1f 2f 3e d1 45 ca bc
       0.1421003 0.07556893 0.17101723 -0.024691494
000300 ed 41 ba 3d f6 6a 0f bd dd 8b 85 be 12 b5 0b 3a
       0.090946056 -0.035014115 -0.2608327 0.0005329411
000310 93 f5 d2 bd 89 f5 45 bd b2 ac 7a 3d 0c 2f 9d 3d
       -0.10300746 -0.048329864 0.06119985 0.07674989
000320 d7 9a 2f 3e f5 24 af 3d 2b a5 ee bc 96 20 dc bd
       0.1714891 0.08551971 -0.029131493 -0.10748403
000330 9c a4 00 be 23 36 05 3e 9a 3e a8 3d 11 d1 e6 3d
       -0.12562793 0.13008933 0.08215065 0.11270345
000340 f6 e8 22 bd fc 68 3d bd 9a 13 22 bd 07 16 5b bd
       -0.03977295 -0.0462427 -0.039569475 -0.053487804
000350 68 b8 04 bd 0a 08 14 be 75 ff c4 bc 8b f6 eb 3d
       -0.032402426 -0.14456192 -0.024047593 0.11521634
000360 e4 8f c0 3d ab 43 10 bd 3f 25 95 3b 48 03 db 3c
       0.09402445 -0.035220783 0.004551559 0.026734963
000370 17 8e a3 bc 02 20 d5 bd c3 ec bd be 4d 70 de bd
       -0.019965215 -0.10406496 -0.37094697 -0.108612634
000380 ae 18 0a bd c9 e2 64 be e2 ec 7b be 57 90 19 be
       -0.033714943 -0.22352137 -0.24602082 -0.14996468
000390 99 bb a1 3c 11 63 30 be a2 61 ba bd 83 c8 ac be
       0.019742774 -0.17225291 -0.09100653 -0.33746728
0003a0 01 f1 02 be 67 05 4c be e7 fa 37 be 38 8f 4c 3d
       -0.12787248 -0.19923936 -0.17966805 0.04994127
0003b0 5e 6b 22 bd bb d3 f2 3d b6 10 6f 3d 71 4a b2 3c
       -0.039653175 0.11856791 0.058365546 0.021764012
0003c0 4d f8 ce bd 72 24 c0 bd 6e 3b 3f 3d 8b 0c 81 3e
       -0.10105953 -0.093819514 0.046687536 0.25204882
0003d0 94 4f 13 bd 78 77 8e 3d 44 e1 01 3d 40 5e 77 bd
       -0.035964563 0.069563806 0.03170897 -0.06039262
0003e0 bb db 34 3e 2c 3d 98 bd 73 82 f0 3d 04 16 0b 3e
       0.17661946 -0.074335426 0.11743631 0.13582617
0003f0 f9 9f 45 3e 4e 1d 68 3e 56 a6 29 3e 95 a2 89 bd
       0.19299306 0.22667429 0.16567358 -0.06720463

fc1.bias f4 [64]
000000 c4 0a f5 bd fe 45 0a 3e 91 a3 3b 3e 8e d9 c3 3d
       -0.11964944 0.13503262 0.18324114 0.0956298
000010 93 e3 2c be ba 7b 6d be 4a 55 ac bd cb 43 34 3e
       -0.16883688 -0.23191729 -0.08414705 0.17603986
000020 20 a7 fc 3c 76 eb 81 3e 3a c1 4f bc 1a 81 0a be
       0.03084141 0.25374955 -0.012680346 -0.13525811
000030 5b e9 27 be b9 41 be 3c 54 cb 2a 3e 7f 13 b9 3d
       -0.16397612 0.023224698 0.16679126 0.09036922
000040 a9 c9 38 3e cf 1f 87 3d 06 e7 47 3c d6 f9 1a bd
       0.18045677 0.06597864 0.012201076 -0.03783592
000050 92 d8 fa 3d fc c0 fc bd 2e cc 96 bd 0f 37 bf bc
       0.12248339 -0.12341496 -0.07363163 -0.023341684
000060 ec fb 81 3d 66 42 0b 3e 55 e6 35 3e 17 1c 08 3c
       0.063468784 0.13599548 0.17763646 0.008307478
000070 a4 9a 0e be 90 3c d5 bd 0c fa 0a be 29 ff 2a be
       -0.13926178 -0.10411942 -0.13571948 -0.16698898
000080 3f 2a f4 bd a0 ef 5d 3d 2b b2 14 3e 55 f4 13 bd
       -0.1192212 0.054183602 0.1452109 -0.036121685
000090 9d d4 41 be cf 94 d6 bc 1e e3 30 be 1b 08 f5 3d
       -0.18928762 -0.026194004 -0.17274138 0.119644366
0000a0 63 3a d5 bc 14 24 00 be 5b 72 8b 3d 18 de af bd
       -0.026028818 -0.12513763 0.06808921 -0.08587283
0000b0 69 36 7f 3e ea 27 d1 bd b1 0d 23 be 38 35 57 3d
       0.249231 -0.10212691 -0.15923192 0.052540988
0000c0 91 3e e1 bd df e3 e5 3d 34 37 24 be 98 60 d4 3c
       -0.10998262 0.112251036 -0.16036683 0.025924966
0000d0 09 96 bd bd 7f 6f 99 bd b4 5a 2e 3e 5b e2 5f be
       -0.092571326 -0.07491969 0.17026788 -0.21863692
0000e0 5c e9 20 3e 3a 9d 78 3d 64 15 9e 3d 34 61 ee bb
       0.1571402 0.060696818 0.07718924 -0.007274771
0000f0 c2 39 58 bd 47 f0 85 3b 10 0b 78 be 63 e6 17 be
       -0.052789457 0.004087481 -0.2422297 -0.1483398

fc2.weight f4 [10, 64]
000000 51 6d f3 3d bf 25 01 3e 88 db 6e be bd 5a b1 bd
       0.11886085 0.12612055 -0.23325932 -0.08659885
000010 a8 99 3a be 71 06 ec bd 72 5e 2c 3e 15 8a 5b be
       -0.18222678 -0.11524666 0.16832903 -0.21439393
000020 69 dd 8f 3d fe a6 3a bd 44 61 a9 3d 20 2f ef 3d
       0.070246525 -0.045569412 0.08270505 0.1167891
000030 c4 bd 33 bc e7 e9 f3 bd 25 73 73 3d 38 e3 23 3e
       -0.010970537 -0.11909848 0.059435982 0.16004646
000040 df 50 8e bd 97 76 1c 3e 8f b4 1b 3e 25 79 fa 3d
       -0.06949019 0.15279613 0.15205596 0.12230138
000050 a7 30 44 be c7 d9 d3 bc 81 45 97 3d 15 67 3a be
       -0.19159184 -0.02586068 0.07386304 -0.18203385
000060 d6 33 61 be ac 44 77 3d 56 97 57 3c 3e 9b 93 bd
       -0.2199243 0.060368225 0.01315864 -0.072073445
000070 0f 1f 4e bd 32 06 ce 3d 04 f4 82 bd 3f 2d bb bc
       -0.05032259 0.100597754 -0.063941985 -0.022848723
000080 89 4c ad 3c 87 eb ab 3d 86 f2 23 be df ef b5 bd
       0.021154659 0.08394533 -0.16010484 -0.088836424
000090 a4 f4 a9 3c c4 8e 35 be 36 1d 93 3b 4b f1 01 be
       0.020746537 -0.17730242 0.004489566 -0.12689702
0000a0 69 01 d6 3d 22 f5 b5 3d b3 d7 1f bd 13 f9 02 be
       0.10449488 0.08884646 -0.039024066 -0.12790327
0000b0 61 59 6d 3d 22 98 1e be b0 fe 85 bd f4 7f 5c 3d
       0.057946566 -0.15487722 -0.065427184 0.053832963
0000c0 83 5e dd bd 95 83 a6 bd ac 47 3c be 29 42 6f 3d
       -0.10809042 -0.08130566 -0.18386716 0.058412705
0000d0 e4 a7 4a be 5d 59 dc bd fd 4b 34 be 8f 9c a3 3d
       -0.19790608 -0.10759232 -0.17607112 0.079888456
0000e0 a7 60 94 3c c5 fd 27 be 99 5f ac 3d c2 f7 40 3d
       0.018112494 -0.16405399 0.08416671 0.04711128
0000f0 cb a7 20 3e 29 9b df 3d 00 83 be 3d cc 5f 20 3e
       0.15689008 0.10918266 0.0930233 0.15661544
000100 5d c5 ef 3a eb fa 7a 3d 0b 46 8a bb ea 56 ba 3c
       0.0018293072 0.06127445 -0.0042197756 0.022746522
000110 a8 c4 4f be 16 ad ab bc f1 ce 98 3d be bd 3d bd
       -0.20289862 -0.020956557 0.07461346 -0.04632353
000120 bd d0 fa 3c 30 ac dc 3d e4 5e 0f bf 76 db 5a be
       0.030617112 0.1077503 -0.56004167 -0.2137278
000130 95 d1 74 3e 43 ec 1f be 2c 67 2f 3d e0 c8 d9 bd
       0.23908074 -0.1561747 0.042823 -0.10634017
000140 a7 a6 3c 3c e0 c0 2c bd 19 5b 30 3e 96 ce 78 3c
       0.011514342 -0.042176127 0.17222251 0.015185973
000150 d3 ed 55 3d 21 2a a5 be b7 49 73 be dc 7d 35 3d
       0.05222876 -0.32258704 -0.23758589 0.044309482
000160 13 d7 6a bc 41 27 37 be 84 80 28 3d cf f6 ee 3d
       -0.014333504 -0.17886068 0.041138187 0.11668169
000170 3f fd b2 bc e5 65 2b be 57 6a a0 3d 50 c7 16 bd
       -0.021849273 -0.16738088 0.07832783 -0.036811173
000180 2b 0e 26 3e 43 cd 4a 3d 93 e3 63 3e 69 52 ce 3d
       0.16216342 0.04951216 0.22254781 0.10074312
000190 90 43 23 bd 53 12 25 be 66 0b cc bc 8c 03 29 be
       -0.039859354 -0.16120271 -0.024907779 -0.1650526
0001a0 68 b4 9c be 55 01 af be e3 4d b8 bd 83 df d1 3c
       -0.3060639 -0.34180704 -0.08999231 0.025619274
0001b0 84 f9 4a 3e 4b b1 9a 3d d1 31 0f 3d ab 0b 1a be
       0.19821745 0.07553347 0.034959618 -0.15043513
0001c0 8e f3 e7 3d 58 bd f9 3c 81 48 a3 3d 0e c4 7f be
       0.11325751 0.030485794 0.079728134 -0.24977133
0001d0 24 da 47 3d b1 5f 18 bd f1 cf d9 bd a2 2b 24 3e
       0.04879202 -0.037200633 -0.10635365 0.1603227
0001e0 bc b4 65 be 94 ed 99 be ad ef f0 3d 96 32 fd 3d
       -0.22432226 -0.3006407 0.117644645 0.12363164
0001f0 38 fd 51 be ec 14 5a bd 25 81 4e bc ab e4 00 3e
       -0.20506752 -0.05324261 -0.012604033 0.1258723
000200 c7 a0 09 3e 60 ba 34 3b fa ba b2 bd c9 35 f6 bd
       0.13440238 0.0027576908 -0.08727069 -0.120219775
000210 f5 de 06 be ae 1d c6 bd e6 53 cb 3c 89 79 5b 3e
       -0.13170989 -0.0967363 0.02482028 0.2143308
000220 be 54 53 bd 22 9e 5c 3c 3c 8f c5 bd 99 63 8e be
       -0.05159449 0.013465436 -0.096464604 -0.27810362
000230 fb 64 11 3e 4b 0d 4d 3c e0 fb 18 3d c7 0e 20 3e
       0.14198677 0.012515376 0.03734958 0.15630637
000240 93 d2 69 be 24 45 2e be 6d 53 10 3e f4 83 06 3d
       -0.22834234 -0.17018563 0.14094324 0.032840684
000250 7c 68 ae 3d f0 b7 62 bd ff 4d 25 3e b4 ea 82 3c
       0.085160226 -0.055351198 0.16143034 0.015981056
000260 55 07 47 3d 28 e3 16 3e 0b 17 37 be 74 ff 83 3e
       0.048590977 0.1473509 -0.17879884 0.25780833
000270 24 bd ff 3b bd dc 43 3c d1 e4 62 be 52 7f 08 3e
       0.0078045297 0.011954484 -0.22157599 0.13329819
000280 1a 1e 02 3e 92 2b 81 be f1 e0 a9 bc f0 62 c3 3d
       0.12706795 -0.25228554 -0.020737143 0.09540355
000290 98 e2 41 3e 8e e8 af 3c 54 9f 10 3e 5e 31 a9 bc
       0.18934095 0.021473195 0.14123279 -0.020653423
0002a0 ae 2f 82 be 0d 83 63 bc be 7e 9a be 65 59 1b 3e
       -0.25427002 -0.013886225 -0.30174822 0.1517082
0002b0 22 e3 8f 3d ac e7 4d 3d 1e ae c7 3d 15 37 87 3d
       0.07025744 0.050269768 0.09750007 0.06602303
0002c0 cf 16 91 3d fb f1 07 3d 1e 76 4c 3e f1 38 e6 bd
       0.070844285 0.033189755 0.19966933 -0.112413295
0002d0 e9 92 da bd 43 20 76 be 09 d1 1f be 96 75 58 3e
       -0.10672552 -0.24035744 -0.15607084 0.21138605
0002e0 67 cb 69 3d c4 87 0a be 93 56 a4 bd c4 aa 0d 3d
       0.057078745 -0.13528353 -0.08024325 0.034586683
0002f0 53 6b 37 bc 28 df 1a bd 09 38 58 be 03 e6 71 bd
       -0.011195022 -0.037810475 -0.21115126 -0.059057247
000300 f8 ef 72 bd 0d 32 a9 b9 aa a6 ea bd 8d 00 36 3e
       -0.059310883 -0.00032271483 -0.1145757 0.17773648
000310 47 ec 53 3e 26 bc 28 bd ab 2c 2d be 3f 95 c9 3c
       0.20695601 -0.041195057 -0.1691157 0.024607299
000320 eb 79 f0 3c 8a 8d bb 3d 60 31 45 bd 1d 15 82 3c
       0.02935501 0.09157856 -0.04814279 0.015879208
000330 cc f6 c2 3d d5 94 14 be ff d5 94 be fb 3c 16 be
       0.09519729 -0.145099 -0.29069516 -0.146717
000340 c3 d6 77 be 21 d0 0e bd c2 9c 97 3b 3e fc f0 3d
       -0.24203019 -0.034866456 0.0046268413 0.117668614
000350 c4 18 29 3d 2c d8 02 3d 57 9f 2a 3e 2d b4 00 be
       0.041283384 0.03194444 0.16662346 -0.12568732
000360 a9 25 29 3e 3b 2c 47 3d 0f 43 a2 3d 79 37 7e bd
       0.16518272 0.048626166 0.07922947 -0.06206462
000370 4f 4e 67 3e ae 2d ce bd 67 1c b5 3b 47 c5 a6 3a
       0.22588466 -0.100673065 0.0055270675 0.0012723588
000380 a3 24 d9 3d 97 3b 54 be e3 a7 09 3d 65 5a 29 3e
       0.10602691 -0.20725857 0.033607375 0.16538389
000390 f2 27 a0 3d 43 ac 7a bd b1 bc 0b 3e eb 4e 0f 3e
       0.07820119 -0.061199438 0.13646199 0.13994949
0003a0 2b 9a 83 bd 67 59 02 3e 99 60 38 be a5 32 95 3d
       -0.064258896 0.12729417 -0.18005599 0.0728505
0003b0 02 c1 78 be 31 8b 52 be 83 4e 9d bd 0e 9a a6 bd
       -0.24292377 -0.2056091 -0.076809905 -0.08134852
0003c0 5b 53 29 3e ee 77 30 bd 67 42 af bd bd ac 02 3e
       0.16535704 -0.043083124 -0.08557587 0.12761207
0003d0 75 99 16 3d 59 9a 3c 3d f1 a4 ca 3d fb 56 05 be
       0.03676744 0.046045635 0.09894741 -0.13021462
0003e0 c9 41 32 be 15 92 f3 3d 95 38 5d be dd 9a cd bd
       -0.17407908 0.11893097 -0.21603616 -0.100393035
0003f0 7b 99 39 be b9 e1 25 3e 00 7d 84 bd 10 4e 3b 3d
       -0.18124954 0.16199388 -0.06469154 0.045728743

fc2.bias f4 [10]
000000 7a 66 c6 bd 1a c7 5a 3e 17 30 a1 3d 62 52 d4 3d
       -0.096875146 0.21365014 0.078705005 0.10367276
000010 21 23 44 be eb 31 63 3e 02 4e c2 bd c2 23 85 3c
       -0.19154026 0.22187011 -0.09487535 0.016252402
000020 03 0a 86 bd a0 d5 b3 3d
       -0.06544878 0.0878098
