parameters/MNIST/trained-model.pth (torch, 22084 bytes, 5 tensors)

conv1.weight f4 [1, 1, 7, 7]
0	0xbdb560ca	-0.08856352
1	0xbe4bd404	-0.19905096
2	0x3ce2d50c	0.02768948
3	0xbd19c980	-0.03754568
4	0xbe48578d	-0.19564648
5	0xbdbc1f0c	-0.09185609
6	0xbe0d4b17	-0.13798176
7	0xbca825c5	-0.020525822
8	0xbe417feb	-0.18896453
9	0xbe27ca2e	-0.16385719
10	0x3d99a6fe	0.07502554
11	0x3dca394d	0.098742105
12	0xbd9d8355	-0.07691065
13	0xbc8e68d4	-0.01738397
14	0xbdd80692	-0.10548128
15	0xbddd8b7d	-0.10817621
16	0x3d51c649	0.05121449
17	0xbdb17681	-0.08665181
18	0xbc66419a	-0.014053727
19	0xbe55ec46	-0.20890912
20	0xbdf69c33	-0.120415114
21	0xbe642926	-0.22281322
22	0x3d27d2be	0.040972464
23	0x3dbf63c8	0.09345204
24	0x3df37ce5	0.11889056
25	0x3de1e056	0.11029117
26	0x3d04b6df	0.032400962
27	0xbe2799ff	-0.16367339
28	0x3c72fc1e	0.014830617
29	0x3e0da3dc	0.13832039
30	0x3dad270a	0.08454712
31	0xbdd14e93	-0.10220065
32	0xbe2aecaa	-0.16691843
33	0xbd4e0b6e	-0.05030387
34	0xbe40f4ed	-0.18843432
35	0xbdc53667	-0.09629517
36	0xbdad86d2	-0.084729806
37	0x3de25622	0.11051585
38	0x3dafb7e6	0.08579998
39	0xbd5cd645	-0.05391528
40	0xbe1a8e3a	-0.15093318
41	0xbe634d87	-0.22197543
42	0xbe57ba59	-0.2106718
43	0xbe180c5a	-0.14848462
44	0xbc71e6ae	-0.014764471
45	0xbb605134	-0.0034228088
46	0xbe21b97a	-0.1579341
47	0xbe66ecec	-0.22551316
48	0xbe947aff	-0.2900009

fc1.weight f4 [64, 64]
0	0x3cc5770c	0.024104618
1	0xbd6fddf6	-0.058561288
2	0x3d31800a	0.043335
3	0x3d234259	0.039858196
4	0x3dd7511c	0.10513517
5	0x3ba5ff3c	0.0050658267
6	0xbd891804	-0.06694034
7	0x3d76223c	0.060091242
8	0x3d0d58d4	0.03450854
9	0xbca5fbf5	-0.020261744
10	0x3dfcf35d	0.12351105
11	0x3defa63f	0.11701631
12	0x3e1aa42b	0.15101688
13	0x3cbd6fc6	0.023124587
14	0xbd5ebe88	-0.054380924
15	0xbb172ffe	-0.0023069377
16	0x3ce971ce	0.02849665
17	0xbd2595bd	-0.040426005
18	0xbdc4a6b0	-0.096021056
19	0x3d611f60	0.054961562
20	0xbd0e707e	-0.03477525
21	0x3d90ae41	0.07064486
22	0xbd9648b2	-0.07338084
23	0x3e24158b	0.16023843
24	0x3a0e057a	0.0005417686
25	0xbdad5e8f	-0.08465301
26	0x3dc93e68	0.09826356
27	0x3db70b87	0.089377455
28	0xbdf396f7	-0.11894029
29	0xb8d59a60	-0.00010185386
30	0x3db4b9e3	0.088245176
31	0xbd7b185b	-0.061302524
32	0xbb51412d	-0.0031929717
33	0xbe07ac56	-0.13249335
34	0x3db96a06	0.090534255
35	0xbd515909	-0.0511103
36	0xbdbce416	-0.092231914
37	0x3d51b620	0.05119908
38	0xbdeafe2a	-0.11474259
39	0xbd254a4c	-0.04035406
40	0x3d0d8087	0.0345464
41	0x3dfe34e9	0.124124356
42	0x3d806637	0.06269496
43	0x3dc27d03	0.094965
44	0x3d8e8714	0.06959358
45	0x3e1aa694	0.15102607
46	0xbcaaae8b	-0.020835182
47	0xbd8eae11	-0.06966794
48	0x3d1883a0	0.037234902
49	0x3cc54985	0.024082908
50	0xbda2e2d4	-0.0795342
51	0x3bc11fbf	0.005893677
52	0xbdc06eb9	-0.09396119
53	0x3e0f56b9	0.13997926
54	0xbcec53eb	-0.028848609
55	0xbce48bf3	-0.027898764
56	0x3ca926b5	0.02064834
57	0x3e12fe42	0.14354804
58	0xbd9d9487	-0.07694345
59	0x3e002c47	0.1251689
60	0x3e3d38d2	0.18478706
61	0x3d64bbcf	0.05584317
62	0x3da26b80	0.0793066
63	0x3d0e5a4c	0.034754083
64	0x3cb63647	0.022242678
65	0x3e176d39	0.14787759
66	0xbd09bff0	-0.03363031
67	0x3c5f1226	0.013615167
68	0x3e1573f5	0.14595015
69	0x3ddacd2c	0.10683665
70	0xbdcd0917	-0.100114994
71	0xbcca940f	-0.024728803
72	0xbd4ae57b	-0.049535256
73	0xbcc3f541	-0.023920657
74	0xbda4b3a4	-0.08042076
75	0x3df5a569	0.1199444
76	0xbc79727f	-0.015225052
77	0x3d6b5726	0.057456158
78	0xbdba41e4	-0.09094599
79	0xbc807a2a	-0.015683252
80	0xbd09e1b3	-0.03366251
81	0xbd1348c1	-0.035958055
82	0x3d12f9fa	0.035882927
83	0xbccfba2c	-0.025357328
84	0x3d4fa589	0.050694976
85	0xbd4945c8	-0.049138814
86	0xbe05eeb1	-0.13079335
87	0x3da782aa	0.08179219
88	0x3d107760	0.035270095
89	0xbd884a77	-0.06654828
90	0xbcf9d42a	-0.030496676
91	0x3d915193	0.07095637
92	0xbda0a69b	-0.078442775
93	0x3e288740	0.16457844
94	0xbd5fa651	-0.05460197
95	0xbd9c3f31	-0.0762924
96	0xbc4f0845	-0.012636249
97	0x3cc7fca2	0.024412457
98	0xbcab3d6e	-0.020903315
99	0xbdfeda61	-0.12443996
100	0x3e3c7ca7	0.18406926
101	0x3a529bd0	0.0008034082
102	0x3d3ce177	0.046113458
103	0x3d917cec	0.07103905
104	0xbd09e546	-0.033665918
105	0xbd8a976b	-0.06767162
106	0xbd1b3b32	-0.03789825
107	0x3d94a163	0.072573446
108	0xbd83723d	-0.064182736
109	0x3cbc9646	0.023020875
110	0x3e118fb8	0.1421498
111	0xbcf7a05a	-0.030227829
112	0x3db73d7b	0.08947273
113	0x3d638d6c	0.055554792
114	0x3d95d1fe	0.073154435
115	0xbdf441d6	-0.1192662
116	0x3dee0862	0.11622693
117	0x3d9ab739	0.07554478
118	0xbcebbada	-0.028775621
119	0x3d541389	0.051776443
120	0x3d85892d	0.06520305
121	0xbdabc045	-0.08386282
122	0x3e273288	0.1632787
123	0x3de569ae	0.112017974
124	0x3e08653d	0.1331987
125	0x3ce9e600	0.028552055
126	0x3e16a480	0.1471119
127	0xbda2a152	-0.07940926
128	0x3e0abe2e	0.1354911
129	0x3dd0f00c	0.10202035
130	0x3daecb44	0.085348636
131	0xbd420066	-0.04736366
132	0xbd78fa12	-0.06078536
133	0x3d41ebfa	0.047344185
134	0x3d7b005d	0.061279643
135	0xbcec1fc0	-0.028823733
136	0xbdb6d12c	-0.08926615
137	0x3b8674e0	0.004103288
138	0x3d52f309	0.051501308
139	0x3e17ea5d	0.14835496
140	0x3d662ea6	0.05619683
141	0xbd1fdc60	-0.039028525
142	0x3dc93593	0.098246716
143	0xbdb7f9c0	-0.08983183
144	0x3e0ca5c3	0.13735108
145	0xbd2441a8	-0.040101677
146	0x3dfc9641	0.12333346
147	0x3da8d877	0.082444124
148	0xbd7cc6ca	-0.061713018
149	0xbccd8ce3	-0.025091594
150	0x3dbb484f	0.09144651
151	0x3dff75fa	0.12473674
152	0xbd98a372	-0.0745305
153	0x3c59c867	0.013292409
154	0x3dd84fc7	0.10562091
155	0xbdc00347	-0.09375625
156	0xbd33a4a2	-0.043858178
157	0xbcbf4ca2	-0.023351971
158	0xbd16483e	-0.03668999
159	0x3d22ccb6	0.03974601
160	0xbd786ca2	-0.060650475
161	0x3d969a4e	0.0735365
162	0xbc8cf036	-0.017204385
163	0x3e03fc1f	0.12889145
164	0xbda7f098	-0.082001865
165	0x3e05cf7f	0.13067435
166	0xbdcd78ea	-0.10032828
167	0xbd830a3f	-0.06398439
168	0xbdc15809	-0.094406195
169	0x3da345c4	0.07972291
170	0x3d35cd99	0.044385526
171	0xbdc3f2bf	-0.095677845
172	0xbd581e8d	-0.05276351
173	0x3dcb6283	0.09930899
174	0xbd5fa4ad	-0.054600406
175	0x3dbd9a24	0.092579156
176	0xbe16dbb8	-0.14732254
177	0xbd890409	-0.06690223
178	0x3e1d5572	0.15364626
179	0x3de504de	0.11182569
180	0x3c2ceebe	0.010554967
181	0x3df259c8	0.11833531
182	0xbd343554	-0.04399617
183	0xbc75322b	-0.014965574
184	0xbda9d5af	-0.0829271
185	0x3d2f4499	0.04279003
186	0xbd8434e3	-0.064554
187	0xbd4aac79	-0.04948089
188	0x3d1bdc9f	0.038052198
189	0xba047d89	-0.00050541066
190	0xbdb39d0f	-0.08770191
191	0xbd3952e9	-0.045245085
192	0x3b138a60	0.0022512898
193	0xbd8a1a7f	-0.06743335
194	0xbde8bafa	-0.11363788
195	0xbd8db68f	-0.06919586
196	0xbbc92c00	-0.0061392784
197	0xbe28f60c	-0.1650011
198	0x3cce9740	0.025218606
199	0xbd8db437	-0.06919139
200	0xbd7562ce	-0.05990868
201	0xbe09fd3b	-0.13475506
202	0xbdc57bbf	-0.09642743
203	0x3d97608b	0.07391461
204	0x3d922b93	0.071372174
205	0xbd73ee60	-0.059553504
206	0xbe35cbd6	-0.17753538
207	0xbe252dc5	-0.16130741
208	0xbd9fcac2	-0.07802345
209	0x3e278d38	0.16362464
210	0x3db22e4d	0.087002374
211	0x3ae80d2b	0.001770412
212	0xbc9df182	-0.019280199
213	0x3dfea443	0.12433674
214	0x3d9bd426	0.076088235
215	0x3d24b186	0.040208362
216	0xbd825955	-0.06364695
217	0xbda71c39	-0.0815968
218	0xbe26e151	-0.16296889
219	0x3ce0bf1b	0.027434876
220	0xbd856080	-0.065125465
221	0xbdaf55b9	-0.08561272
222	0xbe10c186	-0.14136323
223	0x3dbc6f1d	0.09200881
224	0xbe3016b7	-0.17196165
225	0xbd93829c	-0.07202646
226	0x3d40b424	0.047046795
227	0xbded76cd	-0.11594925
228	0xbe01e23c	-0.12683958
229	0xbd853347	-0.06503921
230	0xbd3b89d4	-0.04578574
231	0xbd4321e0	-0.047639728
232	0x3c42845b	0.011872376
233	0x3ce5e7c3	0.028064614
234	0xbd5fac4c	-0.054607674
235	0xbc1593a4	-0.009129439
236	0x3d17c2fe	0.037051193
237	0x3d67534d	0.056475926
238	0xbdd7d6f5	-0.10539047
239	0x3d513841	0.05107904
240	0x3b9592b6	0.0045646084
241	0x3dcb7f35	0.09936372
242	0xbdd24a24	-0.102680475
243	0xbdb0819c	-0.08618471
244	0xbe057562	-0.13033059
245	0xbd2a3617	-0.04155549
246	0xbd85efdb	-0.065398894
247	0x3cdcf821	0.026973786
248	0xbd614364	-0.05499591
249	0x3e14704d	0.14495964
250	0x3dba1c90	0.09087479
251	0x3d65ad36	0.05607339
252	0xbde215e4	-0.110393316
253	0xbe0326f8	-0.12807834
254	0x3d5f86ff	0.0545721
255	0xbc48b0c3	-0.0122491745

fc1.bias f4 [64]
0	0x3e2209e5	0.15824087
1	0x3dc5f733	0.0966629
2	0xbdac12ef	-0.08402049
3	0xbe31fea4	-0.17382294
4	0x3d4cb6c9	0.049979005
5	0x3dba3f9a	0.09094162
6	0x3db6b466	0.08921127
7	0xbcf8a9a0	-0.030354321
8	0xbc8213e7	-0.01587863
9	0xbe29a49b	-0.16566698
10	0xbd38b323	-0.045092713
11	0x3d33368d	0.043753196
12	0xbd0b1041	-0.033951048
13	0x3cb7835e	0.022401508
14	0x3d932479	0.07184691
15	0x3de4200e	0.111389264
16	0xbe109782	-0.14120296
17	0xbdd313c3	-0.103065036
18	0x3ddbba1f	0.10728859
19	0xbdbaf8a0	-0.09129453
20	0x3dab6d43	0.083704494
21	0x3d9ca21d	0.07648108
22	0x3d3976a4	0.04527916
23	0x3c51a030	0.012794539
24	0x3d74774b	0.05968408
25	0xbe12242a	-0.14271608
26	0x3dbc0a4c	0.091816515
27	0x3d61807c	0.055054173
28	0xbd706b21	-0.058695916
29	0xbe08e3c1	-0.13368131
30	0x3e270f47	0.16314422
31	0x3d8c06fb	0.06837269
32	0xbe03b117	-0.12860523
33	0x3e295e74	0.16539937
34	0x3e391559	0.1807455
35	0xbcb692ee	-0.022286858
36	0xbe0e4af5	-0.13895781
37	0xbd477784	-0.048697963
38	0x3dc803ed	0.09766374
39	0xbdc6fd21	-0.09716249
40	0x3ddb980f	0.10722362
41	0xbdc02eaa	-0.093839005
42	0xbe096527	-0.13417493
43	0xbde1c5ff	-0.11024093
44	0x3cad4fc7	0.021156205
45	0x3d6f6095	0.058441717
46	0xbce28293	-0.027650153
47	0x3deedfab	0.11663755
48	0xbdb2783f	-0.08714341
49	0xbe35c58e	-0.17751142
50	0xbdb89b85	-0.09014038
51	0x3de98876	0.11402981
52	0x3d5bf6e9	0.05370227
53	0xbded553c	-0.11588523
54	0x3d4f4138	0.050599307
55	0x3e15e8c1	0.1463957
56	0x3e209b9c	0.1568436
57	0x3d8e8356	0.06958644
58	0x3de59185	0.11209396
59	0xbbb16132	-0.005413198
60	0xbe391076	-0.18072686
61	0x3b668414	0.003517394
62	0x3dc8c218	0.098026454
63	0xbde4502e	-0.111481056

fc2.weight f4 [10, 64]
0	0x3dc8d094	0.09805408
1	0x3e05d39d	0.13069005
2	0xbdf1eb5d	-0.1181247
3	0xbe4417cd	-0.19149704
4	0x3d849d4c	0.064753145
5	0x3bea4e9b	0.007150484
6	0xbc966bd4	-0.018361963
7	0x3d5a6c4e	0.053325944
8	0x3d2a01bd	0.041505564
9	0xbe1d3656	-0.15352759
10	0xbe200de6	-0.15630302
11	0x3d718e8b	0.05897383
12	0x3d0c00da	0.0341805
13	0xbcfca342	-0.030839566
14	0x3c27cb38	0.010241322
15	0xbdf59371	-0.11991013
16	0xbdd936b9	-0.10606141
17	0x3e00fabc	0.12595648
18	0x3ce70a75	0.028203228
19	0xbe037f46	-0.1284152
20	0xbe02534d	-0.12727089
21	0xbe4fcbc5	-0.20292576
22	0xbdc4ab5a	-0.09602995
23	0x3dd2c117	0.10290735
24	0x3d2e833e	0.04260563
25	0x3db0b8ea	0.086290196
26	0x3dfdf8e9	0.124009915
27	0xbe0377f9	-0.12838735
28	0xbe2f8999	-0.17142333
29	0xbd4f8e5f	-0.050672885
30	0x3dddc426	0.10828428
31	0x3d98b919	0.074571796
32	0xbddc91f3	-0.10770025
33	0xbc237046	-0.009975499
34	0xbd0acba8	-0.033885628
35	0x3b1350b1	0.0022478516
36	0x3cc3046f	0.023805825
37	0xbe2fb787	-0.17159854
38	0xbd7c3433	-0.06157322
39	0x3c925a5e	0.017865356
40	0xbe40c549	-0.18825258
41	0x3dc27f3b	0.094969235
42	0xbde5e542	-0.11225368
43	0x3cb946e7	0.022616817
44	0x3d4f0af6	0.050547563
45	0xbd2514e3	-0.040303122
46	0xbdf26bb2	-0.118369475
47	0x3c7f0ad6	0.015566548
48	0xbd35e945	-0.044411916
49	0xbd92cd14	-0.07168022
50	0xbe294047	-0.16528426
51	0x3dc3335b	0.0953128
52	0xbe06ff5a	-0.13183346
53	0xbe545587	-0.20735751
54	0xbdc33bb9	-0.095328756
55	0x3c53d6d0	0.012929633
56	0xbe53cbfa	-0.2068328
57	0x3d002c2b	0.03129212
58	0xbde1eb87	-0.110312514
59	0xbc205716	-0.009786388
60	0xbe086f5f	-0.13323735
61	0xbd6e3f45	-0.058165807
62	0xbe02451f	-0.1272168
63	0xbe00bdf5	-0.12572463
64	0x3e2bba93	0.16770391
65	0x3c9ea14d	0.019364024
66	0xbddcd81e	-0.107834086
67	0x3dc01b76	0.09380238
68	0xbda6943d	-0.08133743
69	0xbe30ba53	-0.17258577
70	0x3db5db31	0.08879698
71	0x3cfba59c	0.030718617
72	0x3c34885f	0.0110188415
73	0x3a3afb7b	0.00071328104
74	0xbccc31f0	-0.024926156
75	0xbde8bac6	-0.11363749
76	0xbe2298bc	-0.15878576
77	0xbdbb1da0	-0.0913651
78	0xbdf4519b	-0.119296275
79	0xbe144a02	-0.14481357
80	0xbd950d0d	-0.0727788
81	0xbbad09b9	-0.0052807
82	0x3db2b46a	0.087258175
83	0x3e2eef2f	0.17083429
84	0xbb0555b6	-0.0020345277
85	0x3e02b72a	0.12765184
86	0x3daf95d2	0.08573498
87	0xbdc85ffa	-0.09783931
88	0xbe072380	-0.13197136
89	0x3e1651f1	0.14679696
90	0x3e270d5f	0.16313694
91	0x3dcc22dd	0.09967587
92	0xbddee045	-0.1088262
93	0xbe4eb160	-0.2018485
94	0xbdf1f2fc	-0.11813924
95	0xbc1c4dc5	-0.009540026
96	0xbd1e01e7	-0.038576033
97	0xbdb95c11	-0.090507634
98	0x3dedf61a	0.11619206
99	0x3d7c4294	0.06158693
100	0x3e12eb22	0.14347509
101	0xbda58968	-0.08082849
102	0xbc03ab56	-0.008036455
103	0x3e3c65b7	0.18398176
104	0x3e134618	0.14382207
105	0xbd3e1cf2	-0.046414323
106	0x3da9d877	0.082932405
107	0xbda3604c	-0.079773515
108	0x3de428bc	0.11140582
109	0xbc7a3266	-0.015270805
110	0x3c97aae8	0.018514112
111	0xbe041e2c	-0.12902135
112	0xbe489496	-0.19587931
113	0x3c361ab2	0.011114763
114	0xbd6d551b	-0.05794249
115	0x3c84db0e	0.016217735
116	0xbd242ecb	-0.040083688
117	0xbe01968c	-0.12655085
118	0xbc198507	-0.009370095
119	0x3cdaae98	0.02669458
120	0xbd7f6a5c	-0.06235729
121	0xbe12f6f2	-0.14352015
122	0x3d9cf5a6	0.07664041
123	0xbe266077	-0.16247736
124	0x3d84a146	0.06476073
125	0x3da9002a	0.082519844
126	0xbd9d3d0f	-0.07677662
127	0x3d09d136	0.033646785
128	0xbdb9244b	-0.090401255
129	0xbdce5dca	-0.100764826
130	0x3bddc524	0.0067678858
131	0x3d289e75	0.04116674
132	0x3d2e745d	0.04259144
133	0xbd4a7ba6	-0.049434327
134	0xbdd22a9b	-0.102620326
135	0xbde4fcdc	-0.111810416
136	0xbd7b926f	-0.061418947
137	0xbd7def6e	-0.061995916
138	0x3dda4e6c	0.10659489
139	0x3c9b74c1	0.018976571
140	0x3d1cc68f	0.038275298
141	0x3dfff4a2	0.12497832
142	0xbe135ab6	-0.14390072
143	0x3dff76fb	0.124738656
144	0xbd9d4c87	-0.07680612
145	0xbd6a2863	-0.057167422
146	0x3da65dd0	0.08123362
147	0xbc0923d2	-0.008370357
148	0xbe0f43c8	-0.139907
149	0xbd7723fd	-0.060337055
150	0x3dc90cda	0.09816904
151	0xbdcc0ea5	-0.09963731
152	0x3d061f28	0.032744557
153	0xbe3425c2	-0.17592528
154	0xbd46de46	-0.04855182
155	0x3d8cb0d5	0.068696655
156	0xb612f5c0	-2.189874e-06
157	0xbd25ec92	-0.040508814
158	0x3d9de3ff	0.077095024
159	0x3d50648a	0.05087713
160	0x3dc67232	0.0968975
161	0xbe3f32ab	-0.18671672
162	0xbd0c6e2b	-0.03428475
163	0xbd74410a	-0.05963234
164	0xbccabfe0	-0.024749696
165	0x3dc3046b	0.09522327
166	0xbd635551	-0.055501286
167	0xbe4d7dc7	-0.20067511
168	0xbd01a38b	-0.031650107
169	0xbd5303d9	-0.05151734
170	0x3d8df922	0.06932284
171	0xbd05ef09	-0.032698665
172	0x3cd1cc7c	0.025610201
173	0x3d557fb4	0.05212374
174	0xbe1e2b2e	-0.15446159
175	0xbe09a8d9	-0.13443317
176	0xbce69438	-0.028146848
177	0xbe54a2ad	-0.20765181
178	0xbda2b4d9	-0.0794465
179	0x3dc876cb	0.09788283
180	0x3dd1728a	0.10226925
181	0xbd606bcb	-0.0547903
182	0xbe408ce4	-0.18803746
183	0xbd684134	-0.056702808
184	0xbd8cd71e	-0.06876968
185	0xbd18ee75	-0.037336785
186	0xbe0fa2a2	-0.14026883
187	0xbd7ea0be	-0.062165014
188	0xbd2c0541	-0.041997198
189	0xbd8d1720	-0.06889176
190	0x3daa7b36	0.08324282
191	0xbdd6f69c	-0.10496256
192	0x3cab83a9	0.020936804
193	0x3d161d94	0.0366493
194	0x3df522c2	0.1196952
195	0xbda7b8fd	-0.081895806
196	0xbe184bc6	-0.14872655
197	0xbc110112	-0.008850353
198	0x3c332e09	0.010936269
199	0xbe03ad70	-0.1285913
200	0xbdd3b497	-0.10337179
201	0xbda34b24	-0.07973316
202	0x3d86306f	0.06552207
203	0xbdb8d942	-0.09025814
204	0x3ddaa56d	0.10676084
205	0x3dcec289	0.100956984
206	0x3db089bb	0.0862002
207	0x3debf862	0.11521985
208	0x3ce6eac3	0.028188115
209	0xbde9c9c5	-0.114154376
210	0x3d9c852f	0.0764259
211	0xbdfb69f9	-0.12276072
212	0xbe03c4a1	-0.12867977
213	0xbda0ab7d	-0.07845209
214	0x3d7560e7	0.059906866
215	0xbdcc13af	-0.09964692
216	0xbe049e2e	-0.12950966
217	0xbdd68d70	-0.10476196
218	0xbe34c150	-0.17651868
219	0x3da3c09b	0.07995721
220	0xbe215448	-0.15754807
221	0x3d1fbac1	0.03899646
222	0xbd9d547b	-0.07682129
223	0xbd26c51a	-0.040715314
224	0xbe1344b1	-0.14381672
225	0xbdbfd75c	-0.093672484
226	0xbe03add3	-0.12859277
227	0xbe1b0c8d	-0.15141506
228	0x3d40ceec	0.047072336
229	0xbda62cce	-0.081140146
230	0xbc92c2d2	-0.017915163
231	0x3ca59668	0.02021332
232	0xbda30e7b	-0.07961746
233	0x3d13dd20	0.036099553
234	0xbd7b12bd	-0.061297167
235	0xbdb37fab	-0.08764585
236	0xbe0eee2e	-0.13958046
237	0x3d5f12cc	0.054461285
238	0x3c352420	0.011055976
239	0xbd648262	-0.055788405
240	0x3d035cb3	0.032070827
241	0x3adff5cd	0.0017086804
242	0xbd9e6c9f	-0.077355616
243	0x3de9e1a0	0.11419988
244	0x3cc160ed	0.023605788
245	0xbdcb0dce	-0.099147424
246	0x3dfa99c8	0.12236363
247	0x3da3ae42	0.079922214
248	0xbe0c0e3c	-0.13677305
249	0x3e0fc22b	0.14038913
250	0xbd85ed31	-0.06539381
251	0xbd5fceaf	-0.05464047
252	0xbe169432	-0.1470497
253	0x3d4f38a0	0.05059111
254	0x3dae1ca9	0.0850156
255	0x3c595d93	0.013266939

fc2.bias f4 [10]
0	0x3dc70bc1	0.09719039
1	0xbd63cc30	-0.05561465
2	0xbda4a189	-0.08038623
3	0x3aabf13f	0.0013118162
4	0xbdb93c29	-0.09044678
5	0xbda7ad3f	-0.08187341
6	0x3db0b07f	0.08627414
7	0x3c4f47bb	0.012651379
8	0x3d703b0b	0.058650058
9	0xbd9a6f9e	-0.075408205
