parameters/MNIST/trained-model.pth (torch, 22084 bytes, 5 tensors)

conv1.weight f4 [1, 1, 7, 7]
0	0xbdb560c9	-0.08856351
1	0xbe4bd404	-0.19905096
2	0x3ce2d50d	0.027689481
3	0xbd19c97f	-0.037545677
4	0xbe48578c	-0.19564646
5	0xbdbc1f0b	-0.091856085
6	0xbe0d4b15	-0.13798173
7	0xbca825c6	-0.020525824
8	0xbe417fec	-0.18896455
9	0xbe27ca2e	-0.16385719
10	0x3d99a6fd	0.075025536
11	0x3dca394c	0.0987421
12	0xbd9d8354	-0.076910645
13	0xbc8e68d4	-0.01738397
14	0xbdd80690	-0.10548127
15	0xbddd8b7d	-0.10817621
16	0x3d51c649	0.05121449
17	0xbdb17680	-0.0866518
18	0xbc664191	-0.014053718
19	0xbe55ec45	-0.20890911
20	0xbdf69c31	-0.1204151
21	0xbe642926	-0.22281322
22	0x3d27d2c3	0.040972482
23	0x3dbf63c9	0.093452044
24	0x3df37ceb	0.118890606
25	0x3de1e057	0.110291176
26	0x3d04b6e2	0.032400973
27	0xbe2799fe	-0.16367337
28	0x3c72fc2c	0.01483063
29	0x3e0da3de	0.13832042
30	0x3dad270c	0.08454713
31	0xbdd14e94	-0.10220066
32	0xbe2aeca8	-0.1669184
33	0xbd4e0b6d	-0.050303865
34	0xbe40f4ec	-0.1884343
35	0xbdc53666	-0.09629516
36	0xbdad86d1	-0.0847298
37	0x3de25622	0.11051585
38	0x3dafb7ea	0.08580001
39	0xbd5cd63f	-0.05391526
40	0xbe1a8e3a	-0.15093318
41	0xbe634d89	-0.22197546
42	0xbe57ba59	-0.2106718
43	0xbe180c5a	-0.14848462
44	0xbc71e6a2	-0.01476446
45	0xbb605101	-0.003422797
46	0xbe21b979	-0.15793408
47	0xbe66ecec	-0.22551316
48	0xbe947aff	-0.2900009

fc1.weight f4 [64, 64]
0	0x3cc57709	0.024104612
1	0xbd6fddf9	-0.0585613
2	0x3d318009	0.043334994
3	0x3d234259	0.039858196
4	0x3dd7511e	0.10513519
5	0x3ba5ff2e	0.00506582
6	0xbd891801	-0.066940315
7	0x3d76223c	0.060091242
8	0x3d0d58d5	0.034508545
9	0xbca5fbf9	-0.020261751
10	0x3dfcf360	0.123511076
11	0x3defa643	0.11701634
12	0x3e1aa42b	0.15101688
13	0x3cbd6fc8	0.02312459
14	0xbd5ebe85	-0.054380912
15	0xbb173019	-0.002306944
16	0x3ce971c9	0.02849664
17	0xbd2595be	-0.04042601
18	0xbdc4a6b1	-0.09602106
19	0x3d611f60	0.054961562
20	0xbd0e7079	-0.03477523
21	0x3d90ae42	0.07064487
22	0xbd9648b0	-0.07338083
23	0x3e24158c	0.16023844
24	0x3a0e0578	0.0005417685
25	0xbdad5e8f	-0.08465301
26	0x3dc93e6a	0.09826358
27	0x3db70b88	0.08937746
28	0xbdf396f7	-0.11894029
29	0xb8d5972f	-0.000101847916
30	0x3db4b9e2	0.08824517
31	0xbd7b185a	-0.06130252
32	0xbb514145	-0.0031929773
33	0xbe07ac56	-0.13249335
34	0x3db96a06	0.090534255
35	0xbd51590b	-0.05111031
36	0xbdbce414	-0.0922319
37	0x3d51b625	0.051199097
38	0xbdeafe27	-0.11474257
39	0xbd254a48	-0.040354043
40	0x3d0d808a	0.034546413
41	0x3dfe34e9	0.124124356
42	0x3d806637	0.06269496
43	0x3dc27d06	0.094965026
44	0x3d8e8715	0.069593586
45	0x3e1aa695	0.15102609
46	0xbcaaae8b	-0.020835182
47	0xbd8eae0f	-0.06966793
48	0x3d1883a0	0.037234902
49	0x3cc54987	0.024082912
50	0xbda2e2d0	-0.07953417
51	0x3bc11fcd	0.0058936835
52	0xbdc06eb8	-0.09396118
53	0x3e0f56b9	0.13997926
54	0xbcec53e8	-0.028848603
55	0xbce48bee	-0.027898755
56	0x3ca926b7	0.020648343
57	0x3e12fe41	0.14354803
58	0xbd9d9486	-0.07694344
59	0x3e002c47	0.1251689
60	0x3e3d38d2	0.18478706
61	0x3d64bbce	0.055843167
62	0x3da26b7d	0.07930658
63	0x3d0e5a4d	0.034754086
64	0x3cb63644	0.022242673
65	0x3e176d37	0.14787756
66	0xbd09bff5	-0.03363033
67	0x3c5f1221	0.013615162
68	0x3e1573f5	0.14595015
69	0x3ddacd2c	0.10683665
70	0xbdcd0916	-0.10011499
71	0xbcca9410	-0.024728805
72	0xbd4ae57b	-0.049535256
73	0xbcc3f547	-0.023920668
74	0xbda4b3a7	-0.080420785
75	0x3df5a56a	0.11994441
76	0xbc797283	-0.015225056
77	0x3d6b5726	0.057456158
78	0xbdba41e6	-0.090946004
79	0xbc807a25	-0.015683243
80	0xbd09e1b4	-0.033662513
81	0xbd1348c5	-0.03595807
82	0x3d12f9fc	0.035882935
83	0xbccfba33	-0.025357341
84	0x3d4fa58c	0.050694987
85	0xbd4945ca	-0.04913882
86	0xbe05eeb2	-0.13079336
87	0x3da782a9	0.08179218
88	0x3d107760	0.035270095
89	0xbd884a76	-0.06654827
90	0xbcf9d426	-0.030496668
91	0x3d915194	0.07095638
92	0xbda0a69b	-0.078442775
93	0x3e288740	0.16457844
94	0xbd5fa658	-0.054601997
95	0xbd9c3f2f	-0.07629239
96	0xbc4f084e	-0.012636257
97	0x3cc7fca5	0.024412462
98	0xbcab3d72	-0.020903323
99	0xbdfeda63	-0.12443998
100	0x3e3c7ca5	0.18406923
101	0x3a529b97	0.0008034049
102	0x3d3ce175	0.04611345
103	0x3d917cec	0.07103905
104	0xbd09e54b	-0.033665936
105	0xbd8a9769	-0.067671604
106	0xbd1b3b30	-0.037898242
107	0x3d94a162	0.07257344
108	0xbd837241	-0.064182766
109	0x3cbc963e	0.02302086
110	0x3e118fb8	0.1421498
111	0xbcf7a060	-0.03022784
112	0x3db73d7a	0.089472726
113	0x3d638d68	0.055554777
114	0x3d95d201	0.07315446
115	0xbdf441d5	-0.11926619
116	0x3dee0862	0.11622693
117	0x3d9ab737	0.07554477
118	0xbcebbad9	-0.02877562
119	0x3d54138b	0.05177645
120	0x3d85892b	0.06520303
121	0xbdabc046	-0.083862826
122	0x3e273287	0.16327868
123	0x3de569ac	0.11201796
124	0x3e08653a	0.13319865
125	0x3ce9e603	0.028552061
126	0x3e16a480	0.1471119
127	0xbda2a14e	-0.07940923
128	0x3e0abe2d	0.13549109
129	0x3dd0f009	0.10202033
130	0x3daecb44	0.085348636
131	0xbd42006b	-0.04736368
132	0xbd78fa14	-0.060785368
133	0x3d41ebf8	0.047344178
134	0x3d7b005a	0.061279632
135	0xbcec1fc6	-0.028823745
136	0xbdb6d133	-0.0892662
137	0x3b8674d4	0.0041032825
138	0x3d52f305	0.051501293
139	0x3e17ea5b	0.14835493
140	0x3d662ea5	0.056196827
141	0xbd1fdc63	-0.039028537
142	0x3dc93592	0.09824671
143	0xbdb7f9c4	-0.08983186
144	0x3e0ca5c3	0.13735108
145	0xbd2441ac	-0.040101692
146	0x3dfc9640	0.123333454
147	0x3da8d872	0.08244409
148	0xbd7cc6cb	-0.06171302
149	0xbccd8ce2	-0.025091592
150	0x3dbb484e	0.091446504
151	0x3dff75f8	0.12473673
152	0xbd98a373	-0.074530505
153	0x3c59c868	0.0132924095
154	0x3dd84fc6	0.105620906
155	0xbdc00346	-0.09375624
156	0xbd33a4a3	-0.04385818
157	0xbcbf4caa	-0.023351986
158	0xbd16483d	-0.036689986
159	0x3d22ccb6	0.03974601
160	0xbd786c9e	-0.06065046
161	0x3d969a4e	0.0735365
162	0xbc8cf038	-0.017204389
163	0x3e03fc20	0.12889147
164	0xbda7f09a	-0.08200188
165	0x3e05cf7f	0.13067435
166	0xbdcd78eb	-0.10032829
167	0xbd830a3f	-0.06398439
168	0xbdc1580a	-0.0944062
169	0x3da345c2	0.079722896
170	0x3d35cd95	0.04438551
171	0xbdc3f2be	-0.09567784
172	0xbd581e91	-0.052763525
173	0x3dcb6280	0.09930897
174	0xbd5fa4ad	-0.054600406
175	0x3dbd9a21	0.092579134
176	0xbe16dbb8	-0.14732254
177	0xbd890408	-0.06690222
178	0x3e1d5571	0.15364625
179	0x3de504dc	0.111825675
180	0x3c2ceeb5	0.010554959
181	0x3df259c9	0.118335314
182	0xbd34355c	-0.0439962
183	0xbc753236	-0.0149655845
184	0xbda9d5b1	-0.082927115
185	0x3d2f4494	0.04279001
186	0xbd8434e6	-0.06455402
187	0xbd4aac7f	-0.04948091
188	0x3d1bdc99	0.038052175
189	0xba047ef3	-0.00050543173
190	0xbdb39d13	-0.08770194
191	0xbd3952eb	-0.045245092
192	0x3b138a52	0.0022512865
193	0xbd8a1a7f	-0.06743335
194	0xbde8bafd	-0.1136379
195	0xbd8db68e	-0.06919585
196	0xbbc92bf2	-0.006139272
197	0xbe28f60c	-0.1650011
198	0x3cce9744	0.025218613
199	0xbd8db436	-0.06919138
200	0xbd7562d0	-0.059908688
201	0xbe09fd3c	-0.13475507
202	0xbdc57bbe	-0.096427426
203	0x3d97608e	0.07391463
204	0x3d922b96	0.071372196
205	0xbd73ee5b	-0.059553485
206	0xbe35cbd4	-0.17753536
207	0xbe252dc5	-0.16130741
208	0xbd9fcac3	-0.078023456
209	0x3e278d37	0.16362463
210	0x3db22e4c	0.08700237
211	0x3ae80d38	0.0017704135
212	0xbc9df17e	-0.019280192
213	0x3dfea445	0.12433676
214	0x3d9bd427	0.07608824
215	0x3d24b188	0.04020837
216	0xbd825955	-0.06364695
217	0xbda71c38	-0.08159679
218	0xbe26e152	-0.1629689
219	0x3ce0bf1a	0.027434874
220	0xbd85607c	-0.065125436
221	0xbdaf55b8	-0.085612714
222	0xbe10c187	-0.14136325
223	0x3dbc6f1c	0.0920088
224	0xbe3016b7	-0.17196165
225	0xbd93829f	-0.07202648
226	0x3d40b428	0.04704681
227	0xbded76cc	-0.11594924
228	0xbe01e23b	-0.12683956
229	0xbd853346	-0.0650392
230	0xbd3b89d4	-0.04578574
231	0xbd4321df	-0.047639724
232	0x3c42845f	0.01187238
233	0x3ce5e7bf	0.028064607
234	0xbd5fac4a	-0.054607667
235	0xbc1593a5	-0.0091294395
236	0x3d17c303	0.037051212
237	0x3d67534c	0.056475922
238	0xbdd7d6f5	-0.10539047
239	0x3d51383e	0.051079027
240	0x3b9592bf	0.0045646126
241	0x3dcb7f37	0.09936374
242	0xbdd24a27	-0.1026805
243	0xbdb0819c	-0.08618471
244	0xbe057562	-0.13033059
245	0xbd2a3615	-0.041555483
246	0xbd85efdb	-0.065398894
247	0x3cdcf821	0.026973786
248	0xbd61435f	-0.05499589
249	0x3e14704b	0.14495961
250	0x3dba1c94	0.09087482
251	0x3d65ad38	0.056073397
252	0xbde215e0	-0.110393286
253	0xbe0326f7	-0.12807833
254	0x3d5f8702	0.054572113
255	0xbc48b0ca	-0.012249181

fc1.bias f4 [64]
0	0x3e2209e5	0.15824087
1	0x3dc5f732	0.096662894
2	0xbdac12ee	-0.08402048
3	0xbe31fea5	-0.17382295
4	0x3d4cb6c9	0.049979005
5	0x3dba3f9a	0.09094162
6	0x3db6b466	0.08921127
7	0xbcf8a99f	-0.03035432
8	0xbc8213e5	-0.015878627
9	0xbe29a49b	-0.16566698
10	0xbd38b324	-0.045092717
11	0x3d33368a	0.043753184
12	0xbd0b1042	-0.03395105
13	0x3cb78363	0.022401517
14	0x3d932477	0.071846895
15	0x3de42010	0.11138928
16	0xbe109782	-0.14120296
17	0xbdd313c4	-0.10306504
18	0x3ddbba1e	0.107288584
19	0xbdbaf8a0	-0.09129453
20	0x3dab6d43	0.083704494
21	0x3d9ca21e	0.07648109
22	0x3d3976a5	0.045279164
23	0x3c51a02a	0.012794534
24	0x3d747751	0.0596841
25	0xbe12242b	-0.1427161
26	0x3dbc0a4c	0.091816515
27	0x3d61807d	0.055054177
28	0xbd706b1d	-0.0586959
29	0xbe08e3c0	-0.1336813
30	0x3e270f47	0.16314422
31	0x3d8c06f8	0.06837267
32	0xbe03b118	-0.12860525
33	0x3e295e72	0.16539934
34	0x3e391558	0.18074548
35	0xbcb692e8	-0.022286847
36	0xbe0e4af5	-0.13895781
37	0xbd477784	-0.048697963
38	0x3dc803ed	0.09766374
39	0xbdc6fd24	-0.097162515
40	0x3ddb980f	0.10722362
41	0xbdc02ea9	-0.093839
42	0xbe096526	-0.13417491
43	0xbde1c5fe	-0.11024092
44	0x3cad4fc3	0.021156197
45	0x3d6f608f	0.058441695
46	0xbce28290	-0.027650148
47	0x3deedfab	0.11663755
48	0xbdb2783d	-0.0871434
49	0xbe35c58d	-0.17751141
50	0xbdb89b84	-0.09014037
51	0x3de98876	0.11402981
52	0x3d5bf6ea	0.053702272
53	0xbded553b	-0.11588522
54	0x3d4f4138	0.050599307
55	0x3e15e8c1	0.1463957
56	0x3e209b99	0.15684356
57	0x3d8e8357	0.06958645
58	0x3de59187	0.11209398
59	0xbbb16141	-0.005413205
60	0xbe391075	-0.18072684
61	0x3b66840a	0.0035173916
62	0x3dc8c216	0.09802644
63	0xbde4502f	-0.11148106

fc2.weight f4 [10, 64]
0	0x3dc8d094	0.09805408
1	0x3e05d39e	0.13069007
2	0xbdf1eb5d	-0.1181247
3	0xbe4417cd	-0.19149704
4	0x3d849d4d	0.06475315
5	0x3bea4eba	0.007150498
6	0xbc966bd5	-0.018361965
7	0x3d5a6c52	0.05332596
8	0x3d2a01cb	0.041505616
9	0xbe1d3656	-0.15352759
10	0xbe200de6	-0.15630302
11	0x3d718e8d	0.058973838
12	0x3d0c00da	0.0341805
13	0xbcfca347	-0.030839575
14	0x3c27caf3	0.010241258
15	0xbdf59371	-0.11991013
16	0xbdd936bc	-0.10606143
17	0x3e00fabc	0.12595648
18	0x3ce70a76	0.02820323
19	0xbe037f45	-0.12841518
20	0xbe02534d	-0.12727089
21	0xbe4fcbc4	-0.20292574
22	0xbdc4ab59	-0.096029945
23	0x3dd2c117	0.10290735
24	0x3d2e8340	0.04260564
25	0x3db0b8eb	0.0862902
26	0x3dfdf8e9	0.124009915
27	0xbe0377f7	-0.12838732
28	0xbe2f8999	-0.17142333
29	0xbd4f8e5d	-0.050672878
30	0x3dddc426	0.10828428
31	0x3d98b91a	0.0745718
32	0xbddc91f3	-0.10770025
33	0xbc23703d	-0.00997549
34	0xbd0acba5	-0.033885617
35	0x3b1350c8	0.002247857
36	0x3cc30470	0.023805827
37	0xbe2fb788	-0.17159855
38	0xbd7c3433	-0.06157322
39	0x3c925a61	0.017865362
40	0xbe40c549	-0.18825258
41	0x3dc27f3c	0.09496924
42	0xbde5e542	-0.11225368
43	0x3cb946ec	0.022616826
44	0x3d4f0af6	0.050547563
45	0xbd2514e4	-0.040303126
46	0xbdf26bb2	-0.118369475
47	0x3c7f0ad8	0.01556655
48	0xbd35e944	-0.044411913
49	0xbd92cd12	-0.0716802
50	0xbe294046	-0.16528425
51	0x3dc3335a	0.09531279
52	0xbe06ff59	-0.13183345
53	0xbe545586	-0.2073575
54	0xbdc33bb9	-0.095328756
55	0x3c53d6d0	0.012929633
56	0xbe53cbfb	-0.20683281
57	0x3d002c2c	0.031292126
58	0xbde1eb87	-0.110312514
59	0xbc205711	-0.009786383
60	0xbe086f5e	-0.13323733
61	0xbd6e3f42	-0.058165796
62	0xbe02451f	-0.1272168
63	0xbe00bdf5	-0.12572463
64	0x3e2bba96	0.16770396
65	0x3c9ea14d	0.019364024
66	0xbddcd81d	-0.10783408
67	0x3dc01b74	0.09380236
68	0xbda6943e	-0.08133744
69	0xbe30ba52	-0.17258576
70	0x3db5db32	0.08879699
71	0x3cfba5a1	0.030718626
72	0x3c34884f	0.011018827
73	0x3a3afbb7	0.00071328453
74	0xbccc31ed	-0.02492615
75	0xbde8bac5	-0.113637485
76	0xbe2298bd	-0.15878578
77	0xbdbb1da0	-0.0913651
78	0xbdf451a3	-0.119296335
79	0xbe144a02	-0.14481357
80	0xbd950d0e	-0.072778806
81	0xbbad09ab	-0.0052806935
82	0x3db2b46a	0.087258175
83	0x3e2eef31	0.17083432
84	0xbb055595	-0.00203452
85	0x3e02b72b	0.12765186
86	0x3daf95d3	0.085734986
87	0xbdc85ffc	-0.097839326
88	0xbe072380	-0.13197136
89	0x3e1651f1	0.14679696
90	0x3e270d5f	0.16313694
91	0x3dcc22de	0.09967588
92	0xbddee046	-0.108826205
93	0xbe4eb160	-0.2018485
94	0xbdf1f2fd	-0.118139245
95	0xbc1c4dc8	-0.009540029
96	0xbd1e01ec	-0.03857605
97	0xbdb95c13	-0.09050765
98	0x3dedf61c	0.11619207
99	0x3d7c4294	0.06158693
100	0x3e12eb23	0.1434751
101	0xbda58966	-0.08082847
102	0xbc03ab56	-0.008036455
103	0x3e3c65b9	0.18398179
104	0x3e134618	0.14382207
105	0xbd3e1cf1	-0.04641432
106	0x3da9d877	0.082932405
107	0xbda3604b	-0.07977351
108	0x3de428bb	0.11140581
109	0xbc7a3263	-0.015270802
110	0x3c97aaeb	0.018514117
111	0xbe041e2b	-0.12902133
112	0xbe489496	-0.19587931
113	0x3c361aae	0.011114759
114	0xbd6d551c	-0.057942495
115	0x3c84db11	0.01621774
116	0xbd242ec9	-0.04008368
117	0xbe01968d	-0.12655087
118	0xbc198511	-0.009370104
119	0x3cdaae9a	0.026694585
120	0xbd7f6a5c	-0.06235729
121	0xbe12f6f3	-0.14352016
122	0x3d9cf5a6	0.07664041
123	0xbe266075	-0.16247733
124	0x3d84a145	0.06476072
125	0x3da9002b	0.08251985
126	0xbd9d3d0f	-0.07677662
127	0x3d09d136	0.033646785
128	0xbdb9244a	-0.09040125
129	0xbdce5dc8	-0.10076481
130	0x3bddc534	0.006767893
131	0x3d289e76	0.041166745
132	0x3d2e745d	0.04259144
133	0xbd4a7b9f	-0.0494343
134	0xbdd22a9d	-0.10262034
135	0xbde4fcdc	-0.111810416
136	0xbd7b926e	-0.061418943
137	0xbd7def6e	-0.061995916
138	0x3dda4e6d	0.1065949
139	0x3c9b74c5	0.018976578
140	0x3d1cc690	0.0382753
141	0x3dfff4a3	0.124978326
142	0xbe135ab6	-0.14390072
143	0x3dff76fb	0.124738656
144	0xbd9d4c87	-0.07680612
145	0xbd6a2862	-0.05716742
146	0x3da65dd1	0.08123363
147	0xbc0923d3	-0.008370358
148	0xbe0f43c8	-0.139907
149	0xbd7723fe	-0.06033706
150	0x3dc90cdc	0.09816906
151	0xbdcc0ea6	-0.099637315
152	0x3d061f2a	0.032744564
153	0xbe3425c2	-0.17592528
154	0xbd46de44	-0.048551813
155	0x3d8cb0dc	0.06869671
156	0xb612bbc0	-2.186498e-06
157	0xbd25ec93	-0.040508818
158	0x3d9de400	0.07709503
159	0x3d50648c	0.05087714
160	0x3dc67234	0.09689751
161	0xbe3f32a9	-0.18671669
162	0xbd0c6e27	-0.034284737
163	0xbd744109	-0.059632335
164	0xbccabfe3	-0.024749702
165	0x3dc30470	0.09522331
166	0xbd63554f	-0.05550128
167	0xbe4d7dc7	-0.20067511
168	0xbd01a392	-0.031650133
169	0xbd5303d4	-0.051517323
170	0x3d8df91f	0.06932282
171	0xbd05ef05	-0.03269865
172	0x3cd1cc81	0.02561021
173	0x3d557fb4	0.05212374
174	0xbe1e2b2e	-0.15446159
175	0xbe09a8d9	-0.13443317
176	0xbce6943a	-0.028146852
177	0xbe54a2ac	-0.2076518
178	0xbda2b4dc	-0.079446524
179	0x3dc876cc	0.09788284
180	0x3dd1728e	0.10226928
181	0xbd606bc9	-0.054790292
182	0xbe408ce2	-0.18803743
183	0xbd684130	-0.056702793
184	0xbd8cd722	-0.06876971
185	0xbd18ee76	-0.03733679
186	0xbe0fa2a1	-0.14026882
187	0xbd7ea0bd	-0.06216501
188	0xbd2c053f	-0.04199719
189	0xbd8d1721	-0.06889177
190	0x3daa7b39	0.08324284
191	0xbdd6f69e	-0.10496257
192	0x3cab83a9	0.020936804
193	0x3d161d96	0.03664931
194	0x3df522c1	0.119695194
195	0xbda7b8fe	-0.08189581
196	0xbe184bc7	-0.14872657
197	0xbc110106	-0.008850342
198	0x3c332e06	0.010936266
199	0xbe03ad70	-0.1285913
200	0xbdd3b495	-0.10337178
201	0xbda34b22	-0.07973315
202	0x3d863070	0.065522075
203	0xbdb8d941	-0.09025813
204	0x3ddaa571	0.10676087
205	0x3dcec288	0.10095698
206	0x3db089bf	0.08620023
207	0x3debf862	0.11521985
208	0x3ce6eac6	0.02818812
209	0xbde9c9c5	-0.114154376
210	0x3d9c852f	0.0764259
211	0xbdfb69f8	-0.12276071
212	0xbe03c4a0	-0.12867975
213	0xbda0ab7e	-0.078452095
214	0x3d7560e8	0.05990687
215	0xbdcc13ab	-0.09964689
216	0xbe049e2e	-0.12950966
217	0xbdd68d72	-0.10476197
218	0xbe34c151	-0.1765187
219	0x3da3c09a	0.0799572
220	0xbe215449	-0.15754808
221	0x3d1fbac1	0.03899646
222	0xbd9d547a	-0.07682128
223	0xbd26c51b	-0.04071532
224	0xbe1344b1	-0.14381672
225	0xbdbfd75c	-0.093672484
226	0xbe03add3	-0.12859277
227	0xbe1b0c8d	-0.15141506
228	0x3d40ceed	0.04707234
229	0xbda62ccf	-0.08114015
230	0xbc92c2ce	-0.017915156
231	0x3ca5966a	0.020213325
232	0xbda30e7b	-0.07961746
233	0x3d13dd26	0.036099575
234	0xbd7b12bd	-0.061297167
235	0xbdb37fad	-0.087645866
236	0xbe0eee30	-0.13958049
237	0x3d5f12ca	0.054461278
238	0x3c35241f	0.011055975
239	0xbd648260	-0.055788398
240	0x3d035cba	0.032070853
241	0x3adff5e5	0.0017086832
242	0xbd9e6c9e	-0.07735561
243	0x3de9e19f	0.11419987
244	0x3cc160ef	0.023605792
245	0xbdcb0dcf	-0.09914743
246	0x3dfa99cb	0.12236365
247	0x3da3ae42	0.079922214
248	0xbe0c0e3c	-0.13677305
249	0x3e0fc22b	0.14038913
250	0xbd85ed30	-0.065393806
251	0xbd5fceac	-0.054640457
252	0xbe169432	-0.1470497
253	0x3d4f38a3	0.050591122
254	0x3dae1ca8	0.085015595
255	0x3c595d94	0.01326694

fc2.bias f4 [10]
0	0x3dc70bc1	0.09719039
1	0xbd63cc2f	-0.055614647
2	0xbda4a189	-0.08038623
3	0x3aabf13b	0.0013118157
4	0xbdb93c2a	-0.090446785
5	0xbda7ad3f	-0.08187341
6	0x3db0b07f	0.08627414
7	0x3c4f47bd	0.012651381
8	0x3d703b0c	0.05865006
9	0xbd9a6f9e	-0.075408205
