parameters/MNIST/trained-model.pth (torch, 4893 bytes, 5 tensors)

conv1.weight f4 [1, 1, 5, 5]
00000000: 9041 14bd 49a2 843d 691a d33d 47a6 d23d
00000010: 6f57 ebbd f9c9 0e3e ea2a 993d aa7e e03d
00000020: b835 b2bc 593a 073d cfe1 cf3d 4dd9 b13d
00000030: b579 ac3d 8f9a 053d 2e9d 2dbd 7dd6 d43d
00000040: 9351 5d3d 43d5 133e 92b9 473d 6396 243d
00000050: c343 c8bc e347 2dbd fbe5 f33d 4c09 f53d
00000060: 6845 113e
-0.036195338 0.06476266 0.10307772 0.10285621 -0.11491286 0.13944234 0.07478888 0.10961659
-0.02175413 0.03301463 0.101504914 0.08684025 0.08421651 0.0326181 -0.042386226 0.10392473
0.054032873 0.14436822 0.048760958 0.040182482 -0.024446374 -0.042304885 0.119091 0.11964664
0.14186633

fc1.weight f4 [16, 16]
00000000: 89ff 70bf 1ec1 03c0 76ab 1440 6524 d13f
00000010: f706 22bf 919d dfbd dae3 a5be eca9 e83e
00000020: 2d3a 4e3e 77dd 12bd 52dd 11be c60f bdbd
00000030: 194d 913f 5cff 083f 4908 6b3e d8af 703f
00000040: c284 363f 690d ecbe 1579 d2be c386 073f
00000050: e9cb 7a3f 42a9 453e 7617 1dbf 3ae0 8e3e
00000060: 2fe6 2abf aacf d2be bda7 333f 4781 1cbe
00000070: 2b5c 0d40 f766 c1bf fc1d 4bbe c573 82bf
00000080: cfd5 b8bf 1e44 a23f d623 e83f 0119 23bf
00000090: d1bf 303f 29a7 64be 9554 73be 3f79 963d
000000a0: 653a a93f 4391 02bf 7f40 ffbe 46c5 c0bf
000000b0: 01e9 6d3f bbc8 d33e 02fc a3be 8af7 0940
000000c0: ce93 0abf 2993 47bf ed80 09bf bab0 3c3e
000000d0: b503 9cbf dda9 4a3f b026 9c3f 2738 74bf
000000e0: fb17 71bd 2a1c f0be c9b4 003e 97d1 aebf
000000f0: 6d2b 58be 7644 cbbe cd72 37bf ca71 1c3d
00000100: ded5 a4bf 73dd 42bf 7ab0 33bf 67fb 053d
00000110: 5e65 2640 3f16 083f 78ef 383f 7d36 4d3f
00000120: 7e36 2fbf c124 12bf 9e61 39bf b785 873e
00000130: 0ac8 77bd 5496 8dbf 9153 293f 993d 40be
00000140: 86e5 d0be c686 a2be c11c c63b 00e0 953f
00000150: 280e 1640 d8ab d23e e904 1f3f c865 543f
00000160: 76bc 38c0 15e5 e2be 1731 d63b 587f 03bf
00000170: 3912 0c40 6d71 a2bf ffd1 50bf afce aabf
00000180: 4474 9fbe 3ae0 96bf 1ac4 ddbe b2d6 bfbe
00000190: cfbe 9ebf e3c6 d7bd c2c3 bdbe a2af 6cbf
000001a0: e488 8b3e 7ff6 d03e a6ec b23f 6669 633e
000001b0: acf8 16bc ccb8 1ebf 152e 91bf c128 db3e
000001c0: fc6a f0bf 27b6 34bf a22f 243e 3186 f93f
000001d0: e076 acbe 9724 973f dc3d 10bf 33de 0bbe
000001e0: 43df 373f 4bd9 e03e 0f4d 013e f414 85be
000001f0: 4436 413d fcf9 983e 2f01 3f3f d7bb e03f
00000200: 6a94 67bf d573 88be 9b0d 98be b840 d73f
00000210: 2ca4 52be 9ea0 113f a372 d73e cc75 363f
00000220: 6bcc bdbf e8b9 84be e019 19bc 559c cabf
00000230: 930b eabf f6e4 2c3f 64f0 47be f3c1 67bf
00000240: ad60 78bf 65d8 65be 52d9 eebd 7a02 b33e
00000250: c990 67bf a241 0dbd ea33 a03e 1115 56c0
00000260: 1019 5d3e bbd8 2c3e 022f 41be 4362 ecbd
00000270: 7e73 0440 c5da ca3e 375d 7f3f da8f 383e
00000280: 285d 7a3e bd85 753f 29a3 f23e eefc 813f
00000290: f489 8cbe 3cd5 acbe 713a cf3e 845d 10c0
000002a0: ed22 06bf 85f8 e9bd 52fd 7e3f be14 b13f
000002b0: abf4 a0be 0969 483e d6f8 c6bd 3125 84bf
000002c0: 11e1 af3e b6ee 09bf 9c9e 503f 67a8 92be
000002d0: 2983 a2bf e18e a73e d5d3 cdbe f75d 933a
000002e0: 7a41 80bf cb8d f5bd 2283 583e eaef 163f
000002f0: 4c4f 07be 7c28 6b40 4d24 c4bf 5d4e 113d
00000300: 55d4 fa3f f1ac 7fbf 6814 f03e c076 663f
00000310: 2c29 08bf 2873 a73e c8ed 96be 6c27 ba3f
00000320: 8ff6 b7be ae59 2bbf fcb4 393f 9a72 a7be
00000330: d67c 573f fdac 0d3f 1f64 e43d a596 b5bf
00000340: b531 61be f766 1bbe 5c29 9cbf b859 7040
00000350: 674d 13bf 1043 053e 0352 fdbd 1806 85bf
00000360: d72e 903e 5208 ba3e bdbf 00bf b2e1 36bf
00000370: 5c06 a43e eea3 83be 8758 a73d 1ec5 643e
00000380: 6224 8ebf 5483 b4bf 4ed7 21bf 0c45 893e
00000390: 8bbd db3e b702 96bd 55d2 e7be bfa4 243f
000003a0: 7730 ac3d fdc0 a73f 4e22 9c3d a2ce 66bc
000003b0: e2f3 f2bf c4f8 83bf 984b 8cbf 3ea2 273d
000003c0: a813 a43f c4e6 373e e077 623d 7f76 07c0
000003d0: ea45 45bf 4eaa 80bd 7738 0a3f 135e d6bf
000003e0: dce5 a8bf b798 52bc b7ca 023f 728c 1ec0
000003f0: a299 75bf 794b 4f3f f59e 66be 1fc8 a63d
-0.94139916 -2.058662 2.3229651 1.6339232 -0.6329188 -0.10918725 -0.324004 0.4544214
0.2013938 -0.035855737 -0.14244583 -0.09231524 1.1351653 0.5351465 0.2295238 0.94018316
0.7129632 -0.4610398 -0.41108003 0.52940005 0.9796739 0.19302848 -0.61363924 0.27905446
-0.6675748 -0.4117406 0.70177823 -0.1528369 2.2087505 -1.5109547 -0.19835657 -1.019158
-1.4440249 1.2677038 1.8135936 -0.6371003 0.6904269 -0.22329392 -0.23762734 0.073473446
1.3220946 -0.510029 -0.49853894 -1.5060203 0.9293366 0.41364083 -0.32028204 2.1557336
-0.5413178 -0.77958924 -0.5371235 0.18426791 -1.2188631 0.7916544 1.2199306 -0.9539818
-0.05886076 -0.46896487 0.12568964 -1.3657712 -0.21110316 -0.3970067 -0.7165955 0.038194455
-1.2877767 -0.76119155 -0.70191157 0.03271046 2.599937 0.53158945 0.722404 0.8016127
-0.68442523 -0.5708733 -0.72414577 0.26469204 -0.060493506 -1.1061502 0.6614314 -0.18773498
-0.40800112 -0.3174345 0.006045908 1.1708984 2.344614 0.4114673 0.6211687 0.82967806
-2.8865027 -0.443154 0.0065366137 -0.51366186 2.1886122 -1.2690865 -0.8157043 -1.3344325
-0.3114339 -1.1787179 -0.43313676 -0.37468487 -1.240198 -0.105359815 -0.37063414 -0.92455494
0.27252877 0.40813062 1.3978469 0.22208175 -0.009214561 -0.6200073 -1.1342188 0.4280453
-1.8782649 -0.7059044 0.16033795 1.9494077 -0.33684444 1.1808041 -0.5634439 -0.13658981
0.71825045 0.4391578 0.12627052 -0.25992548 0.047170892 0.29878223 0.7461118 1.7557324
-0.90460837 -0.26650873 -0.2969788 1.6816626 -0.20570439 0.5688571 0.42079648 0.71273494
-1.4828008 -0.25923085 -0.009344548 -1.5828959 -1.8284782 0.67536867 -0.19525295 -0.9053032
-0.97022516 -0.22445829 -0.11662544 0.34962827 -0.904553 -0.03448642 0.31289607 -3.3450358
0.21591592 0.16879551 -0.18865588 -0.115421794 2.069549 0.39620033 0.9975161 0.18023625
0.24449599 0.95907193 0.47390106 1.0155313 -0.27449 -0.33756435 0.40474275 -2.2557077
-0.5239704 -0.114243545 0.99605286 1.3834455 -0.31436667 0.19571318 -0.097154304 -1.032385
0.343514 -0.5387987 0.8149202 -0.28644106 -1.2696277 0.32726195 -0.40200678 0.0011243214
-1.0019982 -0.119899355 0.21143773 0.5895983 -0.13213843 3.674346 -1.5323578 0.035475124
1.9596049 -0.9987326 0.4689057 0.9002495 -0.53187823 0.32705045 -0.29478288 1.4543281
-0.35930297 -0.66933715 0.72541785 -0.32704622 0.8417486 0.55342084 0.11151909 -1.4186598
-0.21991618 -0.15175997 -1.2200122 3.755476 -0.5753998 0.13013864 -0.12369158 -1.0392485
0.28160736 0.36334473 -0.5029257 -0.71438134 0.32036102 -0.25711006 0.08171182 0.22340819
-1.1104853 -1.4102578 -0.63219154 0.2681049 0.42918047 -0.073247366 -0.45277658 0.6431388
0.084076814 1.310577 0.076237306 -0.014087351 -1.8980677 -1.0310292 -1.0960569 0.04092621
1.2818499 0.17959124 0.055290103 -2.1166074 -0.77059805 -0.06282483 0.5399241 -1.6747459
-1.3195148 -0.012853793 0.5109057 -2.477322 -0.9593755 0.8097454 -0.22521575 0.08143639

fc1.bias f4 [16]
00000000: 453b 44bd 546a 3ebe 2566 6fbf 9f2f 4b3d
00000010: 9162 30bf c184 913f 22da eebe 1eee bd3e
00000020: b024 b43f 4f10 c63f c57e 93bf 2857 f2be
00000030: aaee 2abe 8c50 09bf e25e 4f3d a985 d23f
-0.047908086 -0.18595248 -0.93515235 0.049605962 -0.689004 1.1368638 -0.46650797 0.37095731
1.4073696 1.5473727 -1.1523062 -0.4733212 -0.16692606 -0.5363853 0.050627597 1.644704

fc2.weight f4 [10, 16]
00000000: d38c 9ebd d34f d93e eef9 dfbe 86f4 703d
00000010: 3888 a2bf f192 1ac0 2ede 353f 48cb 14bf
00000020: 29b7 a6bf 7581 10bf 977e 15bf 63af 0bc0
00000030: e1aa 28c0 8cd1 9dbe 4e5b a8bf acc0 c4be
00000040: 23cb 9d3e eb91 0fc0 7618 c6c0 76d5 16c0
00000050: e016 03bf a733 b6bf 3d22 4ec0 2b09 e5bf
00000060: e4cc b13e 9358 c33f d251 5f3f 748c bd3f
00000070: 10ed 99bd 01df 34c0 2672 7bbf 84a8 6b3f
00000080: 82de 02be d6d7 adbe f01d e9be 2a05 cebe
00000090: b9bb 953f c584 9abf 79ab 2ebf bae1 1ebf
000000a0: f17c 15c0 a5a0 91bf e303 d9bf 6871 98bf
000000b0: e741 e5be 6138 eb3c 6030 d0be d0f1 f0be
000000c0: ac3e bd3e 23e6 8fbe 0eb1 d5bf 0742 ebbf
000000d0: f509 8bbf ddf9 fdbe 2c0c 2cbf dc5e dfbe
000000e0: 2588 04c0 da78 a33d 36b6 96bf 1757 02c0
000000f0: f89b 403f c6d0 593e 5d3c 113f 93d8 9bbf
00000100: 58d4 55c0 23bc 30bf c660 febd 161f 803e
00000110: 0bdc a1bf 1ee2 823f d4ce 1fc0 60ae f53d
00000120: 2d4e f9bd 7070 5dbf 2679 64bf 5944 5b3f
00000130: bcb8 cabd 3725 dcbe 98ad 21c0 eef2 dcbe
00000140: 7eb8 c2bf 4958 1ebf 62af 71bf 5402 f2bf
00000150: 16fa 46bf bfc1 56bf 8a39 97bc 51e0 fe3e
00000160: 3434 d1be 149e 7dbc eb35 113f 0353 d5bf
00000170: 27d1 04c0 ec74 f2bf 5107 383f 4f6b 67c0
00000180: d52c 41c0 b7b0 1dbf c03c 7c3f 5fde ee3d
00000190: 48ce d2be b752 3dc0 7a97 7cbf e31a 7e3d
000001a0: 3749 7cbf 9b84 103f a3d9 60bf eddd 09c0
000001b0: 5730 89bf ec89 babd 0046 73c0 b228 8dbf
000001c0: 249c a4bf 6d56 26c0 962c 7fbd d48b efbf
000001d0: 77be 04be cc68 dfbe 6975 373f d75f 55c0
000001e0: ba32 c93d 519c f4bf 5a53 17be 9990 783e
000001f0: 258c 2fbe ac61 4ebe 3fee 04be 0b87 6b3e
00000200: c555 92bf fa36 36be 0540 92bf f8ed 0fc0
00000210: 061a 4ebf 1b7c 22c0 792e fabe b056 d23e
00000220: 27b6 ad3e 0848 88bf b040 45bf 7c3f 73bf
00000230: 7976 a3bc 04e8 623b e98f b0be 3443 13bf
00000240: a7ef 54bf 827e d9bf ab61 93bf 7b0f 6dbf
00000250: 7377 0fc0 8897 813e c92a b8be 9eee c3be
00000260: 3e66 883e 1f35 babf 6140 1ac0 f789 8e3e
00000270: 2fd4 94bf eb5d 433f 36ed 3fbf cc46 323e
-0.07741704 0.42443714 -0.4374537 0.058826946 -1.2697821 -2.4152186 0.71042144 -0.5812268
-1.3024646 -0.56447536 -0.58396286 -2.1825798 -2.6354296 -0.30823934 -1.3152864 -0.38428247
0.30819044 -2.2432811 -6.190486 -2.3567786 -0.5120678 -1.4234513 -3.2208397 -1.7893423
0.34726632 1.5261406 0.8723422 1.4808488 -0.07515919 -2.826111 -0.9822105 0.9205401
-0.12780192 -0.33953732 -0.45530653 -0.40238315 1.1697913 -1.2071768 -0.68230397 -0.6206318
-2.3357508 -1.137715 -1.6954311 -1.1909609 -0.44776842 0.028713407 -0.40661907 -0.47059488
0.36961877 -0.28105268 -1.6694658 -1.8379525 -1.0862414 -0.49604693 -0.6720607 -0.4362706
-2.0708096 0.07982035 -1.1774356 -2.0365655 0.7523799 0.21271047 0.5673273 -1.2175468
-3.3410854 -0.69037074 -0.12420802 0.25023717 -1.2645277 1.0225255 -2.4969988 0.1199615
-0.12173114 -0.8649969 -0.8924736 0.85651165 -0.098985165 -0.42997143 -2.5262203 -0.4315409
-1.5212553 -0.6185346 -0.9440824 -1.890696 -0.7772535 -0.83889383 -0.018460054 0.49780515
-0.4086014 -0.015479583 0.567229 -1.6665958 -2.0752656 -1.8941932 0.71886164 -3.6159246
-3.0183613 -0.6159777 0.985302 0.11663508 -0.41173005 -2.9581735 -0.98668635 0.06203736
-0.98549217 0.5645234 -0.8783209 -2.1541703 -1.0717877 -0.09108338 -3.8011475 -1.1028044
-1.286015 -2.599025 -0.06229838 -1.8714547 -0.12963282 -0.4363464 0.7166353 -3.3339746
0.098241284 -1.9110204 -0.1477789 0.2427391 -0.17143305 -0.20154446 -0.12981509 0.23000734
-1.1432425 -0.1779441 -1.1425787 -2.2488995 -0.8050846 -2.5388248 -0.4886358 0.41081762
0.33928034 -1.0646982 -0.7705183 -0.95018744 -0.019953953 0.0034623155 -0.34484795 -0.5752442
-0.8317818 -1.6991732 -1.1514181 -0.92601746 -2.2416656 0.25310922 -0.35970142 -0.38267988
0.26640505 -1.4547461 -2.4101794 0.27839634 -1.1627253 0.7631518 -0.7497133 0.1740982

fc2.bias f4 [10]
00000000: 0b70 91bf e0be f13f 518f 823e 4c77 2abf
00000010: 098e c9bd ca37 06bf d6aa c53d 3984 a8bd
00000020: db40 74bf e412 9dbe
-1.1362318 1.8886375 0.25499967 -0.6658828 -0.09841544 -0.5242888 0.09651725 -0.082283445
-0.9541146 -0.30678475
